model_quantized.tflite (tflite, 81200 bytes, 25 tensors)

tfl.pseudo_qconst1 i1 [6, 64]
0	0xb8	-72
1	0x49	73
2	0x21	33
3	0xc8	-56
4	0xbd	-67
5	0xeb	-21
6	0xe4	-28
7	0xc7	-57
8	0x68	104
9	0x5b	91
10	0x3a	58
11	0xee	-18
12	0xc4	-60
13	0xa3	-93
14	0xd9	-39
15	0x92	-110
16	0xe8	-24
17	0xe5	-27
18	0xf5	-11
19	0x2a	42
20	0x0c	12
21	0x74	116
22	0x81	-127
23	0x9a	-102
24	0xbb	-69
25	0x71	113
26	0x17	23
27	0xa4	-92
28	0x66	102
29	0xd3	-45
30	0xf4	-12
31	0x17	23
32	0xda	-38
33	0xc2	-62
34	0xd2	-46
35	0xc2	-62
36	0x2c	44
37	0x61	97
38	0xc5	-59
39	0x11	17
40	0x4d	77
41	0xdb	-37
42	0x40	64
43	0xee	-18
44	0x11	17
45	0xeb	-21
46	0x43	67
47	0x90	-112
48	0xda	-38
49	0x4e	78
50	0xb1	-79
51	0x37	55
52	0x4f	79
53	0xc8	-56
54	0xdc	-36
55	0xdc	-36
56	0x17	23
57	0x96	-106
58	0x41	65
59	0x5a	90
60	0xf5	-11
61	0x56	86
62	0xbe	-66
63	0xed	-19
64	0x7f	127
65	0xf3	-13
66	0x60	96
67	0x6d	109
68	0xe0	-32
69	0x42	66
70	0x64	100
71	0xd3	-45
72	0xfb	-5
73	0x24	36
74	0x39	57
75	0x51	81
76	0xdc	-36
77	0x68	104
78	0xbd	-67
79	0x5a	90
80	0xa5	-91
81	0xd8	-40
82	0xa9	-87
83	0x2d	45
84	0xd5	-43
85	0xc0	-64
86	0x9d	-99
87	0x17	23
88	0xe0	-32
89	0x68	104
90	0x05	5
91	0x15	21
92	0x37	55
93	0x65	101
94	0x78	120
95	0xf3	-13
96	0x69	105
97	0xbd	-67
98	0xc4	-60
99	0xb0	-80
100	0xf5	-11
101	0xb3	-77
102	0x79	121
103	0x99	-103
104	0xd2	-46
105	0xfb	-5
106	0x1b	27
107	0xb0	-80
108	0xaf	-81
109	0x97	-105
110	0x8d	-115
111	0x18	24
112	0x5e	94
113	0xa4	-92
114	0xda	-38
115	0x47	71
116	0x08	8
117	0x69	105
118	0x84	-124
119	0x0b	11
120	0x6a	106
121	0x3d	61
122	0x00	0
123	0x47	71
124	0x4d	77
125	0xe3	-29
126	0xc8	-56
127	0xdc	-36
128	0x2c	44
129	0xa2	-94
130	0x51	81
131	0xf4	-12
132	0x06	6
133	0xa7	-89
134	0x13	19
135	0x7d	125
136	0xd0	-48
137	0x72	114
138	0x9b	-101
139	0x7e	126
140	0x55	85
141	0x58	88
142	0x5c	92
143	0x8a	-118
144	0xea	-22
145	0xf2	-14
146	0x5e	94
147	0xb0	-80
148	0xd8	-40
149	0x4e	78
150	0x6f	111
151	0x0d	13
152	0x62	98
153	0xf9	-7
154	0x5d	93
155	0x25	37
156	0x91	-111
157	0xcf	-49
158	0xb7	-73
159	0xd0	-48
160	0x93	-109
161	0xd9	-39
162	0x98	-104
163	0x71	113
164	0xd7	-41
165	0xc5	-59
166	0x97	-105
167	0x2f	47
168	0xe9	-23
169	0x7d	125
170	0x17	23
171	0xa3	-93
172	0x25	37
173	0xfe	-2
174	0x82	-126
175	0x05	5
176	0x00	0
177	0x95	-107
178	0x35	53
179	0x7f	127
180	0xd8	-40
181	0x26	38
182	0x9c	-100
183	0x92	-110
184	0x8a	-118
185	0x2b	43
186	0xe4	-28
187	0x98	-104
188	0x58	88
189	0xc2	-62
190	0xa2	-94
191	0xf3	-13
192	0xc5	-59
193	0x5a	90
194	0x04	4
195	0x05	5
196	0xff	-1
197	0x9c	-100
198	0x35	53
199	0xf1	-15
200	0x67	103
201	0x29	41
202	0xdd	-35
203	0x1a	26
204	0xed	-19
205	0x18	24
206	0x8f	-113
207	0x7f	127
208	0x93	-109
209	0x7a	122
210	0xa8	-88
211	0x4f	79
212	0xfa	-6
213	0xdb	-37
214	0xca	-54
215	0x33	51
216	0x11	17
217	0x2b	43
218	0xbe	-66
219	0x43	67
220	0x6a	106
221	0x8a	-118
222	0x9c	-100
223	0x93	-109
224	0x64	100
225	0xb4	-76
226	0x57	87
227	0xf5	-11
228	0xb6	-74
229	0x32	50
230	0x12	18
231	0x4e	78
232	0x37	55
233	0xd9	-39
234	0x27	39
235	0xac	-84
236	0xdf	-33
237	0xf8	-8
238	0xe5	-27
239	0xda	-38
240	0x2e	46
241	0x70	112
242	0xe1	-31
243	0xbc	-68
244	0x72	114
245	0xe0	-32
246	0x15	21
247	0xa1	-95
248	0x15	21
249	0xb7	-73
250	0x93	-109
251	0xcd	-51
252	0x36	54
253	0xf2	-14
254	0x16	22
255	0xe4	-28

tfl.pseudo_qconst3 i1 [64, 32]
0	0x12	18
1	0x6e	110
2	0x37	55
3	0x4a	74
4	0xa0	-96
5	0xa8	-88
6	0x6d	109
7	0x54	84
8	0xdf	-33
9	0xe2	-30
10	0xc2	-62
11	0xaa	-86
12	0xaa	-86
13	0x5c	92
14	0x35	53
15	0x1f	31
16	0x23	35
17	0xda	-38
18	0x15	21
19	0xd3	-45
20	0x4e	78
21	0x93	-109
22	0x52	82
23	0x4d	77
24	0xd2	-46
25	0xca	-54
26	0x81	-127
27	0x55	85
28	0xc6	-58
29	0x9c	-100
30	0x1c	28
31	0x0a	10
32	0x0a	10
33	0x91	-111
34	0xe0	-32
35	0x45	69
36	0xdf	-33
37	0x4e	78
38	0x69	105
39	0x4b	75
40	0x89	-119
41	0x3c	60
42	0x37	55
43	0x1c	28
44	0x4d	77
45	0xe7	-25
46	0x8d	-115
47	0x5d	93
48	0x07	7
49	0x7f	127
50	0xde	-34
51	0x27	39
52	0x76	118
53	0x18	24
54	0x53	83
55	0x68	104
56	0x1e	30
57	0xee	-18
58	0x1e	30
59	0x16	22
60	0x93	-109
61	0x0f	15
62	0xf2	-14
63	0x6e	110
64	0x5f	95
65	0xa2	-94
66	0x0d	13
67	0x51	81
68	0x06	6
69	0x13	19
70	0x5d	93
71	0x88	-120
72	0xcd	-51
73	0x00	0
74	0x46	70
75	0x4a	74
76	0x59	89
77	0x75	117
78	0x39	57
79	0x04	4
80	0x64	100
81	0x19	25
82	0xb1	-79
83	0x9d	-99
84	0x2f	47
85	0x81	-127
86	0xaf	-81
87	0x99	-103
88	0x92	-110
89	0x3a	58
90	0x7a	122
91	0x3c	60
92	0xda	-38
93	0x4c	76
94	0x22	34
95	0xbb	-69
96	0x17	23
97	0x05	5
98	0x81	-127
99	0x15	21
100	0x3e	62
101	0x26	38
102	0xbb	-69
103	0xc7	-57
104	0x73	115
105	0x74	116
106	0xcd	-51
107	0xae	-82
108	0x2f	47
109	0x4a	74
110	0x74	116
111	0x78	120
112	0x29	41
113	0x42	66
114	0x12	18
115	0x5c	92
116	0x5d	93
117	0x4d	77
118	0x7d	125
119	0xef	-17
120	0x84	-124
121	0xb4	-76
122	0x69	105
123	0xf1	-15
124	0xf8	-8
125	0xd4	-44
126	0xd5	-43
127	0x01	1
128	0x28	40
129	0xb9	-71
130	0x65	101
131	0x5a	90
132	0x42	66
133	0x4f	79
134	0xd0	-48
135	0x0b	11
136	0xe7	-25
137	0x66	102
138	0x0c	12
139	0x92	-110
140	0x8c	-116
141	0x7f	127
142	0xa3	-93
143	0x7c	124
144	0x5a	90
145	0xaf	-81
146	0xa1	-95
147	0x25	37
148	0x20	32
149	0x24	36
150	0x9a	-102
151	0x5e	94
152	0x45	69
153	0x0e	14
154	0x82	-126
155	0x21	33
156	0xde	-34
157	0x6a	106
158	0xe4	-28
159	0x06	6
160	0xae	-82
161	0x99	-103
162	0x60	96
163	0xd8	-40
164	0xcf	-49
165	0x91	-111
166	0xe3	-29
167	0xce	-50
168	0x99	-103
169	0x9c	-100
170	0xdc	-36
171	0x3f	63
172	0xdc	-36
173	0x74	116
174	0x31	49
175	0xaf	-81
176	0xa2	-94
177	0xa3	-93
178	0x5c	92
179	0xe8	-24
180	0x1c	28
181	0xdd	-35
182	0x34	52
183	0x7f	127
184	0x47	71
185	0x1d	29
186	0xb8	-72
187	0xa2	-94
188	0xa2	-94
189	0x8a	-118
190	0xb4	-76
191	0xab	-85
192	0x33	51
193	0x3a	58
194	0x19	25
195	0x27	39
196	0x14	20
197	0xd6	-42
198	0x91	-111
199	0x7f	127
200	0x62	98
201	0x88	-120
202	0x0b	11
203	0x67	103
204	0xa0	-96
205	0x8d	-115
206	0x53	83
207	0x85	-123
208	0xe1	-31
209	0x93	-109
210	0xfd	-3
211	0x41	65
212	0x97	-105
213	0x6a	106
214	0xfa	-6
215	0x65	101
216	0xb2	-78
217	0xd9	-39
218	0x30	48
219	0x73	115
220	0x2a	42
221	0x02	2
222	0x2a	42
223	0xde	-34
224	0x0f	15
225	0x2e	46
226	0x5d	93
227	0xee	-18
228	0x05	5
229	0xa8	-88
230	0x8b	-117
231	0xe8	-24
232	0x25	37
233	0xf8	-8
234	0x68	104
235	0x2d	45
236	0x09	9
237	0x27	39
238	0xe7	-25
239	0x1e	30
240	0x49	73
241	0xa5	-91
242	0xb4	-76
243	0xe0	-32
244	0xe5	-27
245	0x22	34
246	0x2b	43
247	0x04	4
248	0x9d	-99
249	0x95	-107
250	0x81	-127
251	0xc2	-62
252	0xd8	-40
253	0xd3	-45
254	0x6f	111
255	0x9c	-100

tfl.pseudo_qconst4 i1 [32] scale=0.00039602286 zero_point=-19
0	0xd6	-0.009108526
1	0xd6	-0.009108526
2	0xb0	-0.024157396
3	0xe0	-0.005148297
4	0xd6	-0.009108526
5	0xdb	-0.0071284114
6	0xe4	-0.0035642057
7	0xd8	-0.008316481
8	0xd1	-0.01108864
9	0xda	-0.0075244345
10	0xe8	-0.0019801143
11	0xd1	-0.01108864
12	0xf4	0.00277216
13	0x7d	0.05702729
14	0xed	0.0
15	0xc4	-0.016236937
16	0x47	0.035642058
17	0xd1	-0.01108864
18	0xce	-0.012276709
19	0xd3	-0.010296594
20	0xed	0.0
21	0x7f	0.057819337
22	0xed	0.0
23	0xab	-0.026137508
24	0xda	-0.0075244345
25	0xc8	-0.014652846
26	0x2e	0.025741486
27	0xc1	-0.017425006
28	0x0b	0.011880686
29	0xf3	0.0023761373
30	0x01	0.007920457
31	0x80	-0.043166492

tfl.pseudo_qconst5 i1 [32, 1, 3, 32]
0	0x9f	-97
1	0xef	-17
2	0xd4	-44
3	0x02	2
4	0xbd	-67
5	0xb3	-77
6	0x40	64
7	0xf1	-15
8	0x02	2
9	0x0f	15
10	0x8e	-114
11	0x14	20
12	0xfd	-3
13	0xde	-34
14	0x65	101
15	0x16	22
16	0x2d	45
17	0xa6	-90
18	0xfe	-2
19	0x11	17
20	0xd1	-47
21	0x56	86
22	0xbc	-68
23	0x6c	108
24	0xea	-22
25	0xe4	-28
26	0xf1	-15
27	0xa8	-88
28	0x1c	28
29	0x12	18
30	0xcc	-52
31	0x12	18
32	0xb1	-79
33	0x16	22
34	0xfd	-3
35	0x14	20
36	0x58	88
37	0x45	69
38	0x1c	28
39	0x51	81
40	0x02	2
41	0xca	-54
42	0xfa	-6
43	0x44	68
44	0x26	38
45	0x26	38
46	0xa9	-87
47	0xd4	-44
48	0x25	37
49	0x35	53
50	0x09	9
51	0xce	-50
52	0x07	7
53	0xff	-1
54	0x20	32
55	0x0c	12
56	0x1e	30
57	0x04	4
58	0x5c	92
59	0xd3	-45
60	0x03	3
61	0x1f	31
62	0x45	69
63	0xed	-19
64	0x06	6
65	0x01	1
66	0xc7	-57
67	0xbc	-68
68	0x24	36
69	0x1b	27
70	0x4a	74
71	0x48	72
72	0xbd	-67
73	0x8c	-116
74	0xf5	-11
75	0xfe	-2
76	0xdf	-33
77	0x81	-127
78	0x52	82
79	0xa1	-95
80	0x5c	92
81	0x20	32
82	0x26	38
83	0x01	1
84	0xad	-83
85	0xee	-18
86	0x64	100
87	0xd9	-39
88	0xc0	-64
89	0xbf	-65
90	0xdd	-35
91	0x9e	-98
92	0x68	104
93	0x55	85
94	0xce	-50
95	0x00	0
96	0x60	96
97	0x0e	14
98	0xd8	-40
99	0x18	24
100	0x34	52
101	0x38	56
102	0x37	55
103	0x7f	127
104	0x35	53
105	0x7f	127
106	0x0e	14
107	0xc1	-63
108	0x3f	63
109	0x53	83
110	0xfe	-2
111	0xde	-34
112	0xbc	-68
113	0x95	-107
114	0xfc	-4
115	0x61	97
116	0xe2	-30
117	0x08	8
118	0x29	41
119	0x3f	63
120	0xb4	-76
121	0xd4	-44
122	0xb6	-74
123	0xc8	-56
124	0x63	99
125	0x1e	30
126	0x10	16
127	0xd8	-40
128	0xec	-20
129	0x3c	60
130	0xdc	-36
131	0xad	-83
132	0xa9	-87
133	0xda	-38
134	0xd2	-46
135	0xe5	-27
136	0xf4	-12
137	0xf6	-10
138	0xef	-17
139	0x48	72
140	0x44	68
141	0x3c	60
142	0xa9	-87
143	0xe3	-29
144	0x16	22
145	0x95	-107
146	0x11	17
147	0xd5	-43
148	0x2c	44
149	0x21	33
150	0xfe	-2
151	0x0c	12
152	0xe4	-28
153	0x1f	31
154	0xbf	-65
155	0xa8	-88
156	0x7c	124
157	0x12	18
158	0xee	-18
159	0xd4	-44
160	0x1d	29
161	0x4e	78
162	0x4d	77
163	0x64	100
164	0x18	24
165	0x24	36
166	0x02	2
167	0xf8	-8
168	0xe7	-25
169	0x69	105
170	0x26	38
171	0x94	-108
172	0x07	7
173	0x0e	14
174	0xe3	-29
175	0xa2	-94
176	0x33	51
177	0x94	-108
178	0x3b	59
179	0xa5	-91
180	0xdd	-35
181	0xf2	-14
182	0x01	1
183	0xa0	-96
184	0x22	34
185	0xfd	-3
186	0x42	66
187	0xe3	-29
188	0x32	50
189	0x1f	31
190	0x68	104
191	0x7e	126
192	0x36	54
193	0x48	72
194	0x06	6
195	0x06	6
196	0xf2	-14
197	0x28	40
198	0x1c	28
199	0x8a	-118
200	0x0d	13
201	0xae	-82
202	0x51	81
203	0x00	0
204	0x49	73
205	0x0e	14
206	0x24	36
207	0xbe	-66
208	0x17	23
209	0xc7	-57
210	0xbd	-67
211	0xbd	-67
212	0x60	96
213	0x1d	29
214	0x5a	90
215	0x14	20
216	0xe2	-30
217	0xeb	-21
218	0xb4	-76
219	0x96	-106
220	0xc2	-62
221	0xc6	-58
222	0xbc	-68
223	0x0b	11
224	0x1e	30
225	0x1b	27
226	0xcc	-52
227	0xfb	-5
228	0xe9	-23
229	0x3e	62
230	0xfc	-4
231	0xd3	-45
232	0xfc	-4
233	0xc9	-55
234	0xf1	-15
235	0x26	38
236	0xa2	-94
237	0x06	6
238	0x3f	63
239	0x44	68
240	0x2a	42
241	0xd8	-40
242	0xf2	-14
243	0xe3	-29
244	0x12	18
245	0xf1	-15
246	0xb9	-71
247	0x0b	11
248	0x09	9
249	0xf3	-13
250	0x7e	126
251	0x24	36
252	0x5f	95
253	0xae	-82
254	0x44	68
255	0xfa	-6

tfl.pseudo_qconst6 i1 [32] scale=0.00039034444 zero_point=-26
0	0xc2	-0.0140524
1	0xbd	-0.016004123
2	0xda	-0.0046841335
3	0xce	-0.009368267
4	0xcb	-0.0105393
5	0x12	0.017175155
6	0x16	0.018736534
7	0x21	0.023030322
8	0xbb	-0.016784811
9	0xe1	-0.0019517222
10	0xa4	-0.025762733
11	0xd3	-0.0074165445
12	0x1b	0.020688256
13	0x48	0.038253754
14	0x9c	-0.02888549
15	0xd9	-0.0050744778
16	0xd0	-0.008587577
17	0xd0	-0.008587577
18	0xc2	-0.0140524
19	0x92	-0.032788932
20	0x34	0.030446867
21	0xcd	-0.009758611
22	0x26	0.024982044
23	0xf5	0.005855167
24	0x80	-0.03981513
25	0xea	0.0015613778
26	0xf5	0.005855167
27	0xcc	-0.0101489555
28	0x27	0.02537239
29	0x7f	0.0597227
30	0x83	-0.0386441
31	0xcd	-0.009758611

tfl.pseudo_qconst7 i1 [32, 1, 3, 32]
0	0xd5	-43
1	0xb6	-74
2	0xb0	-80
3	0xcc	-52
4	0x0c	12
5	0x00	0
6	0x2c	44
7	0xf8	-8
8	0x09	9
9	0x00	0
10	0xa9	-87
11	0x04	4
12	0x17	23
13	0x12	18
14	0x4c	76
15	0x42	66
16	0x2d	45
17	0xc0	-64
18	0x15	21
19	0xe2	-30
20	0xc6	-58
21	0xcb	-53
22	0x7a	122
23	0x92	-110
24	0x24	36
25	0x22	34
26	0xb8	-72
27	0x95	-107
28	0x09	9
29	0x10	16
30	0xcc	-52
31	0x51	81
32	0xee	-18
33	0x01	1
34	0x07	7
35	0xa3	-93
36	0x46	70
37	0x85	-123
38	0xe3	-29
39	0xda	-38
40	0xf1	-15
41	0x09	9
42	0xe3	-29
43	0xd2	-46
44	0xe0	-32
45	0xed	-19
46	0x63	99
47	0xb3	-77
48	0xf0	-16
49	0x13	19
50	0x28	40
51	0x3c	60
52	0xdc	-36
53	0xdb	-37
54	0x33	51
55	0xf6	-10
56	0xe6	-26
57	0xeb	-21
58	0x54	84
59	0x3f	63
60	0x1b	27
61	0xf2	-14
62	0x0b	11
63	0x05	5
64	0x1f	31
65	0x0e	14
66	0x09	9
67	0xfd	-3
68	0xd1	-47
69	0x7f	127
70	0x11	17
71	0xe2	-30
72	0x59	89
73	0x9d	-99
74	0xb4	-76
75	0x72	114
76	0xa1	-95
77	0x41	65
78	0xd3	-45
79	0xdc	-36
80	0x08	8
81	0xe0	-32
82	0x52	82
83	0x3d	61
84	0x09	9
85	0xdf	-33
86	0x47	71
87	0x27	39
88	0x32	50
89	0x18	24
90	0x46	70
91	0x96	-106
92	0xfe	-2
93	0x05	5
94	0x49	73
95	0xd3	-45
96	0x68	104
97	0xc6	-58
98	0xf3	-13
99	0xb7	-73
100	0x3d	61
101	0x29	41
102	0xe6	-26
103	0x65	101
104	0x51	81
105	0xc4	-60
106	0xbb	-69
107	0xc1	-63
108	0xb5	-75
109	0x00	0
110	0x0b	11
111	0x25	37
112	0x08	8
113	0x1a	26
114	0xf6	-10
115	0x4c	76
116	0x7f	127
117	0xb0	-80
118	0xf3	-13
119	0xf3	-13
120	0xfe	-2
121	0x4a	74
122	0xc0	-64
123	0xa9	-87
124	0x17	23
125	0x4a	74
126	0xb6	-74
127	0xeb	-21
128	0xec	-20
129	0x97	-105
130	0x4a	74
131	0x30	48
132	0x20	32
133	0xf3	-13
134	0x4c	76
135	0xf7	-9
136	0xd0	-48
137	0x28	40
138	0x37	55
139	0x0d	13
140	0x26	38
141	0x0a	10
142	0x18	24
143	0xcf	-49
144	0x15	21
145	0x2a	42
146	0x0e	14
147	0xed	-19
148	0x28	40
149	0xfb	-5
150	0xf3	-13
151	0x48	72
152	0x36	54
153	0x0a	10
154	0x4e	78
155	0x03	3
156	0x12	18
157	0x73	115
158	0x17	23
159	0x0f	15
160	0xfc	-4
161	0x98	-104
162	0xfa	-6
163	0x0b	11
164	0x0b	11
165	0xa5	-91
166	0x04	4
167	0x4c	76
168	0xd3	-45
169	0x0e	14
170	0x66	102
171	0xa9	-87
172	0x41	65
173	0xca	-54
174	0xc3	-61
175	0xed	-19
176	0x26	38
177	0x9f	-97
178	0x25	37
179	0xe5	-27
180	0x34	52
181	0x14	20
182	0xb8	-72
183	0xdf	-33
184	0xc5	-59
185	0x10	16
186	0xd2	-46
187	0x58	88
188	0x78	120
189	0xfa	-6
190	0x1e	30
191	0xa5	-91
192	0x67	103
193	0xb1	-79
194	0x2c	44
195	0xf6	-10
196	0x28	40
197	0x19	25
198	0x17	23
199	0xca	-54
200	0xdf	-33
201	0x79	121
202	0xbf	-65
203	0xd3	-45
204	0xc3	-61
205	0x56	86
206	0x3c	60
207	0x06	6
208	0xf6	-10
209	0x99	-103
210	0xae	-82
211	0x20	32
212	0x0b	11
213	0x28	40
214	0xaf	-81
215	0x16	22
216	0xd6	-42
217	0x4f	79
218	0x40	64
219	0x41	65
220	0x05	5
221	0x0b	11
222	0xf9	-7
223	0x2a	42
224	0xad	-83
225	0xcb	-53
226	0x2b	43
227	0xf6	-10
228	0x2f	47
229	0x37	55
230	0xfc	-4
231	0x06	6
232	0x4f	79
233	0x10	16
234	0x60	96
235	0x05	5
236	0xcf	-49
237	0x62	98
238	0xc2	-62
239	0x44	68
240	0xd4	-44
241	0x21	33
242	0xae	-82
243	0xcf	-49
244	0xee	-18
245	0x2b	43
246	0x14	20
247	0x1a	26
248	0x37	55
249	0x9f	-97
250	0xf2	-14
251	0xe9	-23
252	0xb0	-80
253	0x2f	47
254	0xef	-17
255	0xbd	-67

tfl.pseudo_qconst8 i1 [32] scale=0.000379552 zero_point=-44
0	0xdc	0.003036416
1	0xda	0.0022773119
2	0xe1	0.004934176
3	0xc9	-0.004175072
4	0xbd	-0.008729695
5	0x8e	-0.02656864
6	0x80	-0.031882368
7	0xbc	-0.0091092475
8	0xaf	-0.014043423
9	0xd1	-0.0011386559
10	0xb0	-0.013663871
11	0xac	-0.01518208
12	0xde	0.00379552
13	0x4b	0.045166686
14	0x63	0.054275934
15	0xcc	-0.003036416
16	0x9a	-0.022014014
17	0x90	-0.025809536
18	0x90	-0.025809536
19	0x8a	-0.028086847
20	0x99	-0.022393567
21	0x7f	0.06490339
22	0xad	-0.014802528
23	0xb1	-0.01328432
24	0x3b	0.039093856
25	0x82	-0.031123264
26	0xa4	-0.018218495
27	0xaa	-0.015941184
28	0xf1	0.011007007
29	0xae	-0.0144229755
30	0xbd	-0.008729695
31	0xa9	-0.016320735

tfl.pseudo_qconst9 i1 [32, 1, 3, 32]
0	0x82	-126
1	0x6b	107
2	0x4a	74
3	0x13	19
4	0x4c	76
5	0x15	21
6	0xac	-84
7	0x12	18
8	0x21	33
9	0xef	-17
10	0x27	39
11	0xfa	-6
12	0xc9	-55
13	0xfa	-6
14	0x51	81
15	0xda	-38
16	0x14	20
17	0x68	104
18	0x3b	59
19	0x47	71
20	0x10	16
21	0x1a	26
22	0x34	52
23	0xa3	-93
24	0xec	-20
25	0xbd	-67
26	0x17	23
27	0xd9	-39
28	0xf6	-10
29	0x10	16
30	0x2c	44
31	0x23	35
32	0xc0	-64
33	0xd5	-43
34	0xe9	-23
35	0x9b	-101
36	0x4b	75
37	0x2a	42
38	0x5f	95
39	0x67	103
40	0xf1	-15
41	0xf1	-15
42	0xf8	-8
43	0x2b	43
44	0x38	56
45	0xe6	-26
46	0x81	-127
47	0x40	64
48	0xe7	-25
49	0x4d	77
50	0xdb	-37
51	0x31	49
52	0xa3	-93
53	0xe6	-26
54	0xd8	-40
55	0xd5	-43
56	0x0a	10
57	0xcd	-51
58	0x14	20
59	0x64	100
60	0x0c	12
61	0xd5	-43
62	0xf9	-7
63	0x02	2
64	0x9a	-102
65	0xc7	-57
66	0x0a	10
67	0x65	101
68	0x0b	11
69	0x1d	29
70	0x4e	78
71	0x32	50
72	0x48	72
73	0x01	1
74	0xc9	-55
75	0x89	-119
76	0x13	19
77	0x9c	-100
78	0x18	24
79	0xbe	-66
80	0x02	2
81	0xaa	-86
82	0x57	87
83	0xd7	-41
84	0x1b	27
85	0xc5	-59
86	0x46	70
87	0xff	-1
88	0xdb	-37
89	0x71	113
90	0x65	101
91	0x22	34
92	0x2c	44
93	0x04	4
94	0x54	84
95	0x6f	111
96	0x19	25
97	0x15	21
98	0x19	25
99	0x3b	59
100	0xd8	-40
101	0x2d	45
102	0x3d	61
103	0x33	51
104	0xf4	-12
105	0x0d	13
106	0x08	8
107	0x01	1
108	0x00	0
109	0x28	40
110	0x9f	-97
111	0x22	34
112	0xad	-83
113	0x26	38
114	0x64	100
115	0xcd	-51
116	0x8e	-114
117	0xb5	-75
118	0x0d	13
119	0xbd	-67
120	0x9b	-101
121	0x33	51
122	0x34	52
123	0x52	82
124	0x0a	10
125	0x69	105
126	0xe4	-28
127	0xe3	-29
128	0xea	-22
129	0xd7	-41
130	0x17	23
131	0x3b	59
132	0xea	-22
133	0x8e	-114
134	0x0f	15
135	0xa6	-90
136	0x68	104
137	0xd2	-46
138	0x24	36
139	0x98	-104
140	0x68	104
141	0x8b	-117
142	0xd5	-43
143	0x02	2
144	0xc8	-56
145	0x3e	62
146	0x58	88
147	0x19	25
148	0x54	84
149	0xe2	-30
150	0x42	66
151	0x2e	46
152	0x73	115
153	0x7f	127
154	0x97	-105
155	0xf0	-16
156	0x9e	-98
157	0x47	71
158	0x0b	11
159	0x07	7
160	0xe8	-24
161	0x94	-108
162	0x64	100
163	0xfc	-4
164	0x39	57
165	0x66	102
166	0x07	7
167	0x12	18
168	0x01	1
169	0x05	5
170	0x68	104
171	0xcc	-52
172	0x23	35
173	0xb1	-79
174	0xcb	-53
175	0x3c	60
176	0x28	40
177	0xb4	-76
178	0xf1	-15
179	0x00	0
180	0xd5	-43
181	0x54	84
182	0x30	48
183	0x04	4
184	0xeb	-21
185	0x46	70
186	0x69	105
187	0x3f	63
188	0x3a	58
189	0x82	-126
190	0x88	-120
191	0x3f	63
192	0xdd	-35
193	0x32	50
194	0xf8	-8
195	0xcf	-49
196	0xd2	-46
197	0xe3	-29
198	0x09	9
199	0xdb	-37
200	0x1e	30
201	0x07	7
202	0xea	-22
203	0xc4	-60
204	0x26	38
205	0xaa	-86
206	0x20	32
207	0xb1	-79
208	0x0c	12
209	0xdc	-36
210	0xd5	-43
211	0x05	5
212	0xdb	-37
213	0x5b	91
214	0x60	96
215	0xdd	-35
216	0x10	16
217	0xde	-34
218	0x9b	-101
219	0x33	51
220	0x05	5
221	0x1d	29
222	0x99	-103
223	0xe1	-31
224	0x20	32
225	0x1f	31
226	0x15	21
227	0x15	21
228	0x12	18
229	0x34	52
230	0xff	-1
231	0xf5	-11
232	0xc9	-55
233	0xb6	-74
234	0x1d	29
235	0x34	52
236	0xc7	-57
237	0x39	57
238	0xbb	-69
239	0xde	-34
240	0x2e	46
241	0x3b	59
242	0x18	24
243	0x5f	95
244	0x19	25
245	0xd2	-46
246	0xd4	-44
247	0x17	23
248	0x2f	47
249	0x5c	92
250	0xfc	-4
251	0x34	52
252	0x76	118
253	0x81	-127
254	0xd9	-39
255	0xf0	-16

tfl.pseudo_qconst10 i1 [32] scale=0.0003902454 zero_point=-8
0	0x05	0.00507319
1	0x17	0.012097607
2	0x05	0.00507319
3	0xd3	-0.01443908
4	0x65	0.04253675
5	0x6b	0.044878222
6	0x02	0.003902454
7	0xe1	-0.008975645
8	0xbb	-0.02380497
9	0x80	-0.046829447
10	0x05	0.00507319
11	0xd0	-0.015609816
12	0xed	-0.0042926995
13	0xf2	-0.0023414725
14	0xee	-0.003902454
15	0x28	0.01873178
16	0xec	-0.004682945
17	0xbc	-0.023414724
18	0xe3	-0.008195153
19	0x38	0.024975706
20	0x1b	0.013658589
21	0x02	0.003902454
22	0xd3	-0.01443908
23	0xe1	-0.008975645
24	0x0c	0.007804908
25	0x13	0.010536626
26	0x13	0.010536626
27	0xdc	-0.010926872
28	0xf5	-0.0011707363
29	0x55	0.03629282
30	0x7f	0.05268313
31	0xd3	-0.01443908

tfl.pseudo_qconst11 i1 [32, 1, 3, 32]
0	0x50	80
1	0xcd	-51
2	0x68	104
3	0xaa	-86
4	0x09	9
5	0x3a	58
6	0xcb	-53
7	0x99	-103
8	0xf5	-11
9	0xcb	-53
10	0xb3	-77
11	0x00	0
12	0x3b	59
13	0x5c	92
14	0xb7	-73
15	0xc0	-64
16	0x42	66
17	0x60	96
18	0x1b	27
19	0xaf	-81
20	0x45	69
21	0xa7	-89
22	0xfe	-2
23	0xee	-18
24	0xfb	-5
25	0xa1	-95
26	0x58	88
27	0xfa	-6
28	0x8d	-115
29	0xcc	-52
30	0x3b	59
31	0x0a	10
32	0x1e	30
33	0x06	6
34	0x78	120
35	0x3e	62
36	0x4d	77
37	0xdf	-33
38	0x7f	127
39	0x0d	13
40	0xa7	-89
41	0xd8	-40
42	0x61	97
43	0x6b	107
44	0x3b	59
45	0x00	0
46	0xc2	-62
47	0xff	-1
48	0x10	16
49	0xd8	-40
50	0xf3	-13
51	0xe5	-27
52	0x04	4
53	0x4b	75
54	0xdd	-35
55	0xee	-18
56	0xa2	-94
57	0xde	-34
58	0xc5	-59
59	0x11	17
60	0x6e	110
61	0xe1	-31
62	0xb8	-72
63	0x0b	11
64	0xa1	-95
65	0xd0	-48
66	0x52	82
67	0x82	-126
68	0x98	-104
69	0xde	-34
70	0x3c	60
71	0xd2	-46
72	0xeb	-21
73	0x08	8
74	0x14	20
75	0x66	102
76	0xf2	-14
77	0xd8	-40
78	0xa0	-96
79	0x1c	28
80	0xd0	-48
81	0xa8	-88
82	0x11	17
83	0xd4	-44
84	0x1c	28
85	0x43	67
86	0x0c	12
87	0x1e	30
88	0x3c	60
89	0x36	54
90	0x27	39
91	0xcf	-49
92	0x35	53
93	0x40	64
94	0xdd	-35
95	0xe3	-29
96	0xf7	-9
97	0xcd	-51
98	0x06	6
99	0x54	84
100	0x63	99
101	0x20	32
102	0x96	-106
103	0xd7	-41
104	0x90	-112
105	0x20	32
106	0xa6	-90
107	0xe1	-31
108	0x56	86
109	0xcf	-49
110	0x2a	42
111	0xe3	-29
112	0x50	80
113	0x1d	29
114	0xce	-50
115	0xf2	-14
116	0xdb	-37
117	0xf9	-7
118	0x3e	62
119	0x39	57
120	0x43	67
121	0xdb	-37
122	0xfc	-4
123	0xcc	-52
124	0xd9	-39
125	0x66	102
126	0x4d	77
127	0xe4	-28
128	0xbc	-68
129	0x1a	26
130	0xe4	-28
131	0xde	-34
132	0x5e	94
133	0xe7	-25
134	0xe8	-24
135	0x1a	26
136	0xee	-18
137	0xe9	-23
138	0xfb	-5
139	0xfe	-2
140	0xfd	-3
141	0x39	57
142	0xba	-70
143	0x03	3
144	0x9e	-98
145	0xf1	-15
146	0xa8	-88
147	0xec	-20
148	0xc8	-56
149	0xd5	-43
150	0x95	-107
151	0xd1	-47
152	0xe4	-28
153	0x96	-106
154	0xf1	-15
155	0x9e	-98
156	0xc7	-57
157	0x5c	92
158	0x16	22
159	0x87	-121
160	0xb0	-80
161	0x81	-127
162	0x3a	58
163	0x1b	27
164	0xbc	-68
165	0x26	38
166	0x73	115
167	0xd5	-43
168	0x94	-108
169	0xdc	-36
170	0xf6	-10
171	0x33	51
172	0xe8	-24
173	0x01	1
174	0x03	3
175	0x38	56
176	0xf1	-15
177	0x2c	44
178	0xdb	-37
179	0xe9	-23
180	0x37	55
181	0x05	5
182	0x27	39
183	0xc4	-60
184	0x32	50
185	0x3b	59
186	0xbe	-66
187	0x2c	44
188	0x63	99
189	0x2f	47
190	0x4f	79
191	0xac	-84
192	0xcb	-53
193	0x36	54
194	0xb3	-77
195	0x1e	30
196	0xe6	-26
197	0x23	35
198	0x91	-111
199	0x49	73
200	0xfb	-5
201	0x13	19
202	0x17	23
203	0xfe	-2
204	0x7f	127
205	0x1b	27
206	0x12	18
207	0x02	2
208	0x49	73
209	0xcd	-51
210	0xe3	-29
211	0xeb	-21
212	0x43	67
213	0xee	-18
214	0x26	38
215	0xff	-1
216	0x17	23
217	0x60	96
218	0xd6	-42
219	0xf3	-13
220	0x15	21
221	0xcd	-51
222	0xed	-19
223	0x61	97
224	0xb7	-73
225	0x30	48
226	0x2b	43
227	0x19	25
228	0x36	54
229	0x4c	76
230	0x50	80
231	0x4c	76
232	0x09	9
233	0x08	8
234	0x79	121
235	0xcd	-51
236	0xcf	-49
237	0xb1	-79
238	0x3c	60
239	0x24	36
240	0x94	-108
241	0x11	17
242	0x49	73
243	0xfc	-4
244	0xed	-19
245	0xd1	-47
246	0xf8	-8
247	0xeb	-21
248	0x22	34
249	0x4a	74
250	0xd1	-47
251	0xfc	-4
252	0xcb	-53
253	0xcf	-49
254	0x99	-103
255	0xdb	-37

tfl.pseudo_qconst12 i1 [32] scale=0.0003906544 zero_point=-33
0	0x32	0.032424316
1	0xe0	0.0003906544
2	0x80	-0.03711217
3	0xd9	-0.0023439263
4	0x84	-0.03554955
5	0xaf	-0.01875141
6	0xbd	-0.01328225
7	0x45	0.039846748
8	0x3b	0.035940204
9	0x7f	0.0625047
10	0xf2	0.0074224337
11	0xd3	-0.0046878527
12	0xe9	0.003906544
13	0xcf	-0.0062504704
14	0x01	0.01328225
15	0xff	0.012500941
16	0x98	-0.027736463
17	0x88	-0.033986934
18	0xd3	-0.0046878527
19	0xd0	-0.005859816
20	0xa1	-0.024220573
21	0xdf	0.0
22	0xd1	-0.0054691616
23	0xdd	-0.0007813088
24	0x54	0.045706566
25	0x24	0.026955154
26	0xc2	-0.0113289775
27	0xbb	-0.014063559
28	0x3b	0.035940204
29	0x03	0.014063559
30	0xe1	0.0007813088
31	0x92	-0.03008039

tfl.pseudo_qconst13 i1 [32, 1, 3, 32]
0	0xf2	-14
1	0xc5	-59
2	0xa4	-92
3	0x15	21
4	0xdf	-33
5	0x41	65
6	0x18	24
7	0x1f	31
8	0x33	51
9	0xf6	-10
10	0x09	9
11	0xf5	-11
12	0xb1	-79
13	0xbe	-66
14	0x0c	12
15	0xf6	-10
16	0xa4	-92
17	0xe1	-31
18	0xdd	-35
19	0x45	69
20	0xec	-20
21	0x21	33
22	0x1d	29
23	0xf0	-16
24	0xc6	-58
25	0x0a	10
26	0x48	72
27	0x54	84
28	0x15	21
29	0xe7	-25
30	0x29	41
31	0xba	-70
32	0x32	50
33	0x68	104
34	0x00	0
35	0xaa	-86
36	0xbc	-68
37	0x05	5
38	0xa7	-89
39	0xf4	-12
40	0xfe	-2
41	0x21	33
42	0x59	89
43	0x0d	13
44	0xd7	-41
45	0x32	50
46	0xea	-22
47	0xa9	-87
48	0x2f	47
49	0xce	-50
50	0xf8	-8
51	0x33	51
52	0x2a	42
53	0xda	-38
54	0x06	6
55	0x00	0
56	0x0e	14
57	0x1c	28
58	0xe5	-27
59	0x1c	28
60	0x05	5
61	0xb4	-76
62	0x4a	74
63	0x4d	77
64	0xea	-22
65	0xcb	-53
66	0xa0	-96
67	0x03	3
68	0x89	-119
69	0x1d	29
70	0xec	-20
71	0xe2	-30
72	0x0f	15
73	0xf1	-15
74	0x42	66
75	0xc1	-63
76	0x50	80
77	0x40	64
78	0xb5	-75
79	0xbb	-69
80	0x3a	58
81	0xc2	-62
82	0x23	35
83	0xef	-17
84	0xf8	-8
85	0xfc	-4
86	0x7f	127
87	0xcb	-53
88	0x1e	30
89	0xc1	-63
90	0x3a	58
91	0x1b	27
92	0xcc	-52
93	0xbd	-67
94	0xf9	-7
95	0xdc	-36
96	0xea	-22
97	0x3f	63
98	0x53	83
99	0x61	97
100	0x15	21
101	0xcd	-51
102	0xb4	-76
103	0x48	72
104	0x40	64
105	0x03	3
106	0xd4	-44
107	0x30	48
108	0xfc	-4
109	0xfb	-5
110	0xfd	-3
111	0x12	18
112	0xd4	-44
113	0xb5	-75
114	0x33	51
115	0x1a	26
116	0x4a	74
117	0x03	3
118	0x4d	77
119	0xac	-84
120	0x4f	79
121	0x7d	125
122	0xd3	-45
123	0xd1	-47
124	0x7a	122
125	0xf2	-14
126	0x0f	15
127	0xcd	-51
128	0xd2	-46
129	0x18	24
130	0xff	-1
131	0xe9	-23
132	0x73	115
133	0x44	68
134	0x83	-125
135	0x01	1
136	0x68	104
137	0xd8	-40
138	0x22	34
139	0x29	41
140	0xe3	-29
141	0xc9	-55
142	0x21	33
143	0xea	-22
144	0x10	16
145	0xf9	-7
146	0x45	69
147	0xff	-1
148	0x0f	15
149	0x04	4
150	0xe0	-32
151	0x72	114
152	0xca	-54
153	0xbc	-68
154	0x22	34
155	0x14	20
156	0x81	-127
157	0xdb	-37
158	0x3c	60
159	0xd0	-48
160	0xe2	-30
161	0x02	2
162	0x10	16
163	0xea	-22
164	0x23	35
165	0xb2	-78
166	0x0b	11
167	0xd9	-39
168	0xaa	-86
169	0x15	21
170	0xd3	-45
171	0xd9	-39
172	0x22	34
173	0x19	25
174	0x66	102
175	0x41	65
176	0x36	54
177	0x98	-104
178	0x47	71
179	0xde	-34
180	0x1c	28
181	0x10	16
182	0x13	19
183	0xcb	-53
184	0x9b	-101
185	0x3f	63
186	0x3d	61
187	0x5f	95
188	0xd5	-43
189	0xc6	-58
190	0x08	8
191	0xbd	-67
192	0xf3	-13
193	0x00	0
194	0xc5	-59
195	0x7c	124
196	0xd9	-39
197	0xed	-19
198	0x90	-112
199	0xc9	-55
200	0x3e	62
201	0x3b	59
202	0x14	20
203	0x2e	46
204	0x88	-120
205	0x5b	91
206	0x14	20
207	0xf5	-11
208	0xe6	-26
209	0x0d	13
210	0xd1	-47
211	0xf7	-9
212	0x3f	63
213	0xde	-34
214	0x39	57
215	0xdd	-35
216	0xe0	-32
217	0xfc	-4
218	0x4c	76
219	0x3d	61
220	0x42	66
221	0x1d	29
222	0xf6	-10
223	0x6c	108
224	0x19	25
225	0xbb	-69
226	0x01	1
227	0xb8	-72
228	0x55	85
229	0x2b	43
230	0xe1	-31
231	0xaa	-86
232	0xf1	-15
233	0xd3	-45
234	0xd3	-45
235	0x2b	43
236	0x34	52
237	0xcc	-52
238	0xcf	-49
239	0x4e	78
240	0x23	35
241	0x0b	11
242	0x39	57
243	0x14	20
244	0x01	1
245	0x2f	47
246	0x52	82
247	0x4f	79
248	0xef	-17
249	0xe7	-25
250	0x1a	26
251	0xd2	-46
252	0xd2	-46
253	0x05	5
254	0x05	5
255	0x7f	127

tfl.pseudo_qconst14 i1 [32] scale=0.00043638254 zero_point=-3
0	0xf9	-0.0017455302
1	0x27	0.018328067
2	0x0c	0.0065457383
3	0x57	0.039274428
4	0x3c	0.0274921
5	0x23	0.016582537
6	0x7f	0.05672973
7	0xea	-0.008291269
8	0x09	0.0052365903
9	0x36	0.024873804
10	0x59	0.040147193
11	0x1a	0.012655093
12	0x3b	0.027055718
13	0xdb	-0.014837006
14	0x1f	0.014837006
15	0x12	0.009164033
16	0x80	-0.054547817
17	0x08	0.004800208
18	0xfe	0.00043638254
19	0xc7	-0.023564657
20	0x06	0.0039274427
21	0xd3	-0.018328067
22	0x2a	0.019637214
23	0x61	0.043638255
24	0xe2	-0.011782329
25	0xae	-0.03447422
26	0x1b	0.013091477
27	0xf9	-0.0017455302
28	0x96	-0.0449474
29	0x71	0.050620373
30	0x0c	0.0065457383
31	0xf3	-0.0043638255

tfl.pseudo_qconst15 i1 [32, 1, 3, 32]
0	0x33	51
1	0x23	35
2	0x48	72
3	0xf7	-9
4	0x28	40
5	0x42	66
6	0xf4	-12
7	0x07	7
8	0xd8	-40
9	0xc4	-60
10	0xad	-83
11	0xd8	-40
12	0x55	85
13	0x07	7
14	0x47	71
15	0x3f	63
16	0x23	35
17	0xc8	-56
18	0xb1	-79
19	0x00	0
20	0x5a	90
21	0x30	48
22	0x17	23
23	0x3f	63
24	0x46	70
25	0x04	4
26	0xa2	-94
27	0x1b	27
28	0xbe	-66
29	0xaa	-86
30	0xbd	-67
31	0xfd	-3
32	0xb5	-75
33	0xb5	-75
34	0x13	19
35	0x30	48
36	0xd2	-46
37	0x97	-105
38	0x0d	13
39	0x16	22
40	0xb9	-71
41	0x23	35
42	0xd8	-40
43	0xc6	-58
44	0x13	19
45	0x42	66
46	0xf1	-15
47	0x42	66
48	0x36	54
49	0xe2	-30
50	0x02	2
51	0xad	-83
52	0x00	0
53	0x0c	12
54	0x2e	46
55	0xde	-34
56	0xf4	-12
57	0x4b	75
58	0x04	4
59	0xe8	-24
60	0x04	4
61	0x3b	59
62	0x40	64
63	0xdc	-36
64	0x0f	15
65	0xe2	-30
66	0xe9	-23
67	0x06	6
68	0xfa	-6
69	0x71	113
70	0x99	-103
71	0x6f	111
72	0xc3	-61
73	0x27	39
74	0xb0	-80
75	0x9a	-102
76	0x09	9
77	0x79	121
78	0xd2	-46
79	0x64	100
80	0x15	21
81	0x81	-127
82	0xd6	-42
83	0x1b	27
84	0x1f	31
85	0xea	-22
86	0x64	100
87	0x59	89
88	0xce	-50
89	0x51	81
90	0xed	-19
91	0xf9	-7
92	0xff	-1
93	0xcf	-49
94	0x0b	11
95	0xc4	-60
96	0xcc	-52
97	0xd5	-43
98	0xad	-83
99	0x74	116
100	0x3f	63
101	0xdc	-36
102	0x73	115
103	0x1b	27
104	0x09	9
105	0xdc	-36
106	0x67	103
107	0x46	70
108	0xb2	-78
109	0x41	65
110	0xe4	-28
111	0x30	48
112	0xd6	-42
113	0x40	64
114	0x4c	76
115	0x28	40
116	0xdc	-36
117	0x06	6
118	0xcb	-53
119	0x33	51
120	0x01	1
121	0x45	69
122	0xf9	-7
123	0x16	22
124	0xdd	-35
125	0xe0	-32
126	0x50	80
127	0xf6	-10
128	0xdb	-37
129	0x0c	12
130	0x10	16
131	0xfd	-3
132	0x0a	10
133	0xc9	-55
134	0xb5	-75
135	0x98	-104
136	0x2e	46
137	0x04	4
138	0x19	25
139	0x81	-127
140	0xec	-20
141	0x6b	107
142	0xad	-83
143	0xfe	-2
144	0xb6	-74
145	0x10	16
146	0x21	33
147	0x07	7
148	0xdc	-36
149	0xef	-17
150	0xa0	-96
151	0xca	-54
152	0x6d	109
153	0xd7	-41
154	0x24	36
155	0x40	64
156	0x3c	60
157	0x05	5
158	0x40	64
159	0xd5	-43
160	0xeb	-21
161	0x15	21
162	0x05	5
163	0xe4	-28
164	0x36	54
165	0xb7	-73
166	0xb7	-73
167	0x01	1
168	0x0d	13
169	0x3a	58
170	0x3c	60
171	0xe9	-23
172	0xd8	-40
173	0x04	4
174	0xab	-85
175	0x1d	29
176	0x01	1
177	0x53	83
178	0xce	-50
179	0x61	97
180	0xb9	-71
181	0x6a	106
182	0x07	7
183	0xf6	-10
184	0xf4	-12
185	0x04	4
186	0xd9	-39
187	0x15	21
188	0xa6	-90
189	0x03	3
190	0xd1	-47
191	0xed	-19
192	0xb5	-75
193	0xe9	-23
194	0xa5	-91
195	0x02	2
196	0xcc	-52
197	0xf0	-16
198	0x67	103
199	0x2d	45
200	0xf1	-15
201	0xbd	-67
202	0x4a	74
203	0xf2	-14
204	0x1d	29
205	0xec	-20
206	0x37	55
207	0xd9	-39
208	0xa6	-90
209	0xfc	-4
210	0x0f	15
211	0xce	-50
212	0x03	3
213	0xbf	-65
214	0x14	20
215	0xf1	-15
216	0x0c	12
217	0x21	33
218	0xf7	-9
219	0x48	72
220	0xd1	-47
221	0xde	-34
222	0xae	-82
223	0xae	-82
224	0xb0	-80
225	0x2d	45
226	0x60	96
227	0xd6	-42
228	0x0a	10
229	0x9b	-101
230	0x21	33
231	0x8b	-117
232	0x55	85
233	0x66	102
234	0xd4	-44
235	0xfd	-3
236	0xec	-20
237	0xbe	-66
238	0xd3	-45
239	0xa3	-93
240	0x44	68
241	0x17	23
242	0xc2	-62
243	0xab	-85
244	0xde	-34
245	0xf2	-14
246	0x2f	47
247	0x48	72
248	0xf2	-14
249	0x47	71
250	0x12	18
251	0xe7	-25
252	0x29	41
253	0x19	25
254	0xc0	-64
255	0x24	36

tfl.pseudo_qconst16 i1 [32] scale=0.00024157757 zero_point=-5
0	0xae	-0.018601473
1	0xc7	-0.012562034
2	0xdc	-0.0074889045
3	0xe1	-0.006281017
4	0xb1	-0.01787674
5	0xc3	-0.013528343
6	0x80	-0.02971404
7	0x12	0.005556284
8	0x7f	0.03188824
9	0xd0	-0.010387835
10	0x0e	0.004589974
11	0xe5	-0.0053147064
12	0xe1	-0.006281017
13	0x1b	0.007730482
14	0x2d	0.0120788785
15	0xcb	-0.011595723
16	0x3e	0.016185697
17	0x1b	0.007730482
18	0x48	0.018601473
19	0xc9	-0.0120788785
20	0xa6	-0.020534093
21	0x44	0.017635163
22	0xa8	-0.020050937
23	0x24	0.00990468
24	0xe7	-0.0048315516
25	0x2a	0.011354146
26	0xf5	-0.0014494654
27	0xc0	-0.014253076
28	0xe0	-0.0065225945
29	0x58	0.022466714
30	0x11	0.0053147064
31	0xdd	-0.007247327

tfl.pseudo_qconst17 i1 [32, 1, 3, 32]
0	0x2a	42
1	0x81	-127
2	0xc9	-55
3	0x37	55
4	0x7b	123
5	0xa1	-95
6	0x3e	62
7	0xe0	-32
8	0xad	-83
9	0x26	38
10	0xde	-34
11	0x23	35
12	0xf8	-8
13	0x72	114
14	0x87	-121
15	0xec	-20
16	0x25	37
17	0x76	118
18	0xc9	-55
19	0xad	-83
20	0x1f	31
21	0x3e	62
22	0xb8	-72
23	0xf1	-15
24	0xbd	-67
25	0xe9	-23
26	0x4d	77
27	0x41	65
28	0xc9	-55
29	0xcc	-52
30	0x0d	13
31	0x07	7
32	0xd9	-39
33	0x3e	62
34	0x61	97
35	0xe3	-29
36	0xd2	-46
37	0x09	9
38	0xde	-34
39	0xce	-50
40	0x23	35
41	0xf0	-16
42	0x0f	15
43	0x2f	47
44	0x2c	44
45	0x54	84
46	0xaf	-81
47	0x1b	27
48	0x24	36
49	0x03	3
50	0x0e	14
51	0xae	-82
52	0x26	38
53	0x30	48
54	0x6d	109
55	0xe2	-30
56	0xf3	-13
57	0x2f	47
58	0x2b	43
59	0x01	1
60	0xd6	-42
61	0xdf	-33
62	0x67	103
63	0x2d	45
64	0xc7	-57
65	0x3c	60
66	0xf0	-16
67	0x10	16
68	0x33	51
69	0x40	64
70	0xaf	-81
71	0x1a	26
72	0xb6	-74
73	0x06	6
74	0x95	-107
75	0xa2	-94
76	0x12	18
77	0xc2	-62
78	0x4e	78
79	0xad	-83
80	0x67	103
81	0x99	-103
82	0xef	-17
83	0x81	-127
84	0x7b	123
85	0x1c	28
86	0xe5	-27
87	0x33	51
88	0xf7	-9
89	0x0a	10
90	0xff	-1
91	0x93	-109
92	0x45	69
93	0xdd	-35
94	0x14	20
95	0x0a	10
96	0x25	37
97	0xf2	-14
98	0xb1	-79
99	0xda	-38
100	0x28	40
101	0x02	2
102	0x28	40
103	0xd5	-43
104	0x81	-127
105	0xf5	-11
106	0x4b	75
107	0xef	-17
108	0x05	5
109	0x2a	42
110	0xc9	-55
111	0xea	-22
112	0x3c	60
113	0xee	-18
114	0x5b	91
115	0x27	39
116	0xde	-34
117	0xfd	-3
118	0x0b	11
119	0xa3	-93
120	0x70	112
121	0x33	51
122	0x0e	14
123	0xf1	-15
124	0x28	40
125	0x21	33
126	0xcb	-53
127	0x4c	76
128	0x03	3
129	0x1c	28
130	0x16	22
131	0x2d	45
132	0xfc	-4
133	0x6f	111
134	0x48	72
135	0xec	-20
136	0x58	88
137	0x33	51
138	0x2e	46
139	0xee	-18
140	0x08	8
141	0xd3	-45
142	0x09	9
143	0x78	120
144	0xba	-70
145	0x0c	12
146	0xf9	-7
147	0xdc	-36
148	0x6f	111
149	0xeb	-21
150	0xd5	-43
151	0xb4	-76
152	0x22	34
153	0xff	-1
154	0x4e	78
155	0xd6	-42
156	0xd6	-42
157	0x0b	11
158	0xcf	-49
159	0x0f	15
160	0x0b	11
161	0xfb	-5
162	0xfb	-5
163	0x52	82
164	0x25	37
165	0xf1	-15
166	0xe2	-30
167	0xa2	-94
168	0xd3	-45
169	0xee	-18
170	0x19	25
171	0x4c	76
172	0x23	35
173	0x01	1
174	0x53	83
175	0x9e	-98
176	0x46	70
177	0x90	-112
178	0xed	-19
179	0xa3	-93
180	0xad	-83
181	0x08	8
182	0x02	2
183	0xe5	-27
184	0x37	55
185	0xb4	-76
186	0xf6	-10
187	0x1b	27
188	0xa7	-89
189	0x8b	-117
190	0x6e	110
191	0xea	-22
192	0x16	22
193	0xd7	-41
194	0xbc	-68
195	0x56	86
196	0xfc	-4
197	0x39	57
198	0xbf	-65
199	0x11	17
200	0x43	67
201	0xe6	-26
202	0x05	5
203	0x68	104
204	0xf7	-9
205	0x00	0
206	0x68	104
207	0x17	23
208	0x06	6
209	0xee	-18
210	0x9a	-102
211	0x25	37
212	0x60	96
213	0xd6	-42
214	0xa7	-89
215	0x8b	-117
216	0xa3	-93
217	0x24	36
218	0xdc	-36
219	0x1f	31
220	0x0d	13
221	0x54	84
222	0xfb	-5
223	0x4e	78
224	0x1d	29
225	0x2c	44
226	0x62	98
227	0xd5	-43
228	0x5d	93
229	0xfb	-5
230	0xdc	-36
231	0x07	7
232	0xd5	-43
233	0x50	80
234	0x1b	27
235	0x17	23
236	0xe0	-32
237	0x14	20
238	0x7f	127
239	0xbc	-68
240	0xff	-1
241	0xef	-17
242	0x14	20
243	0x60	96
244	0x58	88
245	0xe0	-32
246	0xdc	-36
247	0xc6	-58
248	0xf7	-9
249	0x00	0
250	0xeb	-21
251	0xf4	-12
252	0x76	118
253	0x13	19
254	0x51	81
255	0xdd	-35

tfl.pseudo_qconst18 i1 [32] scale=0.00022609398 zero_point=-18
0	0xc7	-0.008817665
1	0x47	0.020122364
2	0xc9	-0.008365477
3	0xe4	-0.0022609397
4	0x0b	0.0065567256
5	0x16	0.009043759
6	0x16	0.009043759
7	0xc4	-0.0094959475
8	0x25	0.012435169
9	0x55	0.02328768
10	0xab	-0.015148297
11	0xdb	-0.0042957854
12	0xc2	-0.009948135
13	0x1a	0.009948135
14	0xb7	-0.012435169
15	0x94	-0.020348458
16	0x0e	0.0072350074
17	0xc5	-0.009269853
18	0xae	-0.014470015
19	0xa2	-0.017183142
20	0xc4	-0.0094959475
21	0x7f	0.032783628
22	0x82	-0.02441815
23	0x0d	0.0070089134
24	0xe8	-0.0013565639
25	0xaf	-0.01424392
26	0x88	-0.023061587
27	0xcf	-0.0070089134
28	0xcc	-0.007687195
29	0x9b	-0.0187658
30	0x80	-0.024870338
31	0xe6	-0.0018087518

tfl.pseudo_qconst19 i1 [32, 1, 3, 32]
0	0xb8	-72
1	0xd3	-45
2	0x0b	11
3	0x4b	75
4	0x99	-103
5	0xd4	-44
6	0x48	72
7	0xdc	-36
8	0xb6	-74
9	0x64	100
10	0xe5	-27
11	0xec	-20
12	0xdf	-33
13	0x11	17
14	0x1d	29
15	0xe0	-32
16	0xf5	-11
17	0xb4	-76
18	0x26	38
19	0x4f	79
20	0xef	-17
21	0x11	17
22	0xae	-82
23	0x18	24
24	0x4a	74
25	0xbe	-66
26	0x8d	-115
27	0x37	55
28	0xf3	-13
29	0x16	22
30	0x10	16
31	0x78	120
32	0x60	96
33	0xd1	-47
34	0xd7	-41
35	0xda	-38
36	0x4a	74
37	0x0a	10
38	0xbc	-68
39	0x49	73
40	0xff	-1
41	0x38	56
42	0xfe	-2
43	0xc7	-57
44	0xfc	-4
45	0x7f	127
46	0x6d	109
47	0x0f	15
48	0x37	55
49	0x10	16
50	0x62	98
51	0x27	39
52	0x93	-109
53	0x3a	58
54	0x2b	43
55	0xe6	-26
56	0x59	89
57	0x56	86
58	0x07	7
59	0x6f	111
60	0xba	-70
61	0xc9	-55
62	0x6f	111
63	0xe2	-30
64	0xcc	-52
65	0x6b	107
66	0x65	101
67	0xdb	-37
68	0xe9	-23
69	0xa4	-92
70	0x2b	43
71	0x3a	58
72	0xb5	-75
73	0xec	-20
74	0x12	18
75	0xd2	-46
76	0xef	-17
77	0x47	71
78	0xdd	-35
79	0x4e	78
80	0xfb	-5
81	0x2c	44
82	0x4e	78
83	0xd3	-45
84	0xb0	-80
85	0x84	-124
86	0xfb	-5
87	0xd9	-39
88	0x82	-126
89	0xfa	-6
90	0xd6	-42
91	0xec	-20
92	0x37	55
93	0xea	-22
94	0x32	50
95	0xdf	-33
96	0xf3	-13
97	0x3f	63
98	0xbb	-69
99	0x0f	15
100	0x25	37
101	0x65	101
102	0xd3	-45
103	0x11	17
104	0x02	2
105	0x48	72
106	0x5e	94
107	0xcd	-51
108	0x2c	44
109	0xd0	-48
110	0x6d	109
111	0x25	37
112	0x11	17
113	0x98	-104
114	0xbe	-66
115	0x00	0
116	0x62	98
117	0x0a	10
118	0xed	-19
119	0xf9	-7
120	0xdf	-33
121	0x4d	77
122	0x01	1
123	0x3e	62
124	0xf8	-8
125	0x9b	-101
126	0xf4	-12
127	0xf8	-8
128	0x61	97
129	0x2c	44
130	0x00	0
131	0x05	5
132	0x2c	44
133	0xb5	-75
134	0xf1	-15
135	0xdb	-37
136	0x32	50
137	0x38	56
138	0x46	70
139	0xf8	-8
140	0x17	23
141	0xd0	-48
142	0x03	3
143	0xef	-17
144	0xd6	-42
145	0x61	97
146	0xf8	-8
147	0xe5	-27
148	0x65	101
149	0xbf	-65
150	0x23	35
151	0x64	100
152	0x24	36
153	0xdd	-35
154	0xc3	-61
155	0xc1	-63
156	0xec	-20
157	0xec	-20
158	0x96	-106
159	0xe4	-28
160	0x30	48
161	0x40	64
162	0xe5	-27
163	0x29	41
164	0x0c	12
165	0x49	73
166	0x2f	47
167	0x2a	42
168	0x04	4
169	0x99	-103
170	0x1c	28
171	0x1f	31
172	0xf1	-15
173	0x11	17
174	0xe8	-24
175	0x28	40
176	0xe8	-24
177	0x2e	46
178	0xa6	-90
179	0x3a	58
180	0xab	-85
181	0x7f	127
182	0x0d	13
183	0x27	39
184	0x01	1
185	0xdd	-35
186	0x1d	29
187	0x09	9
188	0x20	32
189	0xd2	-46
190	0x2d	45
191	0x09	9
192	0xfb	-5
193	0xed	-19
194	0xe4	-28
195	0xfc	-4
196	0xda	-38
197	0xd4	-44
198	0x0f	15
199	0xd1	-47
200	0x3d	61
201	0x33	51
202	0x0d	13
203	0x60	96
204	0x0b	11
205	0x29	41
206	0x0e	14
207	0x81	-127
208	0x1d	29
209	0x5d	93
210	0xde	-34
211	0xb7	-73
212	0xe5	-27
213	0x61	97
214	0x0c	12
215	0xf7	-9
216	0x86	-122
217	0xcf	-49
218	0xdc	-36
219	0x39	57
220	0xcf	-49
221	0xcf	-49
222	0x4c	76
223	0x5f	95
224	0xd7	-41
225	0xd9	-39
226	0xfb	-5
227	0xaa	-86
228	0x93	-109
229	0xf1	-15
230	0x39	57
231	0x38	56
232	0x19	25
233	0x86	-122
234	0x5d	93
235	0x43	67
236	0x32	50
237	0x07	7
238	0x11	17
239	0xe1	-31
240	0x14	20
241	0x31	49
242	0xf9	-7
243	0x76	118
244	0xda	-38
245	0xfb	-5
246	0xf4	-12
247	0xb7	-73
248	0xe3	-29
249	0xbd	-67
250	0xb9	-71
251	0xce	-50
252	0xe6	-26
253	0x37	55
254	0x1b	27
255	0xdf	-33

tfl.pseudo_qconst20 i1 [32] scale=0.00032037284 zero_point=-33
0	0xa8	-0.017620506
1	0xc8	-0.0073685753
2	0xe3	0.0012814914
3	0xf1	0.005766711
4	0x11	0.016018642
5	0xaf	-0.015377896
6	0xa5	-0.018581625
7	0x4b	0.034600265
8	0xf8	0.008009321
9	0x1c	0.019542743
10	0xf1	0.005766711
11	0xa0	-0.020183489
12	0xf8	0.008009321
13	0x21	0.021144608
14	0xfb	0.008970439
15	0x7b	0.049978163
16	0xaa	-0.016979761
17	0xdb	-0.0012814914
18	0xb7	-0.012814914
19	0x90	-0.025309455
20	0x80	-0.03043542
21	0xf6	0.0073685753
22	0x83	-0.029474301
23	0xfd	0.009611186
24	0x7f	0.051259656
25	0x9f	-0.020503862
26	0xcc	-0.006087084
27	0xdf	0.0
28	0xd0	-0.004805593
29	0x2f	0.025629828
30	0x10	0.015698269
31	0xca	-0.0067278296

tfl.pseudo_qconst21 i1 [32, 1, 3, 32]
0	0x47	71
1	0x4b	75
2	0xa6	-90
3	0x2c	44
4	0xff	-1
5	0xaf	-81
6	0xab	-85
7	0xc6	-58
8	0xe9	-23
9	0xdd	-35
10	0xe7	-25
11	0xa8	-88
12	0x18	24
13	0x3b	59
14	0x13	19
15	0x2b	43
16	0xc4	-60
17	0xf7	-9
18	0x7f	127
19	0xd7	-41
20	0xfc	-4
21	0x96	-106
22	0x33	51
23	0xe2	-30
24	0xf5	-11
25	0x27	39
26	0x24	36
27	0xb9	-71
28	0xd6	-42
29	0x03	3
30	0x8c	-116
31	0xb0	-80
32	0xee	-18
33	0x78	120
34	0x00	0
35	0x16	22
36	0xcc	-52
37	0xaf	-81
38	0xdf	-33
39	0xa2	-94
40	0x57	87
41	0x3c	60
42	0x17	23
43	0x29	41
44	0xcf	-49
45	0x0a	10
46	0x27	39
47	0x4d	77
48	0x0f	15
49	0xf9	-7
50	0x56	86
51	0xfe	-2
52	0x93	-109
53	0x47	71
54	0xc6	-58
55	0xe0	-32
56	0x16	22
57	0xe2	-30
58	0x09	9
59	0x6c	108
60	0xa7	-89
61	0x07	7
62	0x91	-111
63	0x1d	29
64	0x18	24
65	0x58	88
66	0x72	114
67	0xc0	-64
68	0x9a	-102
69	0xc1	-63
70	0x1f	31
71	0xd6	-42
72	0x0e	14
73	0x10	16
74	0x04	4
75	0x9d	-99
76	0xb0	-80
77	0x32	50
78	0x4a	74
79	0x7b	123
80	0xf8	-8
81	0x23	35
82	0xe6	-26
83	0xfa	-6
84	0x3c	60
85	0xc9	-55
86	0x10	16
87	0xc5	-59
88	0x9b	-101
89	0x40	64
90	0xf1	-15
91	0xce	-50
92	0xdc	-36
93	0xe1	-31
94	0x43	67
95	0x9a	-102
96	0x30	48
97	0x30	48
98	0xf2	-14
99	0x14	20
100	0x19	25
101	0xce	-50
102	0xe9	-23
103	0xcc	-52
104	0x1f	31
105	0x07	7
106	0xe0	-32
107	0xed	-19
108	0x1e	30
109	0x1a	26
110	0x42	66
111	0x69	105
112	0x39	57
113	0x22	34
114	0x37	55
115	0x16	22
116	0x20	32
117	0x5d	93
118	0x43	67
119	0x16	22
120	0xe3	-29
121	0xce	-50
122	0xf2	-14
123	0x08	8
124	0x20	32
125	0x0a	10
126	0x18	24
127	0xf6	-10
128	0xc2	-62
129	0xf5	-11
130	0x0f	15
131	0x21	33
132	0x32	50
133	0x25	37
134	0xe5	-27
135	0xa4	-92
136	0x02	2
137	0xb5	-75
138	0xe8	-24
139	0x5a	90
140	0xdc	-36
141	0x46	70
142	0xf2	-14
143	0xd3	-45
144	0x59	89
145	0xa3	-93
146	0xcf	-49
147	0xbf	-65
148	0xca	-54
149	0x06	6
150	0x5b	91
151	0x29	41
152	0xed	-19
153	0xce	-50
154	0x05	5
155	0x40	64
156	0xeb	-21
157	0x0f	15
158	0xfc	-4
159	0x3f	63
160	0xea	-22
161	0xd2	-46
162	0x2e	46
163	0x9a	-102
164	0x0d	13
165	0x10	16
166	0x3b	59
167	0x62	98
168	0xf0	-16
169	0x30	48
170	0xe9	-23
171	0xf3	-13
172	0x01	1
173	0x74	116
174	0x28	40
175	0xd9	-39
176	0xe9	-23
177	0x81	-127
178	0xe2	-30
179	0x19	25
180	0xe6	-26
181	0xe2	-30
182	0x5c	92
183	0x21	33
184	0x8f	-113
185	0xe4	-28
186	0xf9	-7
187	0x0b	11
188	0xd4	-44
189	0xb5	-75
190	0x2e	46
191	0x8e	-114
192	0xd1	-47
193	0xaa	-86
194	0xc8	-56
195	0xdc	-36
196	0x58	88
197	0xd6	-42
198	0xb2	-78
199	0x27	39
200	0x2d	45
201	0x66	102
202	0x23	35
203	0x23	35
204	0xa0	-96
205	0xc3	-61
206	0x38	56
207	0xd0	-48
208	0x0a	10
209	0x05	5
210	0xe3	-29
211	0x75	117
212	0x26	38
213	0xcc	-52
214	0x91	-111
215	0xcd	-51
216	0xde	-34
217	0x1f	31
218	0x15	21
219	0x23	35
220	0xf0	-16
221	0x5a	90
222	0x04	4
223	0x20	32
224	0xf2	-14
225	0x27	39
226	0x0b	11
227	0xdf	-33
228	0x60	96
229	0xcc	-52
230	0x33	51
231	0xbd	-67
232	0x81	-127
233	0xf0	-16
234	0xb3	-77
235	0x23	35
236	0x54	84
237	0xcd	-51
238	0x31	49
239	0x0b	11
240	0x45	69
241	0x43	67
242	0xf0	-16
243	0x18	24
244	0xe9	-23
245	0x1d	29
246	0xc6	-58
247	0x16	22
248	0x07	7
249	0xee	-18
250	0x07	7
251	0xa2	-94
252	0x70	112
253	0x4d	77
254	0xd5	-43
255	0xb0	-80

tfl.pseudo_qconst22 i1 [32] scale=0.00019111048 zero_point=-12
0	0xa6	-0.014906617
1	0xf3	-0.00019111048
2	0x1c	0.007644419
3	0xca	-0.00802664
4	0x39	0.013186623
5	0x7f	0.026564356
6	0x17	0.0066888668
7	0x64	0.021404374
8	0x79	0.025417693
9	0x1e	0.00802664
10	0xb7	-0.011657739
11	0x1d	0.00783553
12	0x90	-0.019111048
13	0xc8	-0.008408861
14	0x7b	0.025799915
15	0x57	0.018919937
16	0xd1	-0.0066888668
17	0x93	-0.018537717
18	0x13	0.0059244246
19	0x80	-0.022168815
20	0x7e	0.026373247
21	0xaf	-0.013186623
22	0xa7	-0.014715507
23	0x5a	0.019493269
24	0xf6	0.00038222095
25	0xa5	-0.015097728
26	0xd0	-0.006879977
27	0x27	0.009746634
28	0xea	-0.0019111048
29	0x54	0.018346606
30	0x38	0.012995512
31	0xe2	-0.0034399885

tfl.pseudo_qconst33 i1 [32, 1, 3, 32]
0	0x28	40
1	0xe2	-30
2	0xbf	-65
3	0xf2	-14
4	0x93	-109
5	0x31	49
6	0x3c	60
7	0x0a	10
8	0xee	-18
9	0xad	-83
10	0x28	40
11	0xf6	-10
12	0x97	-105
13	0x43	67
14	0xaf	-81
15	0x5c	92
16	0x02	2
17	0x1e	30
18	0x60	96
19	0x2a	42
20	0xb1	-79
21	0xe6	-26
22	0xc7	-57
23	0xfa	-6
24	0x14	20
25	0xc8	-56
26	0xf9	-7
27	0xf3	-13
28	0x75	117
29	0x67	103
30	0xd7	-41
31	0x33	51
32	0x0a	10
33	0x22	34
34	0x30	48
35	0xe6	-26
36	0x1f	31
37	0x9a	-102
38	0x1f	31
39	0x2f	47
40	0xe0	-32
41	0xd9	-39
42	0x1e	30
43	0x4e	78
44	0x1e	30
45	0xdd	-35
46	0x8d	-115
47	0xeb	-21
48	0x09	9
49	0x0d	13
50	0xe5	-27
51	0x1e	30
52	0x17	23
53	0x2c	44
54	0x27	39
55	0x73	115
56	0xd8	-40
57	0xa3	-93
58	0xc5	-59
59	0x20	32
60	0xe5	-27
61	0x15	21
62	0xb2	-78
63	0x26	38
64	0xa3	-93
65	0x3a	58
66	0x19	25
67	0x17	23
68	0x9a	-102
69	0x24	36
70	0x22	34
71	0x18	24
72	0xf0	-16
73	0xb1	-79
74	0xa9	-87
75	0x17	23
76	0x04	4
77	0xe5	-27
78	0x5b	91
79	0x6d	109
80	0xcd	-51
81	0x04	4
82	0x9d	-99
83	0x02	2
84	0xc3	-61
85	0x20	32
86	0x43	67
87	0xf8	-8
88	0xb9	-71
89	0xa3	-93
90	0x0d	13
91	0xcf	-49
92	0x2a	42
93	0x81	-127
94	0x79	121
95	0x40	64
96	0x01	1
97	0xf4	-12
98	0x7f	127
99	0xf8	-8
100	0x4e	78
101	0xb8	-72
102	0xf9	-7
103	0xf3	-13
104	0x82	-126
105	0xe8	-24
106	0x20	32
107	0x7d	125
108	0x4e	78
109	0xe3	-29
110	0x25	37
111	0xcf	-49
112	0x74	116
113	0xc1	-63
114	0x47	71
115	0x50	80
116	0xeb	-21
117	0xec	-20
118	0x3a	58
119	0x10	16
120	0x99	-103
121	0xd8	-40
122	0xdb	-37
123	0xdd	-35
124	0x14	20
125	0xd6	-42
126	0xb6	-74
127	0xfd	-3
128	0x1d	29
129	0xf1	-15
130	0x34	52
131	0xfe	-2
132	0xd8	-40
133	0xde	-34
134	0xe9	-23
135	0xbb	-69
136	0x96	-106
137	0xcd	-51
138	0x00	0
139	0xf7	-9
140	0x82	-126
141	0xb9	-71
142	0xf3	-13
143	0x61	97
144	0xe4	-28
145	0x4f	79
146	0x08	8
147	0xda	-38
148	0x9c	-100
149	0x24	36
150	0xd7	-41
151	0x42	66
152	0x56	86
153	0x3e	62
154	0xd7	-41
155	0xcd	-51
156	0x17	23
157	0xd0	-48
158	0xfb	-5
159	0x91	-111
160	0x97	-105
161	0xf2	-14
162	0xaa	-86
163	0x35	53
164	0xff	-1
165	0xc9	-55
166	0x03	3
167	0xde	-34
168	0xe1	-31
169	0x11	17
170	0x30	48
171	0x48	72
172	0x29	41
173	0x99	-103
174	0x01	1
175	0xb5	-75
176	0x31	49
177	0xe4	-28
178	0x3d	61
179	0xbc	-68
180	0xab	-85
181	0x2a	42
182	0xdb	-37
183	0x20	32
184	0x55	85
185	0x39	57
186	0xe2	-30
187	0xfd	-3
188	0x42	66
189	0xfe	-2
190	0xd5	-43
191	0x22	34
192	0xc5	-59
193	0xe2	-30
194	0x25	37
195	0x45	69
196	0x81	-127
197	0xab	-85
198	0x1b	27
199	0xbe	-66
200	0xc8	-56
201	0xfc	-4
202	0xc0	-64
203	0xe2	-30
204	0x2b	43
205	0xe1	-31
206	0x4f	79
207	0x00	0
208	0x1a	26
209	0x1d	29
210	0x2a	42
211	0xe2	-30
212	0xf5	-11
213	0xed	-19
214	0xf7	-9
215	0x06	6
216	0x9f	-97
217	0x26	38
218	0x0f	15
219	0x09	9
220	0x34	52
221	0xed	-19
222	0x02	2
223	0x93	-109
224	0x3f	63
225	0x44	68
226	0xef	-17
227	0x55	85
228	0x65	101
229	0xd2	-46
230	0x1c	28
231	0x22	34
232	0xea	-22
233	0xc2	-62
234	0xf7	-9
235	0x91	-111
236	0xd1	-47
237	0x0e	14
238	0x1e	30
239	0x01	1
240	0xe7	-25
241	0xac	-84
242	0x05	5
243	0x0c	12
244	0xd2	-46
245	0xf6	-10
246	0xc8	-56
247	0xef	-17
248	0xf3	-13
249	0xc1	-63
250	0xb1	-79
251	0xb1	-79
252	0xff	-1
253	0x1a	26
254	0x08	8
255	0x02	2

tfl.pseudo_qconst35 i1 [32, 1, 1, 6]
0	0x68	104
1	0x2c	44
2	0x93	-109
3	0xee	-18
4	0x7f	127
5	0xdd	-35
6	0x4d	77
7	0x37	55
8	0x13	19
9	0x7f	127
10	0xdd	-35
11	0x47	71
12	0x35	53
13	0x3b	59
14	0x7f	127
15	0xff	-1
16	0x24	36
17	0x01	1
18	0x4a	74
19	0x81	-127
20	0x27	39
21	0xe5	-27
22	0xbe	-66
23	0x48	72
24	0x08	8
25	0xc3	-61
26	0x26	38
27	0xa9	-87
28	0x36	54
29	0x7f	127
30	0xe5	-27
31	0x7f	127
32	0x43	67
33	0xec	-20
34	0xcf	-49
35	0xd6	-42
36	0x81	-127
37	0x5d	93
38	0x93	-109
39	0x5d	93
40	0xad	-83
41	0x50	80
42	0xba	-70
43	0x81	-127
44	0x92	-110
45	0xea	-22
46	0x16	22
47	0x82	-126
48	0x30	48
49	0x0f	15
50	0x7f	127
51	0x07	7
52	0x2f	47
53	0xa4	-92
54	0xe2	-30
55	0x5b	91
56	0x09	9
57	0x48	72
58	0x01	1
59	0x7f	127
60	0xee	-18
61	0xbc	-68
62	0xd2	-46
63	0xf8	-8
64	0xc0	-64
65	0x81	-127
66	0x1d	29
67	0x39	57
68	0x0e	14
69	0x7f	127
70	0x2f	47
71	0x31	49
72	0x2b	43
73	0x32	50
74	0xf4	-12
75	0x81	-127
76	0x5c	92
77	0xc9	-55
78	0xd0	-48
79	0xc2	-62
80	0x81	-127
81	0x89	-119
82	0x9b	-101
83	0x1f	31
84	0x5c	92
85	0x7f	127
86	0xbb	-69
87	0x68	104
88	0xb9	-71
89	0xf6	-10
90	0x81	-127
91	0x4d	77
92	0x1f	31
93	0x62	98
94	0x0f	15
95	0x90	-112
96	0xaa	-86
97	0xc9	-55
98	0xd5	-43
99	0x72	114
100	0x0a	10
101	0x7f	127
102	0x81	-127
103	0xf5	-11
104	0x66	102
105	0x2c	44
106	0x15	21
107	0x30	48
108	0xb4	-76
109	0x23	35
110	0xea	-22
111	0x10	16
112	0x90	-112
113	0x7f	127
114	0xee	-18
115	0x7f	127
116	0x90	-112
117	0xea	-22
118	0xef	-17
119	0x1c	28
120	0xcc	-52
121	0xe4	-28
122	0x81	-127
123	0x52	82
124	0xb3	-77
125	0xc8	-56
126	0x57	87
127	0xfb	-5
128	0xe9	-23
129	0xcf	-49
130	0x7f	127
131	0xe3	-29
132	0xee	-18
133	0x39	57
134	0x7f	127
135	0x18	24
136	0x2f	47
137	0x40	64
138	0x09	9
139	0x4f	79
140	0xab	-85
141	0x7f	127
142	0xd2	-46
143	0x77	119
144	0x7f	127
145	0x1b	27
146	0xa0	-96
147	0x14	20
148	0x3b	59
149	0xd7	-41
150	0x99	-103
151	0x81	-127
152	0x59	89
153	0x92	-110
154	0xfe	-2
155	0x9c	-100
156	0xe5	-27
157	0x24	36
158	0x4b	75
159	0xcb	-53
160	0x6a	106
161	0x81	-127
162	0x2d	45
163	0xa6	-90
164	0xa7	-89
165	0xca	-54
166	0xf1	-15
167	0x7f	127
168	0x36	54
169	0x7f	127
170	0x7e	126
171	0x09	9
172	0xd1	-47
173	0x35	53
174	0x17	23
175	0x99	-103
176	0x81	-127
177	0x0b	11
178	0xe8	-24
179	0xe5	-27
180	0x47	71
181	0xf1	-15
182	0x61	97
183	0x62	98
184	0x7f	127
185	0x28	40
186	0x0b	11
187	0x74	116
188	0x05	5
189	0xe5	-27
190	0x6a	106
191	0x81	-127

tfl.pseudo_qconst37 i1 [32, 1, 3, 32]
0	0x01	1
1	0xe7	-25
2	0xcf	-49
3	0x09	9
4	0x6c	108
5	0xe0	-32
6	0xfa	-6
7	0x4a	74
8	0xee	-18
9	0x13	19
10	0xef	-17
11	0x9e	-98
12	0x23	35
13	0x11	17
14	0xd7	-41
15	0x7b	123
16	0x79	121
17	0x70	112
18	0x8c	-116
19	0xcd	-51
20	0xc7	-57
21	0x4b	75
22	0xd2	-46
23	0x1f	31
24	0x30	48
25	0x13	19
26	0x6a	106
27	0x02	2
28	0x3c	60
29	0x0c	12
30	0xdf	-33
31	0xe3	-29
32	0x0f	15
33	0xed	-19
34	0x81	-127
35	0x39	57
36	0xed	-19
37	0xdc	-36
38	0x18	24
39	0x3f	63
40	0xef	-17
41	0xc6	-58
42	0xdc	-36
43	0x5a	90
44	0xf6	-10
45	0x59	89
46	0xde	-34
47	0x02	2
48	0x33	51
49	0x37	55
50	0x35	53
51	0xb6	-74
52	0xd6	-42
53	0xa1	-95
54	0xe1	-31
55	0x2a	42
56	0x0c	12
57	0xc3	-61
58	0xff	-1
59	0x2e	46
60	0xaa	-86
61	0xeb	-21
62	0x15	21
63	0x20	32
64	0x24	36
65	0x2f	47
66	0x0d	13
67	0x78	120
68	0x31	49
69	0xa5	-91
70	0x10	16
71	0x0e	14
72	0x5b	91
73	0x14	20
74	0x28	40
75	0x23	35
76	0xdb	-37
77	0xae	-82
78	0xdc	-36
79	0xba	-70
80	0xdf	-33
81	0x16	22
82	0x10	16
83	0x22	34
84	0x93	-109
85	0xcf	-49
86	0x56	86
87	0x12	18
88	0x51	81
89	0x09	9
90	0x0e	14
91	0xf0	-16
92	0xf7	-9
93	0xe9	-23
94	0x9a	-102
95	0x04	4
96	0x96	-106
97	0x97	-105
98	0x10	16
99	0x12	18
100	0xe4	-28
101	0x40	64
102	0xa7	-89
103	0x3b	59
104	0xd3	-45
105	0x04	4
106	0xf2	-14
107	0xf3	-13
108	0x1f	31
109	0xff	-1
110	0x3b	59
111	0x4a	74
112	0x66	102
113	0xcc	-52
114	0x17	23
115	0x59	89
116	0xe8	-24
117	0xce	-50
118	0xc8	-56
119	0xe6	-26
120	0x23	35
121	0xb4	-76
122	0x0b	11
123	0x36	54
124	0xff	-1
125	0xa0	-96
126	0xe5	-27
127	0x0a	10
128	0x52	82
129	0xe8	-24
130	0x42	66
131	0x0a	10
132	0xae	-82
133	0x27	39
134	0x34	52
135	0x12	18
136	0xca	-54
137	0x13	19
138	0x19	25
139	0xd5	-43
140	0xf1	-15
141	0xe9	-23
142	0xa4	-92
143	0x64	100
144	0x16	22
145	0x0c	12
146	0x7f	127
147	0x25	37
148	0xfc	-4
149	0xc4	-60
150	0x83	-125
151	0x11	17
152	0x49	73
153	0xfb	-5
154	0x54	84
155	0xb6	-74
156	0xec	-20
157	0xae	-82
158	0x1a	26
159	0x9f	-97
160	0x56	86
161	0x40	64
162	0x29	41
163	0xfa	-6
164	0x20	32
165	0x2c	44
166	0x4b	75
167	0x94	-108
168	0x43	67
169	0x51	81
170	0x0c	12
171	0x37	55
172	0xe1	-31
173	0xe1	-31
174	0xa1	-95
175	0xc3	-61
176	0x19	25
177	0x1e	30
178	0x5b	91
179	0xd4	-44
180	0xba	-70
181	0x0b	11
182	0xf8	-8
183	0x1d	29
184	0x56	86
185	0x43	67
186	0x0e	14
187	0x86	-122
188	0xef	-17
189	0xb7	-73
190	0x5a	90
191	0x26	38
192	0xb8	-72
193	0xd6	-42
194	0xef	-17
195	0xa5	-91
196	0xdd	-35
197	0xbf	-65
198	0xcd	-51
199	0x81	-127
200	0xea	-22
201	0x93	-109
202	0xf3	-13
203	0xd2	-46
204	0x60	96
205	0x24	36
206	0x1a	26
207	0x0c	12
208	0x3a	58
209	0xbb	-69
210	0x69	105
211	0xe8	-24
212	0xcc	-52
213	0x2b	43
214	0xe7	-25
215	0xd6	-42
216	0x29	41
217	0x27	39
218	0x90	-112
219	0xcf	-49
220	0xe9	-23
221	0xf2	-14
222	0x1d	29
223	0x35	53
224	0xac	-84
225	0x1f	31
226	0xd6	-42
227	0xa2	-94
228	0xc7	-57
229	0x96	-106
230	0xd6	-42
231	0x19	25
232	0xee	-18
233	0x59	89
234	0xd0	-48
235	0x26	38
236	0xd4	-44
237	0xcd	-51
238	0x23	35
239	0x16	22
240	0xd9	-39
241	0x4a	74
242	0xd4	-44
243	0xd6	-42
244	0xb0	-80
245	0xe6	-26
246	0x1d	29
247	0x32	50
248	0x28	40
249	0x0e	14
250	0xbc	-68
251	0x17	23
252	0xb5	-75
253	0x4a	74
254	0x1f	31
255	0xff	-1
