model_quantized.tflite (tflite, 81200 bytes, 25 tensors)

tfl.pseudo_qconst1 i1 [5, 64]
000000 b4 eb d3 28 b9 0d c3 01 f9 9b 68 df 05 13 bc ec
       -76 -21 -45 40 -71 13 -61 1 -7 -101 104 -33 5 19 -68 -20
000010 d8 6c c5 ee b6 90 e8 e1 8c 31 30 9f b3 96 79 12
       -40 108 -59 -18 -74 -112 -24 -31 -116 49 48 -97 -77 -106 121 18
000020 86 d2 90 25 00 95 be e3 10 d0 74 e0 90 6b e6 b0
       -122 -46 -112 37 0 -107 -66 -29 16 -48 116 -32 -112 107 -26 -80
000030 38 02 41 15 43 83 91 b4 37 76 01 4b c3 7f 14 a4
       56 2 65 21 67 -125 -111 -76 55 118 1 75 -61 127 20 -92
000040 7f f4 c9 60 5c ff 08 ad b0 d2 4d 3f b4 a3 fe c2
       127 -12 -55 96 92 -1 8 -83 -80 -46 77 63 -76 -93 -2 -62
000050 e2 d6 fd de d2 ad 3d ba 40 27 0a a2 3f 30 f2 c6
       -30 -42 -3 -34 -46 -83 61 -70 64 39 10 -94 63 48 -14 -58
000060 0d f1 19 04 30 3a 37 ac fd cc 45 e9 16 e8 d4 3e
       13 -15 25 4 48 58 55 -84 -3 -52 69 -23 22 -24 -44 62
000070 f5 9f 0d 31 05 af 1d 10 45 ec d9 ce e5 b5 52 5d
       -11 -97 13 49 5 -81 29 16 69 -20 -39 -50 -27 -75 82 93
000080 45 4f cf e1 e9 fd a8 9f 93 ff dd 64 b3 81 55 94
       69 79 -49 -31 -23 -3 -88 -97 -109 -1 -35 100 -77 -127 85 -108
000090 5b c9 b0 1f 20 e6 c0 a2 4c 9d dd ff 61 95 c1 7b
       91 -55 -80 31 32 -26 -64 -94 76 -99 -35 -1 97 -107 -63 123
0000a0 d9 51 fb 0c 85 1e d6 7c f5 b5 87 07 27 d3 0b 52
       -39 81 -5 12 -123 30 -42 124 -11 -75 -121 7 39 -45 11 82
0000b0 f1 41 6d f4 5a 17 e8 72 f5 96 76 55 ad ea 72 1b
       -15 65 109 -12 90 23 -24 114 -11 -106 118 85 -83 -22 114 27
0000c0 e3 62 d9 81 67 7b e2 e4 3a 41 f9 af 8e a5 d7 6c
       -29 98 -39 -127 103 123 -30 -28 58 65 -7 -81 -114 -91 -41 108
0000d0 42 2a e5 e3 cf ed 49 01 5a f3 bd 90 4e c1 7b c5
       66 42 -27 -29 -49 -19 73 1 90 -13 -67 -112 78 -63 123 -59
0000e0 6e b7 43 ab 16 0b 52 e8 9a 90 f6 88 b4 04 91 9a
       110 -73 67 -85 22 11 82 -24 -102 -112 -10 -120 -76 4 -111 -102
0000f0 01 44 14 78 2e f7 77 d0 98 3b fd bc eb 5b 46 57
       1 68 20 120 46 -9 119 -48 -104 59 -3 -68 -21 91 70 87

tfl.pseudo_qconst3 i1 [64, 32]
000000 01 d2 43 5c ed 40 dd 50 42 da 9d 00 60 68 7c ea
       1 -46 67 92 -19 64 -35 80 66 -38 -99 0 96 104 124 -22
000010 9f c7 bc bb c5 35 68 0b c6 7f e1 15 b9 19 5d 18
       -97 -57 -68 -69 -59 53 104 11 -58 127 -31 21 -71 25 93 24
000020 dd 04 65 81 d1 5d 8b 14 7a 4b c3 0e 3f 0e 63 05
       -35 4 101 -127 -47 93 -117 20 122 75 -61 14 63 14 99 5
000030 03 da d2 c3 b4 fe 91 4c 53 6c e8 9e e8 84 53 93
       3 -38 -46 -61 -76 -2 -111 76 83 108 -24 -98 -24 -124 83 -109
000040 49 3e 88 8d f3 b0 c1 9f e9 84 15 13 ed bc 44 7a
       73 62 -120 -115 -13 -80 -63 -97 -23 -124 21 19 -19 -68 68 122
000050 44 cc 78 cf 3c 78 c7 a0 81 a8 2b b6 d7 b2 96 ae
       68 -52 120 -49 60 120 -57 -96 -127 -88 43 -74 -41 -78 -106 -82
000060 5a 9e ec 99 c1 6d 65 d0 ce a0 be 26 06 46 c1 99
       90 -98 -20 -103 -63 109 101 -48 -50 -96 -66 38 6 70 -63 -103
000070 f9 8e 60 35 bf 25 d8 ab 41 70 c2 81 e3 3d 10 91
       -7 -114 96 53 -65 37 -40 -85 65 112 -62 -127 -29 61 16 -111
000080 a7 33 d5 6d 7f 53 3d 19 c9 52 90 b7 4c f1 6c 9e
       -89 51 -43 109 127 83 61 25 -55 82 -112 -73 76 -15 108 -98
000090 97 09 f8 01 db 38 5f 0a b9 31 18 e3 19 d3 d7 e4
       -105 9 -8 1 -37 56 95 10 -71 49 24 -29 25 -45 -41 -28
0000a0 b5 d2 99 b5 ec c1 06 0c ff b2 58 39 5b c0 64 ab
       -75 -46 -103 -75 -20 -63 6 12 -1 -78 88 57 91 -64 100 -85
0000b0 36 2c d1 fc cf 38 16 ea 7f 99 4b d8 e4 62 90 04
       54 44 -47 -4 -49 56 22 -22 127 -103 75 -40 -28 98 -112 4
0000c0 e0 b1 01 08 57 d7 65 ed ef a9 55 9a 5d c0 5b 5e
       -32 -79 1 8 87 -41 101 -19 -17 -87 85 -102 93 -64 91 94
0000d0 be 8e 7f 66 27 3b 29 b2 e2 6b 22 da 8c 49 fb 7d
       -66 -114 127 102 39 59 41 -78 -30 107 34 -38 -116 73 -5 125
0000e0 43 b3 24 cf 51 b7 bb b8 71 00 e6 1d 37 81 f9 45
       67 -77 36 -49 81 -73 -69 -72 113 0 -26 29 55 -127 -7 69
0000f0 03 b3 e9 b5 6d c0 f6 1b 6d b2 93 b6 6c 19 c5 88
       3 -77 -23 -75 109 -64 -10 27 109 -78 -109 -74 108 25 -59 -120

tfl.pseudo_qconst4 i1 [32] scale=0.00047436974 zero_point=-33
000000 ce b4 d9 e7 f1 a3 df ee b5 df b5 b5 dc df 0b e2
       -0.008064286 -0.020397898 -0.0028462184 0.003794958 0.008538655 -0.028462185 0.0 0.007115546 -0.019923529 0.0 -0.019923529 -0.019923529 -0.0014231092 0.0 0.020872269 0.0014231092
000010 e1 e8 b6 f0 e6 ea ba e2 7f 1d c9 d8 80 df e5 b1
       0.0009487395 0.0042693275 -0.01944916 0.008064286 0.0033205883 0.005218067 -0.017551681 0.0014231092 0.075899154 0.029410923 -0.010436134 -0.0033205883 -0.045065124 0.0 0.0028462184 -0.021821007

tfl.pseudo_qconst5 i1 [32, 1, 3, 32]
000000 e1 14 16 29 99 76 9b 3e c4 6b e4 35 fe f3 cd cb
       -31 20 22 41 -103 118 -101 62 -60 107 -28 53 -2 -13 -51 -53
000010 9b ce 0a e9 15 f9 3c a3 1e 08 a7 dc 90 e3 ba 32
       -101 -50 10 -23 21 -7 60 -93 30 8 -89 -36 -112 -29 -70 50
000020 3a e7 31 42 f7 52 df a6 4d cf 8f 24 a8 eb ce 06
       58 -25 49 66 -9 82 -33 -90 77 -49 -113 36 -88 -21 -50 6
000030 d8 24 db d7 89 e2 55 f5 03 38 e6 74 5e 05 d8 99
       -40 36 -37 -41 -119 -30 85 -11 3 56 -26 116 94 5 -40 -103
000040 0b 3a 07 f0 d1 76 c3 c1 d5 c5 93 13 ad d8 f3 81
       11 58 7 -16 -47 118 -61 -63 -43 -59 -109 19 -83 -40 -13 -127
000050 33 20 11 bf d4 f9 fb a6 aa d5 2e ee ab 41 be 13
       51 32 17 -65 -44 -7 -5 -90 -86 -43 46 -18 -85 65 -66 19
000060 42 dd df f2 27 a9 c5 7f 67 9d d5 0a 17 06 6a 41
       66 -35 -33 -14 39 -87 -59 127 103 -99 -43 10 23 6 106 65
000070 f0 f1 29 24 21 d9 08 0e b2 07 14 be 12 42 08 b7
       -16 -15 41 36 33 -39 8 14 -78 7 20 -66 18 66 8 -73
000080 89 de 9e 40 b9 b9 38 ff 2b ab 29 c5 59 da 14 67
       -119 -34 -98 64 -71 -71 56 -1 43 -85 41 -59 89 -38 20 103
000090 0c da 77 d6 31 d2 10 e6 e6 2d 86 f2 47 19 02 f8
       12 -38 119 -42 49 -46 16 -26 -26 45 -122 -14 71 25 2 -8
0000a0 cf d2 37 07 78 3d 60 8b d7 4e 3e da 2b bb f3 52
       -49 -46 55 7 120 61 96 -117 -41 78 62 -38 43 -69 -13 82
0000b0 69 25 3e f6 be a0 5b fa c7 19 4c 05 1c 28 19 1a
       105 37 62 -10 -66 -96 91 -6 -57 25 76 5 28 40 25 26
0000c0 31 59 f4 12 ff f2 18 2f ce 3c e4 2d 3b 30 d9 d5
       49 89 -12 18 -1 -14 24 47 -50 60 -28 45 59 48 -39 -43
0000d0 02 35 c0 e5 49 15 ee ec ee b6 f3 83 53 16 04 42
       2 53 -64 -27 73 21 -18 -20 -18 -74 -13 -125 83 22 4 66
0000e0 44 bf 37 c1 16 03 ce da 57 1c ea d2 0f e4 d7 14
       68 -65 55 -63 22 3 -50 -38 87 28 -22 -46 15 -28 -41 20
0000f0 f3 e6 1c 8a cf 4f b9 1a c9 e4 de d3 0d fe 83 14
       -13 -26 28 -118 -49 79 -71 26 -55 -28 -34 -45 13 -2 -125 20

tfl.pseudo_qconst6 i1 [32] scale=0.00027386902 zero_point=-1
000000 e2 34 e5 c3 c6 0a 32 cd 7f 49 44 1c 05 80 ff 3a
       -0.007942202 0.014515058 -0.0071205944 -0.016432142 -0.015610535 0.0030125594 0.01396732 -0.013693451 0.035055235 0.020266308 0.018896963 0.007942202 0.0016432141 -0.034781367 0.0 0.016158272
000010 ed f6 ff e2 e9 03 d2 cb d1 eb e4 d3 0a ac d1 ff
       -0.004929642 -0.002464821 0.0 -0.007942202 -0.0060251188 0.0010954761 -0.012324106 -0.014241189 -0.012597975 -0.0054773805 -0.0073944638 -0.0120502375 0.0030125594 -0.02273113 -0.012597975 0.0

tfl.pseudo_qconst7 i1 [32, 1, 3, 32]
000000 12 17 16 27 9c 03 73 66 60 97 08 28 f4 21 1a 17
       18 23 22 39 -100 3 115 102 96 -105 8 40 -12 33 26 23
000010 cb e7 d7 e2 2d 32 36 59 fc 0b e6 fc 23 ea 01 fd
       -53 -25 -41 -30 45 50 54 89 -4 11 -26 -4 35 -22 1 -3
000020 ba fb 75 6f 7f df b8 ea 20 f3 c6 6d 58 19 9a ed
       -70 -5 117 111 127 -33 -72 -22 32 -13 -58 109 88 25 -102 -19
000030 da 18 e3 e7 f1 d3 e8 53 3e ba ef 0a 4f 1f 75 37
       -38 24 -29 -25 -15 -45 -24 83 62 -70 -17 10 79 31 117 55
000040 0f fd f0 e9 cf da 28 bd fb 8f 5d 85 6e 3d ab a3
       15 -3 -16 -23 -49 -38 40 -67 -5 -113 93 -123 110 61 -85 -93
000050 dd d4 9b e4 de d1 1d d9 32 56 03 28 40 dd e5 f5
       -35 -44 -101 -28 -34 -47 29 -39 50 86 3 40 64 -35 -27 -11
000060 1c aa 02 06 17 c2 58 4c 21 db 40 e8 fb c0 59 9a
       28 -86 2 6 23 -62 88 76 33 -37 64 -24 -5 -64 89 -102
000070 34 47 35 41 c6 f4 ac e5 4a 9e 2c 48 cb 12 fd e7
       52 71 53 65 -58 -12 -84 -27 74 -98 44 72 -53 18 -3 -25
000080 ed f0 2d 9e 44 18 54 20 0b 7a 0b 64 fe cf 16 81
       -19 -16 45 -98 68 24 84 32 11 122 11 100 -2 -49 22 -127
000090 64 ba 1e 0b 2a 3b 27 d0 eb 1a 10 2c f2 30 34 95
       100 -70 30 11 42 59 39 -48 -21 26 16 44 -14 48 52 -107
0000a0 82 c3 c7 b5 f9 e8 be 23 37 fe 16 c9 fe 8a ef 10
       -126 -61 -57 -75 -7 -24 -66 35 55 -2 22 -55 -2 -118 -17 16
0000b0 cf cd 42 6b 59 29 1d 46 97 63 b0 70 ca dc ee e6
       -49 -51 66 107 89 41 29 70 -105 99 -80 112 -54 -36 -18 -26
0000c0 95 e6 1c 07 34 1d e4 f8 e3 0b fe 03 8e e1 d1 9a
       -107 -26 28 7 52 29 -28 -8 -29 11 -2 3 -114 -31 -47 -102
0000d0 97 c0 cf d1 0f e8 e9 fb 77 0e 2a eb 15 f0 c1 02
       -105 -64 -49 -47 15 -24 -23 -5 119 14 42 -21 21 -16 -63 2
0000e0 d3 66 b2 c0 e9 16 55 3a a9 fe 02 e7 fc be 8c cc
       -45 102 -78 -64 -23 22 85 58 -87 -2 2 -25 -4 -66 -116 -52
0000f0 1a 4e 0e 27 f7 d9 2f e8 41 bf 38 0c 76 e9 93 ee
       26 78 14 39 -9 -39 47 -24 65 -65 56 12 118 -23 -109 -18

tfl.pseudo_qconst8 i1 [32] scale=0.00028869725 zero_point=7
000000 d2 e4 7f d5 d9 ff 17 e0 d3 d2 f0 df fb 1f 2e b6
       -0.015300955 -0.010104404 0.03464367 -0.014434863 -0.013280073 -0.002309578 0.004619156 -0.011259193 -0.015012257 -0.015300955 -0.0066400366 -0.01154789 -0.003464367 0.006928734 0.011259193 -0.023384478
000010 a3 c4 29 34 0c 16 07 de 42 65 80 d4 d4 fe e8 dd
       -0.028869726 -0.019342715 0.009815707 0.012991376 0.0014434862 0.0043304586 0.0 -0.011836587 0.017033137 0.027137542 -0.03897413 -0.01472356 -0.01472356 -0.0025982752 -0.008949615 -0.012125284

tfl.pseudo_qconst9 i1 [32, 1, 3, 32]
000000 a4 11 2e 23 36 01 3b 69 22 e9 d3 cc 14 1e e3 42
       -92 17 46 35 54 1 59 105 34 -23 -45 -52 20 30 -29 66
000010 2e 09 22 2f fc e5 35 f2 33 06 69 66 d0 c5 cf 1d
       46 9 34 47 -4 -27 53 -14 51 6 105 102 -48 -59 -49 29
000020 30 ce e4 50 41 97 dd 33 c8 f1 f4 bf 79 99 cb 75
       48 -50 -28 80 65 -105 -35 51 -56 -15 -12 -65 121 -103 -53 117
000030 9e f0 47 2d bc b3 f6 09 02 6a 72 22 de 85 05 f3
       -98 -16 71 45 -68 -77 -10 9 2 106 114 34 -34 -123 5 -13
000040 e0 2c cd 2f 20 f2 b5 e8 5b f5 07 78 21 4d 7f c0
       -32 44 -51 47 32 -14 -75 -24 91 -11 7 120 33 77 127 -64
000050 93 f2 5d b3 d1 f8 36 ee 8c 25 f1 d5 a3 bb da 29
       -109 -14 93 -77 -47 -8 54 -18 -116 37 -15 -43 -93 -69 -38 41
000060 c1 b3 26 5c 42 f6 5a 18 19 f9 e9 2f 81 ed 22 ef
       -63 -77 38 92 66 -10 90 24 25 -7 -23 47 -127 -19 34 -17
000070 e1 9c 0d 07 3f 59 e5 b8 02 0f 21 81 29 58 49 f6
       -31 -100 13 7 63 89 -27 -72 2 15 33 -127 41 88 73 -10
000080 0b 73 17 9b f2 16 ba c5 15 af 70 f2 fe c1 53 6b
       11 115 23 -101 -14 22 -70 -59 21 -81 112 -14 -2 -63 83 107
000090 eb 2a f1 35 09 32 1b f3 de ef 21 c8 fd 31 16 73
       -21 42 -15 53 9 50 27 -13 -34 -17 33 -56 -3 49 22 115
0000a0 cd de ae f5 fc d9 2f af d9 21 b6 49 65 94 0a e3
       -51 -34 -82 -11 -4 -39 47 -81 -39 33 -74 73 101 -108 10 -29
0000b0 ab 32 99 46 d2 1e 70 82 d3 c6 a3 e9 29 f4 3f 42
       -85 50 -103 70 -46 30 112 -126 -45 -58 -93 -23 41 -12 63 66
0000c0 d9 a6 12 aa 08 cc 19 7f d1 06 17 0c 0a 5e 25 44
       -39 -90 18 -86 8 -52 25 127 -47 6 23 12 10 94 37 68
0000d0 a2 38 92 28 12 37 b9 b2 b1 f6 4e f1 00 fa a0 e2
       -94 56 -110 40 18 55 -71 -78 -79 -10 78 -15 0 -6 -96 -30
0000e0 71 cf a8 fc 16 40 8a dc 3e d4 f2 17 ff 57 1f 60
       113 -49 -88 -4 22 64 -118 -36 62 -44 -14 23 -1 87 31 96
0000f0 e9 44 1e a3 38 da bd f6 f6 eb 30 08 e3 49 3e d8
       -23 68 30 -93 56 -38 -67 -10 -10 -21 48 8 -29 73 62 -40

tfl.pseudo_qconst10 i1 [32] scale=0.0003481389 zero_point=1
000000 ac 01 df 80 c8 f3 35 0a 7f fb da ca c6 c4 21 f3
       -0.029591808 0.0 -0.011836723 -0.04490992 -0.019843917 -0.004873945 0.018103223 0.0031332502 0.043865502 -0.0020888336 -0.0135774175 -0.01914764 -0.020540196 -0.021236474 0.011140445 -0.004873945
000010 48 21 bd db 21 06 01 c8 f5 06 49 ec 23 12 d8 ee
       0.024717864 0.011140445 -0.023673447 -0.013229279 0.011140445 0.0017406945 0.0 -0.019843917 -0.004177667 0.0017406945 0.025066001 -0.007310917 0.011836723 0.0059183617 -0.014273696 -0.0066146394

tfl.pseudo_qconst11 i1 [32, 1, 3, 32]
000000 40 f0 ee 21 fb ab 6c d8 15 e6 22 04 2a f4 39 db
       64 -16 -18 33 -5 -85 108 -40 21 -26 34 4 42 -12 57 -37
000010 ee e9 03 f5 04 5c 0e e6 d3 f7 f1 1a d9 55 f6 56
       -18 -23 3 -11 4 92 14 -26 -45 -9 -15 26 -39 85 -10 86
000020 d9 42 f2 ef 4b d3 d2 2c 5f cc 06 1e 18 49 e6 81
       -39 66 -14 -17 75 -45 -46 44 95 -52 6 30 24 73 -26 -127
000030 3e 39 f9 d0 ba 40 f3 23 6d 36 e4 18 09 2c 02 07
       62 57 -7 -48 -70 64 -13 35 109 54 -28 24 9 44 2 7
000040 fa 67 f8 45 b7 2c c0 c7 f8 25 00 de cf 35 2f bc
       -6 103 -8 69 -73 44 -64 -57 -8 37 0 -34 -49 53 47 -68
000050 43 ef fe fd a9 ec f7 f6 33 25 1a e6 ce 29 1b b8
       67 -17 -2 -3 -87 -20 -9 -10 51 37 26 -26 -50 41 27 -72
000060 11 12 fa e7 cf 3f 03 6f e4 fd e9 17 8c dc 08 d5
       17 18 -6 -25 -49 63 3 111 -28 -3 -23 23 -116 -36 8 -43
000070 c7 d8 49 a3 23 df e9 16 54 82 ae 11 2e f5 0c d0
       -57 -40 73 -93 35 -33 -23 22 84 -126 -82 17 46 -11 12 -48
000080 ef 44 d0 4b 18 e7 0c c7 81 07 f1 84 2f 0d d4 34
       -17 68 -48 75 24 -25 12 -57 -127 7 -15 -124 47 13 -44 52
000090 ab 31 1c f6 ee f8 d0 ed 25 f1 c6 17 c4 b9 2b 07
       -85 49 28 -10 -18 -8 -48 -19 37 -15 -58 23 -60 -71 43 7
0000a0 3a 4a 3b aa b0 2b ce 29 7d fa 29 a5 e3 f6 c4 02
       58 74 59 -86 -80 43 -50 41 125 -6 41 -91 -29 -10 -60 2
0000b0 4f bc ef 04 f1 d3 2a 42 ae 02 d2 d1 e4 38 f7 30
       79 -68 -17 4 -15 -45 42 66 -82 2 -46 -47 -28 56 -9 48
0000c0 5c 13 2a 71 ed 07 d1 06 3e f8 25 fd 48 81 31 cc
       92 19 42 113 -19 7 -47 6 62 -8 37 -3 72 -127 49 -52
0000d0 21 20 4a f5 5b 01 31 32 c5 d1 e6 c3 de eb 99 27
       33 32 74 -11 91 1 49 50 -59 -47 -26 -61 -34 -21 -103 39
0000e0 5d f8 02 be 1a 05 50 0c 05 20 ec 38 ea 3d bf 1d
       93 -8 2 -66 26 5 80 12 5 32 -20 56 -22 61 -65 29
0000f0 4a ec ff 2a f9 10 b7 e2 10 ed 2f 0e f9 e3 e9 1b
       74 -20 -1 42 -7 16 -73 -30 16 -19 47 14 -7 -29 -23 27

tfl.pseudo_qconst12 i1 [32] scale=0.00027061734 zero_point=16
000000 fd d8 cc ee 80 b7 da e1 de bb 10 da 19 f2 7f b6
       -0.0051417295 -0.015154571 -0.018401979 -0.009200989 -0.0389689 -0.024084942 -0.014613336 -0.012719015 -0.013530867 -0.023002474 0.0 -0.014613336 0.0024355561 -0.0081185205 0.030038524 -0.02435556
000010 ed ea 01 ec 1c c7 fd 06 99 ce ea fd 81 4c f6 ab
       -0.009471606 -0.010283459 -0.0040592602 -0.009742225 0.0032474082 -0.019755065 -0.0051417295 -0.0027061733 -0.032203462 -0.017860744 -0.010283459 -0.0051417295 -0.03869828 0.016237041 -0.007036051 -0.02733235

tfl.pseudo_qconst13 i1 [32, 1, 3, 32]
000000 e5 85 dd fd eb e6 8c 40 a4 21 94 d0 e8 26 c9 11
       -27 -123 -35 -3 -21 -26 -116 64 -92 33 -108 -48 -24 38 -55 17
000010 d0 f0 35 52 ed c2 43 f7 42 45 41 0f 79 ae 5c 16
       -48 -16 53 82 -19 -62 67 -9 66 69 65 15 121 -82 92 22
000020 18 1d 0a 09 13 23 bc 28 5a ea 0a 06 35 19 01 c4
       24 29 10 9 19 35 -68 40 90 -22 10 6 53 25 1 -60
000030 ef a6 f8 a8 ec 39 d3 46 4c 9a 7d 3e fd 02 2e ec
       -17 -90 -8 -88 -20 57 -45 70 76 -102 125 62 -3 2 46 -20
000040 7f 25 02 0c b7 3e 0f 04 38 a3 3b 3a 3e a0 f8 fa
       127 37 2 12 -73 62 15 4 56 -93 59 58 62 -96 -8 -6
000050 ef f1 05 f6 3d d8 85 ff de 77 af c6 cb 20 e7 b7
       -17 -15 5 -10 61 -40 -123 -1 -34 119 -81 -58 -53 32 -25 -73
000060 31 0f 9c 08 ec fc a9 fb b1 de b9 d5 23 29 49 e7
       49 15 -100 8 -20 -4 -87 -5 -79 -34 -71 -43 35 41 73 -25
000070 ff 57 f5 bb 2e 21 0b 31 a8 e8 d8 f3 f8 54 31 c1
       -1 87 -11 -69 46 33 11 49 -88 -24 -40 -13 -8 84 49 -63
000080 e7 64 cc 34 b3 56 e3 f4 39 0e f1 d6 c4 d7 d5 2c
       -25 100 -52 52 -77 86 -29 -12 57 14 -15 -42 -60 -41 -43 44
000090 26 16 eb 1f 1b 47 ea 42 f7 52 6c fe df 23 09 a8
       38 22 -21 31 27 71 -22 66 -9 82 108 -2 -33 35 9 -88
0000a0 43 c3 93 28 03 12 de 1c 02 ae 3d c5 c3 e5 5f c7
       67 -61 -109 40 3 18 -34 28 2 -82 61 -59 -61 -27 95 -57
0000b0 49 f0 dc f7 6f 1b fb 62 81 af 11 f8 e4 25 ed 15
       73 -16 -36 -9 111 27 -5 98 -127 -81 17 -8 -28 37 -19 21
0000c0 18 cc 4f d0 eb f4 b3 20 a5 b7 e5 2c ee 02 d8 26
       24 -52 79 -48 -21 -12 -77 32 -91 -73 -27 44 -18 2 -40 38
0000d0 02 24 4e ed 38 c6 77 ea dd 0b 0f 40 bb 5f f2 43
       2 36 78 -19 56 -58 119 -22 -35 11 15 64 -69 95 -14 67
0000e0 fa 36 e8 ca da 0e f2 a9 db e0 e3 61 1f b9 28 ff
       -6 54 -24 -54 -38 14 -14 -87 -37 -32 -29 97 31 -71 40 -1
0000f0 31 50 52 0e f5 07 fd 00 0e 3b 23 28 04 33 db c1
       49 80 82 14 -11 7 -3 0 14 59 35 40 4 51 -37 -63

tfl.pseudo_qconst14 i1 [32] scale=0.00018016582 zero_point=30
000000 80 1e d4 1e 7f eb d1 fe 19 ce 93 0e c1 f2 40 ac
       -0.0284662 0.0 -0.013332271 0.0 0.017476086 -0.009188456 -0.013872769 -0.0057653063 -0.0009008291 -0.0144132655 -0.02504305 -0.0028826531 -0.01675542 -0.007927296 0.006125638 -0.020538904
000010 54 1e 09 f5 b8 0e d1 e2 65 10 1b 71 20 ce f2 ed
       0.009728954 0.0 -0.0037834824 -0.0073867985 -0.018376913 -0.0028826531 -0.013872769 -0.01080995 0.012791773 -0.0025223214 -0.0005404975 0.014953763 0.00036033164 -0.0144132655 -0.007927296 -0.008828125

tfl.pseudo_qconst15 i1 [32, 1, 3, 32]
000000 32 1d 11 a5 44 87 0f 34 0d 5d 28 01 6d f9 ec 63
       50 29 17 -91 68 -121 15 52 13 93 40 1 109 -7 -20 99
000010 26 14 de eb 2d f3 b9 13 fb 1e 7c f4 27 12 e1 a5
       38 20 -34 -21 45 -13 -71 19 -5 30 124 -12 39 18 -31 -91
000020 bd 17 20 eb 26 14 ea cf c7 b8 0b 27 47 1f 0e b6
       -67 23 32 -21 38 20 -22 -49 -57 -72 11 39 71 31 14 -74
000030 2a f3 1f c3 af 0d 2b 45 11 1f e9 ca 62 db ab ff
       42 -13 31 -61 -81 13 43 69 17 31 -23 -54 98 -37 -85 -1
000040 e3 c4 66 72 35 3f 04 9e 26 19 d8 c0 fb 37 af 81
       -29 -60 102 114 53 63 4 -98 38 25 -40 -64 -5 55 -81 -127
000050 d7 99 1a 07 64 f0 37 d7 ac a9 19 cd 30 b8 c9 45
       -41 -103 26 7 100 -16 55 -41 -84 -87 25 -51 48 -72 -55 69
000060 dd df d0 cf ff 06 b2 ca 3b 01 b1 e1 ca ee 7d 22
       -35 -33 -48 -49 -1 6 -78 -54 59 1 -79 -31 -54 -18 125 34
000070 83 13 77 ef 05 43 f8 ff 27 d2 0f b3 b5 78 0f ba
       -125 19 119 -17 5 67 -8 -1 39 -46 15 -77 -75 120 15 -70
000080 2e fe 19 0a b5 8c c5 eb 0e a4 e8 bd be 85 de 2c
       46 -2 25 10 -75 -116 -59 -21 14 -92 -24 -67 -66 -123 -34 44
000090 af 23 22 8f c7 24 ca 40 c9 64 26 26 3c fb 3e f2
       -81 35 34 -113 -57 36 -54 64 -55 100 38 38 60 -5 62 -14
0000a0 e6 4e f2 8c 15 c8 b3 06 c5 e1 ef d6 dc 30 d1 db
       -26 78 -14 -116 21 -56 -77 6 -59 -31 -17 -42 -36 48 -47 -37
0000b0 81 e3 ec ea a0 4d b0 7a eb c4 48 8c e2 8a f6 44
       -127 -29 -20 -22 -96 77 -80 122 -21 -60 72 -116 -30 -118 -10 68
0000c0 fb 06 07 d2 10 24 d4 17 d6 ea 09 14 07 c7 ef df
       -5 6 7 -46 16 36 -44 23 -42 -22 9 20 7 -57 -17 -33
0000d0 56 e1 4d e0 ed 3f b3 3c d2 cb 1b f3 49 36 a0 1a
       86 -31 77 -32 -19 63 -77 60 -46 -53 27 -13 73 54 -96 26
0000e0 1e 2e 16 ce 19 12 97 d5 60 31 ac ee 4a c4 b2 e7
       30 46 22 -50 25 18 -105 -43 96 49 -84 -18 74 -60 -78 -25
0000f0 f3 77 09 16 bb 43 08 67 f8 4b 81 55 e8 de 97 e4
       -13 119 9 22 -69 67 8 103 -8 75 -127 85 -24 -34 -105 -28

tfl.pseudo_qconst16 i1 [32] scale=0.00027252253 zero_point=2
000000 eb be ed a2 92 80 bb 03 eb ae 95 c1 7f ad f1 e2
       -0.0062680184 -0.018531533 -0.005722973 -0.026162162 -0.030522523 -0.035427928 -0.0193491 0.00027252253 -0.0062680184 -0.022891892 -0.029704956 -0.017713964 0.034065317 -0.023164416 -0.0046328832 -0.008720721
000010 42 47 d2 00 2f e7 05 8b 02 fc f5 fc ba db e1 06
       0.017441442 0.018804055 -0.013081081 -0.00054504507 0.012263514 -0.0073581086 0.0008175676 -0.032430183 0.0 -0.0016351352 -0.003542793 -0.0016351352 -0.019621622 -0.010628379 -0.008993244 0.0010900901

tfl.pseudo_qconst17 i1 [32, 1, 3, 32]
000000 f8 c3 21 28 f4 dd dc 0c f5 1b ae 25 5d b2 d4 f5
       -8 -61 33 40 -12 -35 -36 12 -11 27 -82 37 93 -78 -44 -11
000010 39 5f e1 de 9e cb 17 ec d9 51 d9 95 cb 3f 1a 98
       57 95 -31 -34 -98 -53 23 -20 -39 81 -39 -107 -53 63 26 -104
000020 29 ee e3 d3 09 fe d6 16 c8 19 24 da 34 2f d9 81
       41 -18 -29 -45 9 -2 -42 22 -56 25 36 -38 52 47 -39 -127
000030 f8 9c 34 f5 34 1d e6 27 ed ec f6 19 ed bd 05 ea
       -8 -100 52 -11 52 29 -26 39 -19 -20 -10 25 -19 -67 5 -22
000040 ee 5c 5d 30 2a c4 7d 11 f2 24 15 19 27 f8 5c 00
       -18 92 93 48 42 -60 125 17 -14 36 21 25 39 -8 92 0
000050 7a f9 f2 02 a0 ae be f8 f2 60 30 d4 e3 ec 23 f1
       122 -7 -14 2 -96 -82 -66 -8 -14 96 48 -44 -29 -20 35 -15
000060 f4 63 a6 c8 2b 62 44 11 3a 99 d5 e7 71 09 d8 1f
       -12 99 -90 -56 43 98 68 17 58 -103 -43 -25 113 9 -40 31
000070 27 c3 12 d7 ac 4e c4 be 27 e3 a3 bb 35 c9 0d 03
       39 -61 18 -41 -84 78 -60 -66 39 -29 -93 -69 53 -55 13 3
000080 18 22 fb 1b f4 fe d6 11 fe bb 19 2d b5 4c fc ad
       24 34 -5 27 -12 -2 -42 17 -2 -69 25 45 -75 76 -4 -83
000090 fa 58 2a f7 f2 8c 1d 24 4f d5 dc 9b c1 c9 c8 e0
       -6 88 42 -9 -14 -116 29 36 79 -43 -36 -101 -63 -55 -56 -32
0000a0 23 ca ec 8e 0b 01 14 a1 ca 10 e8 9f 0d 7f bb 1b
       35 -54 -20 -114 11 1 20 -95 -54 16 -24 -97 13 127 -69 27
0000b0 e8 75 37 1a b3 40 d9 d3 ff 58 30 66 e3 de 22 17
       -24 117 55 26 -77 64 -39 -45 -1 88 48 102 -29 -34 34 23
0000c0 c4 96 1f c2 f1 85 b7 a0 f9 8f 6f e3 04 cc b3 c5
       -60 -106 31 -62 -15 -123 -73 -96 -7 -113 111 -29 4 -52 -77 -59
0000d0 23 bc f1 fa c3 04 2b 02 f3 3d 12 97 ea cd 60 33
       35 -68 -15 -6 -61 4 43 2 -13 61 18 -105 -22 -51 96 51
0000e0 3e 34 e8 bb 26 92 39 06 1f fd 46 45 be d4 f7 ea
       62 52 -24 -69 38 -110 57 6 31 -3 70 69 -66 -44 -9 -22
0000f0 cb 17 cd 6e 1e b3 cd 31 4d 2c 02 fb b1 aa 26 24
       -53 23 -51 110 30 -77 -51 49 77 44 2 -5 -79 -86 38 36

tfl.pseudo_qconst18 i1 [32] scale=0.00031951163 zero_point=27
000000 f6 08 b8 7f 31 28 30 09 f3 fa 53 80 e0 52 39 04
       -0.01182193 -0.006070721 -0.031631652 0.031951163 0.007029256 0.004153651 0.006709744 -0.0057512093 -0.012780465 -0.010543884 0.017892651 -0.049524304 -0.018851187 0.01757314 0.009585349 -0.0073487675
000010 3b 31 ff fa 03 19 58 d0 e0 06 0a d5 b5 ce 2b 0d
       0.010224372 0.007029256 -0.008946326 -0.010543884 -0.007668279 -0.00063902326 0.019490208 -0.023963373 -0.018851187 -0.006709744 -0.0054316977 -0.022365814 -0.032590188 -0.024602395 0.005112186 -0.004473163

tfl.pseudo_qconst19 i1 [32, 1, 3, 32]
000000 14 ef e5 6a e9 c6 e2 fb 29 f6 c7 0c f5 05 07 5a
       20 -17 -27 106 -23 -58 -30 -5 41 -10 -57 12 -11 5 7 90
000010 10 20 36 8b 1e 23 39 d8 21 51 fb 3b 03 33 20 31
       16 32 54 -117 30 35 57 -40 33 81 -5 59 3 51 32 49
000020 57 40 a2 93 fc b2 34 2d 2f 16 6b ed 19 2b fe 3c
       87 64 -94 -109 -4 -78 52 45 47 22 107 -19 25 43 -2 60
000030 08 cb 06 00 a8 e1 d5 e0 07 0a 1d 1a 59 d1 f6 81
       8 -53 6 0 -88 -31 -43 -32 7 10 29 26 89 -47 -10 -127
000040 86 ea 16 c1 02 dc 29 62 e8 4f f6 ae ef f6 ad d9
       -122 -22 22 -63 2 -36 41 98 -24 79 -10 -82 -17 -10 -83 -39
000050 ee f3 0d cf 30 40 f0 3a b3 8a f0 d7 f2 34 25 07
       -18 -13 13 -49 48 64 -16 58 -77 -118 -16 -41 -14 52 37 7
000060 4d 11 fd e2 48 bf 1b d6 2c f2 f0 c3 e6 c2 10 a8
       77 17 -3 -30 72 -65 27 -42 44 -14 -16 -61 -26 -62 16 -88
000070 4d c1 fc af cd e0 46 af ef d3 19 46 20 48 94 3c
       77 -63 -4 -81 -51 -32 70 -81 -17 -45 25 70 32 72 -108 60
000080 a7 9e 29 c8 b0 b3 87 9b 0a 13 b2 db 1c 5a c4 25
       -89 -98 41 -56 -80 -77 -121 -101 10 19 -78 -37 28 90 -60 37
000090 f0 e8 34 28 12 b8 d5 09 45 27 18 f9 ac c0 c7 ec
       -16 -24 52 40 18 -72 -43 9 69 39 24 -7 -84 -64 -57 -20
0000a0 55 7f 10 4f 19 ed d3 19 4a e5 48 c9 e3 23 10 64
       85 127 16 79 25 -19 -45 25 74 -27 72 -55 -29 35 16 100
0000b0 e2 c7 76 12 f6 31 71 a2 d3 3a 32 ff 03 b7 d2 17
       -30 -57 118 18 -10 49 113 -94 -45 58 50 -1 3 -73 -46 23
0000c0 e8 05 37 07 bc e4 71 d9 3f 08 3e e7 b8 be 04 13
       -24 5 55 7 -68 -28 113 -39 63 8 62 -25 -72 -66 4 19
0000d0 fa b1 5e 0d bf 47 20 0d 48 21 31 dc ea ee 46 bc
       -6 -79 94 13 -65 71 32 13 72 33 49 -36 -22 -18 70 -68
0000e0 e0 8f ea 63 e4 31 04 18 f3 5c 44 4b e8 9f 77 55
       -32 -113 -22 99 -28 49 4 24 -13 92 68 75 -24 -97 119 85
0000f0 3b 8c 64 4a b2 81 b4 9e 2f 3a 2f e3 db ed cd c8
       59 -116 100 74 -78 -127 -76 -98 47 58 47 -29 -37 -19 -51 -56

tfl.pseudo_qconst20 i1 [32] scale=0.00023166403 zero_point=127
000000 5f 74 6d 48 5c 1b 5f 34 49 80 0f 10 1a 0c 5a 07
       -0.007413249 -0.0025483044 -0.0041699526 -0.012741522 -0.0081082415 -0.023166403 -0.007413249 -0.017374802 -0.012509857 -0.059074327 -0.025946371 -0.025714707 -0.023398068 -0.026641363 -0.008571569 -0.027799685
000010 59 44 38 6e 7d 77 3d 60 63 19 47 e2 0a 50 48 6a
       -0.0088032335 -0.013668178 -0.016448146 -0.0039382884 -0.00046332806 -0.0018533122 -0.015289826 -0.007181585 -0.006486593 -0.02362973 -0.012973186 -0.036371253 -0.027104693 -0.01088821 -0.012741522 -0.0048649446

tfl.pseudo_qconst21 i1 [32, 1, 3, 32]
000000 c9 db bf 7c c7 19 13 0f e5 8d 14 cf db 2b c5 e1
       -55 -37 -65 124 -57 25 19 15 -27 -115 20 -49 -37 43 -59 -31
000010 db f6 90 25 06 96 2f d6 ea 20 5f ac 17 c4 7b 31
       -37 -10 -112 37 6 -106 47 -42 -22 32 95 -84 23 -60 123 49
000020 f9 bb d3 2e f7 d1 33 00 0a 10 f7 28 e8 2c 24 af
       -7 -69 -45 46 -9 -47 51 0 10 16 -9 40 -24 44 36 -81
000030 f3 b6 f9 01 f6 cb d3 4d 0a 12 06 0e 0f f7 c2 75
       -13 -74 -7 1 -10 -53 -45 77 10 18 6 14 15 -9 -62 117
000040 0b 9f 01 8e 14 2d 2e c4 28 28 99 1e 38 0a 05 f4
       11 -97 1 -114 20 45 46 -60 40 40 -103 30 56 10 5 -12
000050 0e 2f 1a c4 47 eb df 2d 56 3f 1b 21 11 f7 7f b8
       14 47 26 -60 71 -21 -33 45 86 63 27 33 17 -9 127 -72
000060 a1 15 f5 de 14 75 1c 0c 90 23 3a 81 20 1f 15 37
       -95 21 -11 -34 20 117 28 12 -112 35 58 -127 32 31 21 55
000070 f0 59 f4 12 0b 00 38 20 15 47 37 ef 24 f0 4e 42
       -16 89 -12 18 11 0 56 32 21 71 55 -17 36 -16 78 66
000080 41 bf 20 2e 7f f8 ed f9 13 8f f9 bc 1b f6 e6 0c
       65 -65 32 46 127 -8 -19 -7 19 -113 -7 -68 27 -10 -26 12
000090 57 d5 b2 72 56 ac 45 22 9e 2e 1b f9 05 06 f0 0b
       87 -43 -78 114 86 -84 69 34 -98 46 27 -7 5 6 -16 11
0000a0 13 5c 12 20 c2 74 28 c7 63 d8 e4 49 29 2b b6 2b
       19 92 18 32 -62 116 40 -57 99 -40 -28 73 41 43 -74 43
0000b0 a5 ed 0e 12 3f 37 10 e6 a5 e7 f6 b0 73 30 af 96
       -91 -19 14 18 63 55 16 -26 -91 -25 -10 -80 115 48 -81 -106
0000c0 ff c6 43 34 02 1b b8 fa 7f 11 11 d6 34 13 2c 15
       -1 -58 67 52 2 27 -72 -6 127 17 17 -42 52 19 44 21
0000d0 61 66 d4 ca de f6 e4 e5 0f b9 06 17 d1 4a fc 30
       97 102 -44 -54 -34 -10 -28 -27 15 -71 6 23 -47 74 -4 48
0000e0 ae 24 51 55 c7 fd 6f f8 78 ec ca 22 22 07 32 ce
       -82 36 81 85 -57 -3 111 -8 120 -20 -54 34 34 7 50 -50
0000f0 e2 f0 0f 71 71 fa 14 e3 31 2b 3a 88 0a 61 38 39
       -30 -16 15 113 113 -6 20 -29 49 43 58 -120 10 97 56 57

tfl.pseudo_qconst22 i1 [32] scale=0.0001739317 zero_point=56
000000 26 2c 87 5c dd 80 d9 7f dd d2 07 13 e8 30 9d be
       -0.0031307705 -0.0020871803 -0.030785909 0.006261541 -0.015827784 -0.032003433 -0.01652351 0.01234915 -0.015827784 -0.017741032 -0.008522653 -0.0064354725 -0.013914536 -0.0013914536 -0.026959412 -0.021219667
000010 ed 23 1b de 00 c7 ec 04 0a d9 e8 42 2d 2a 06 f4
       -0.013044877 -0.0036525656 -0.0050440193 -0.015653852 -0.009740175 -0.019654281 -0.013218809 -0.009044448 -0.008000858 -0.01652351 -0.013914536 0.001739317 -0.0019132487 -0.0024350437 -0.008696585 -0.011827355

tfl.pseudo_qconst33 i1 [32, 1, 3, 32]
000000 aa 2e 23 39 19 52 21 b3 d2 79 3a af 45 26 ad d6
       -86 46 35 57 25 82 33 -77 -46 121 58 -81 69 38 -83 -42
000010 ae 6f a3 2f 54 b1 26 3e fd 1f eb ef 3a dc dd e4
       -82 111 -93 47 84 -79 38 62 -3 31 -21 -17 58 -36 -35 -28
000020 96 f8 03 5c 86 46 a7 c2 b2 f6 ef f5 c0 24 22 ee
       -106 -8 3 92 -122 70 -89 -62 -78 -10 -17 -11 -64 36 34 -18
000030 63 12 de 86 b3 f6 af 43 37 11 d1 f8 aa 31 65 33
       99 18 -34 -122 -77 -10 -81 67 55 17 -47 -8 -86 49 101 51
000040 4e e3 19 e6 a0 28 37 bf c9 2e c8 55 ef 37 ca d8
       78 -29 25 -26 -96 40 55 -65 -55 46 -56 85 -17 55 -54 -40
000050 17 a6 d0 03 ed 76 f4 7f bf f3 9e f8 fe 48 0f 2c
       23 -90 -48 3 -19 118 -12 127 -65 -13 -98 -8 -2 72 15 44
000060 d4 9c 2f 8f ba dd 0e ab d8 e0 d8 e7 90 e2 23 24
       -44 -100 47 -113 -70 -35 14 -85 -40 -32 -40 -25 -112 -30 35 36
000070 3d 50 ef b0 d0 ab 38 c8 21 07 fb 0e ef 06 e8 33
       61 80 -17 -80 -48 -85 56 -56 33 7 -5 14 -17 6 -24 51
000080 e6 0a 1e 90 9e b3 09 30 31 ef be 16 93 a3 36 1c
       -26 10 30 -112 -98 -77 9 48 49 -17 -66 22 -109 -93 54 28
000090 50 25 ec 26 1d 01 24 50 ca f0 a9 56 21 50 cb e4
       80 37 -20 38 29 1 36 80 -54 -16 -87 86 33 80 -53 -28
0000a0 13 2e f2 3f cd 84 3f e1 0b 12 d6 17 ea 7f 0f fa
       19 46 -14 63 -51 -124 63 -31 11 18 -42 23 -22 127 15 -6
0000b0 66 ce ea ae 0e 34 67 b8 47 d3 c8 03 85 2a e7 15
       102 -50 -22 -82 14 52 103 -72 71 -45 -56 3 -123 42 -25 21
0000c0 df bc 9c cb 32 58 2a 1a f2 97 ca e5 f2 ff 22 8c
       -33 -68 -100 -53 50 88 42 26 -14 -105 -54 -27 -14 -1 34 -116
0000d0 de 92 55 2a 59 cf 0e df 9f c2 e0 43 f9 dd b9 3f
       -34 -110 85 42 89 -49 14 -33 -97 -62 -32 67 -7 -35 -71 63
0000e0 4a f6 d9 de ad bd ae 5f 32 23 25 50 0a 29 04 4f
       74 -10 -39 -34 -83 -67 -82 95 50 35 37 80 10 41 4 79
0000f0 1b ea 57 35 3e 43 37 ec 19 0c 2c d1 07 0b cf dc
       27 -22 87 53 62 67 55 -20 25 12 44 -47 7 11 -49 -36

tfl.pseudo_qconst35 i1 [32, 1, 1, 6]
000000 50 7f bd b8 df d4 a6 81 09 03 bc dc 39 30 81 48
       80 127 -67 -72 -33 -44 -90 -127 9 3 -68 -36 57 48 -127 72
000010 05 62 79 2d b4 22 fb 81 53 c5 95 7f f7 09 f8 13
       5 98 121 45 -76 34 -5 -127 83 -59 -107 127 -9 9 -8 19
000020 7f 08 ff c8 74 70 fd b7 7f 4c 5e 93 81 64 73 df
       127 8 -1 -56 116 112 -3 -73 127 76 94 -109 -127 100 115 -33
000030 f2 b3 35 81 8a d5 7e ba 7f 35 71 58 c2 17 81 44
       -14 -77 53 -127 -118 -43 126 -70 127 53 113 88 -62 23 -127 68
000040 55 c7 6f 7b 5f 81 9c 66 81 63 19 fa ed 54 d1 7f
       85 -57 111 123 95 -127 -100 102 -127 99 25 -6 -19 84 -47 127
000050 b8 1b b7 1b 17 f5 7f 61 f5 66 94 4a 7f 16 b9 b2
       -72 27 -73 27 23 -11 127 97 -11 102 -108 74 127 22 -71 -78
000060 0a 56 5b 81 ce e9 e9 e0 f3 02 a5 7f f8 42 81 a2
       10 86 91 -127 -50 -23 -23 -32 -13 2 -91 127 -8 66 -127 -94
000070 38 cc 52 53 81 1c 95 3a fd 86 f6 96 81 bd d1 32
       56 -52 82 83 -127 28 -107 58 -3 -122 -10 -106 -127 -67 -47 50
000080 7f 69 fd 0d 21 de 0b 81 aa d3 6e 9f 45 81 4f f1
       127 105 -3 13 33 -34 11 -127 -86 -45 110 -97 69 -127 79 -15
000090 11 34 d3 9c 62 7f 48 7f 0c 02 3d 00 14 f2 81 53
       17 52 -45 -100 98 127 72 127 12 2 61 0 20 -14 -127 83
0000a0 2f 75 05 43 81 dd 17 c5 2a ce 65 9a 36 7f 06 ca
       47 117 5 67 -127 -35 23 -59 42 -50 101 -102 54 127 6 -54
0000b0 81 ba 4f 16 a3 4d 7a 67 01 81 e7 bb 43 f4 81 15
       -127 -70 79 22 -93 77 122 103 1 -127 -25 -69 67 -12 -127 21

tfl.pseudo_qconst37 i1 [32, 1, 3, 32]
000000 d3 f6 f4 fb 4b 9d 0c 9c e6 8c 0a b8 18 f2 6d d7
       -45 -10 -12 -5 75 -99 12 -100 -26 -116 10 -72 24 -14 109 -41
000010 ee 1c 9b 9f 15 ef 1a 95 1b ee 70 85 7b 0b 20 1b
       -18 28 -101 -97 21 -17 26 -107 27 -18 112 -123 123 11 32 27
000020 85 6e 24 35 19 d1 7f d6 0d 01 69 c9 46 ec 51 06
       -123 110 36 53 25 -47 127 -42 13 1 105 -55 70 -20 81 6
000030 dc 59 dd aa e3 dd 5a c7 f2 38 d0 61 2e 01 12 41
       -36 89 -35 -86 -29 -35 90 -57 -14 56 -48 97 46 1 18 65
000040 f2 d9 41 c3 f5 ad 02 93 0f 0a 1e 0f 16 e6 a8 fe
       -14 -39 65 -61 -11 -83 2 -109 15 10 30 15 22 -26 -88 -2
000050 c0 26 33 0b 57 cc df 19 c0 42 2a 1f c1 3c fa 06
       -64 38 51 11 87 -52 -33 25 -64 66 42 31 -63 60 -6 6
000060 31 17 d0 c4 b7 c5 ba 00 ab f4 77 43 42 e5 d5 fa
       49 23 -48 -60 -73 -59 -70 0 -85 -12 119 67 66 -27 -43 -6
000070 d2 b0 14 2b b2 f8 a2 a9 ea dd e6 16 c8 fc 05 25
       -46 -80 20 43 -78 -8 -94 -87 -22 -35 -26 22 -56 -4 5 37
000080 a4 19 5a c9 2b c9 c3 29 f5 d4 ce db 6c 52 27 07
       -92 25 90 -55 43 -55 -61 41 -11 -44 -50 -37 108 82 39 7
000090 1f b7 bf 0d ea 08 13 2b 4d 05 ba ff 20 de 48 2a
       31 -73 -65 13 -22 8 19 43 77 5 -70 -1 32 -34 72 42
0000a0 81 d8 a9 c6 eb b9 ac 4e ec b5 1e 6c ae 22 10 fd
       -127 -40 -87 -58 -21 -71 -84 78 -20 -75 30 108 -82 34 16 -3
0000b0 55 f6 48 e3 54 16 f8 06 cd 6b 59 12 bb 08 e4 ef
       85 -10 72 -29 84 22 -8 6 -51 107 89 18 -69 8 -28 -17
0000c0 e9 9b 0a ce f3 5c 07 f9 b0 2b e1 f7 81 8b fe 39
       -23 -101 10 -50 -13 92 7 -7 -80 43 -31 -9 -127 -117 -2 57
0000d0 41 d7 08 ae 1a f3 c8 66 34 fe a6 17 9b 43 eb 74
       65 -41 8 -82 26 -13 -56 102 52 -2 -90 23 -101 67 -21 116
0000e0 25 1e 0b 21 12 21 52 3c 05 89 13 e7 d9 f7 fd e6
       37 30 11 33 18 33 82 60 5 -119 19 -25 -39 -9 -3 -26
0000f0 5a cf 1f b8 2a 60 f7 0f 15 05 e8 fb d9 26 f9 d7
       90 -49 31 -72 42 96 -9 15 21 5 -24 -5 -39 38 -7 -41

tfl.pseudo_qconst39 i1 [32, 1, 3, 6]
000000 fc cf ef 44 aa 62 99 cb 7f 1e 21 a1 67 fa e3 a1
       -4 -49 -17 68 -86 98 -103 -53 127 30 33 -95 103 -6 -29 -95
000010 16 27 43 29 25 9c 81 31 c6 0a 07 3b e2 04 d3 08
       22 39 67 41 37 -100 -127 49 -58 10 7 59 -30 4 -45 8
000020 1f 0d 1d ff 7f c9 c3 38 d5 20 51 23 35 b4 e6 87
       31 13 29 -1 127 -55 -61 56 -43 32 81 35 53 -76 -26 -121
000030 15 8f 56 9c db e5 01 06 2d e0 98 e6 ed e5 3c db
       21 -113 86 -100 -37 -27 1 6 45 -32 -104 -26 -19 -27 60 -37
000040 de e0 e6 46 f7 5e 2c 81 16 a2 ec 35 d9 92 15 65
       -34 -32 -26 70 -9 94 44 -127 22 -94 -20 53 -39 -110 21 101
000050 fd ff 89 2a 3d 0a ba e0 7f fd ed e5 f2 14 2c c2
       -3 -1 -119 42 61 10 -70 -32 127 -3 -19 -27 -14 20 44 -62
000060 7f 2a 1b d2 17 c0 14 09 27 a9 b2 a6 77 7f c9 0c
       127 42 27 -46 23 -64 20 9 39 -87 -78 -90 119 127 -55 12
000070 35 f8 dc 9e 3d 0b e1 ed b2 c1 30 fd 16 14 05 01
       53 -8 -36 -98 61 11 -31 -19 -78 -63 48 -3 22 20 5 1
000080 a0 4e 38 46 f8 21 30 e9 b4 18 b9 12 7f 13 bb 04
       -96 78 56 70 -8 33 48 -23 -76 24 -71 18 127 19 -69 4
000090 f4 01 df 6f a8 0d b3 95 81 e4 ee ca 45 01 50 dd
       -12 1 -33 111 -88 13 -77 -107 -127 -28 -18 -54 69 1 80 -35
0000a0 dc 14 2d 04 59 18 c4 d3 18 df 2e ed 6a 25 ef 1c
       -36 20 45 4 89 24 -60 -45 24 -33 46 -19 106 37 -17 28
0000b0 b4 9f 7f 11 55 81 c9 66 13 42 6c f4 55 61 21 48
       -76 -97 127 17 85 -127 -55 102 19 66 108 -12 85 97 33 72
0000c0 f1 e8 e5 67 dc 27 1b 6b 4e d9 7f 3c 10 fd 0c 3e
       -15 -24 -27 103 -36 39 27 107 78 -39 127 60 16 -3 12 62
0000d0 61 e2 43 fd 90 e3 00 2e 3f 45 d9 27 e6 94 8b 1e
       97 -30 67 -3 -112 -29 0 46 63 69 -39 39 -26 -108 -117 30
0000e0 23 03 b1 3b e5 7f ad 0b 48 f5 df fa 81 34 f2 e8
       35 3 -79 59 -27 127 -83 11 72 -11 -33 -6 -127 52 -14 -24
0000f0 d4 08 16 e0 f4 01 2a d4 ad b5 e6 ff 13 fe 2c 39
       -44 8 22 -32 -12 1 42 -44 -83 -75 -26 -1 19 -2 44 57
