model_quantized.tflite (tflite, 34128 bytes, 14 tensors)

tfl.pseudo_qconst1 i1 [5, 12]
0	0x7f	127
1	0xfd	-3
2	0x90	-112
3	0xc0	-64
4	0xb1	-79
5	0x9d	-99
6	0xaa	-86
7	0x76	118
8	0xfb	-5
9	0x3c	60
10	0x0f	15
11	0x10	16
12	0x97	-105
13	0xbe	-66
14	0xf1	-15
15	0xb4	-76
16	0x3a	58
17	0xe8	-24
18	0xcb	-53
19	0x7f	127
20	0x90	-112
21	0x79	121
22	0xdc	-36
23	0xc7	-57
24	0x5c	92
25	0xe5	-27
26	0xbb	-69
27	0x02	2
28	0x44	68
29	0xf9	-7
30	0xb9	-71
31	0xe8	-24
32	0xe9	-23
33	0xeb	-21
34	0x81	-127
35	0x50	80
36	0x22	34
37	0x1b	27
38	0x66	102
39	0x0b	11
40	0x7f	127
41	0x57	87
42	0x1c	28
43	0xcc	-52
44	0xbe	-66
45	0xfd	-3
46	0x38	56
47	0xfe	-2
48	0x24	36
49	0x81	-127
50	0x00	0
51	0x58	88
52	0xb0	-80
53	0xb8	-72
54	0x4d	77
55	0xdf	-33
56	0xea	-22
57	0x79	121
58	0x26	38
59	0x46	70

tfl.pseudo_qconst3 i1 [12, 6]
0	0x07	7
1	0x40	64
2	0x0e	14
3	0xe6	-26
4	0xe9	-23
5	0x7f	127
6	0x71	113
7	0x4b	75
8	0x65	101
9	0xf2	-14
10	0x81	-127
11	0x5a	90
12	0x4b	75
13	0x6f	111
14	0x81	-127
15	0xaa	-86
16	0x21	33
17	0xfc	-4
18	0x3b	59
19	0xde	-34
20	0x07	7
21	0x81	-127
22	0x28	40
23	0xb8	-72
24	0xd4	-44
25	0x6d	109
26	0x81	-127
27	0xbe	-66
28	0x3c	60
29	0xfd	-3
30	0x8d	-115
31	0xf1	-15
32	0x81	-127
33	0x59	89
34	0xac	-84
35	0xbb	-69
36	0x95	-107
37	0x81	-127
38	0x23	35
39	0x2b	43
40	0x74	116
41	0xfc	-4
42	0x7f	127
43	0x91	-111
44	0x0f	15
45	0x19	25
46	0x3d	61
47	0xee	-18
48	0x45	69
49	0xd5	-43
50	0xc9	-55
51	0x7a	122
52	0xc5	-59
53	0x81	-127
54	0x9b	-101
55	0xae	-82
56	0xc0	-64
57	0x7f	127
58	0x9e	-98
59	0xb2	-78
60	0x18	24
61	0xa1	-95
62	0xe4	-28
63	0x81	-127
64	0xa3	-93
65	0x00	0
66	0xd4	-44
67	0x7f	127
68	0x65	101
69	0x68	104
70	0x95	-107
71	0x3c	60

tfl.pseudo_qconst5 i1 [6, 1, 3, 6]
0	0x79	121
1	0xbf	-65
2	0x47	71
3	0x4a	74
4	0x0d	13
5	0xd5	-43
6	0x00	0
7	0x97	-105
8	0xdf	-33
9	0x05	5
10	0x57	87
11	0x07	7
12	0x6c	108
13	0x26	38
14	0xed	-19
15	0x7f	127
16	0x06	6
17	0x05	5
18	0xbd	-67
19	0x01	1
20	0x3c	60
21	0xcb	-53
22	0xe8	-24
23	0x65	101
24	0xdb	-37
25	0xcf	-49
26	0x7e	126
27	0x14	20
28	0x06	6
29	0xf1	-15
30	0xdf	-33
31	0x65	101
32	0x44	68
33	0xc4	-60
34	0x7f	127
35	0xf5	-11
36	0xe6	-26
37	0xc0	-64
38	0x1e	30
39	0x81	-127
40	0x10	16
41	0x88	-120
42	0xae	-82
43	0xf1	-15
44	0xb2	-78
45	0x0a	10
46	0xad	-83
47	0x6b	107
48	0xe9	-23
49	0xe9	-23
50	0x93	-109
51	0xf8	-8
52	0xd0	-48
53	0x2b	43
54	0x7f	127
55	0x22	34
56	0x41	65
57	0xce	-50
58	0x18	24
59	0xe1	-31
60	0xa2	-94
61	0x40	64
62	0x40	64
63	0x5c	92
64	0xfb	-5
65	0x53	83
66	0xe5	-27
67	0x3d	61
68	0xc7	-57
69	0x02	2
70	0xdd	-35
71	0xb3	-77
72	0xdc	-36
73	0xcc	-52
74	0x7f	127
75	0x65	101
76	0xec	-20
77	0xf7	-9
78	0x43	67
79	0x78	120
80	0xfe	-2
81	0x5f	95
82	0x45	69
83	0xe5	-27
84	0x22	34
85	0x01	1
86	0x40	64
87	0x59	89
88	0xbd	-67
89	0xae	-82
90	0x36	54
91	0xe6	-26
92	0x1f	31
93	0xcd	-51
94	0x51	81
95	0x6e	110
96	0xd9	-39
97	0xc3	-61
98	0xb5	-75
99	0xf6	-10
100	0xfa	-6
101	0xe0	-32
102	0x7f	127
103	0x90	-112
104	0xd5	-43
105	0x0f	15
106	0xbf	-65
107	0xd9	-39

tfl.pseudo_qconst7 i1 [6, 1, 3, 6]
0	0x07	7
1	0x32	50
2	0xe1	-31
3	0xc7	-57
4	0x89	-119
5	0x1d	29
6	0x42	66
7	0xed	-19
8	0x7f	127
9	0x65	101
10	0x42	66
11	0xcc	-52
12	0xfb	-5
13	0x5f	95
14	0xa1	-95
15	0x8d	-115
16	0x81	-127
17	0x5a	90
18	0x0e	14
19	0x22	34
20	0x7f	127
21	0x59	89
22	0xd0	-48
23	0x56	86
24	0xec	-20
25	0xeb	-21
26	0xc2	-62
27	0x32	50
28	0xcc	-52
29	0xb6	-74
30	0xb1	-79
31	0x26	38
32	0xc9	-55
33	0x0d	13
34	0xe1	-31
35	0x48	72
36	0x1e	30
37	0x16	22
38	0x0c	12
39	0x81	-127
40	0x97	-105
41	0xde	-34
42	0x38	56
43	0xb2	-78
44	0xdb	-37
45	0x42	66
46	0xe1	-31
47	0xee	-18
48	0xe4	-28
49	0xa0	-96
50	0xa4	-92
51	0xa7	-89
52	0x4a	74
53	0x4c	76
54	0x81	-127
55	0xdb	-37
56	0xa1	-95
57	0x12	18
58	0xe9	-23
59	0xcb	-53
60	0x35	53
61	0x19	25
62	0xc2	-62
63	0x56	86
64	0xf8	-8
65	0xfa	-6
66	0xfb	-5
67	0x55	85
68	0x1d	29
69	0x6f	111
70	0xd4	-44
71	0x47	71
72	0x02	2
73	0x81	-127
74	0xb1	-79
75	0x2e	46
76	0x23	35
77	0xd1	-47
78	0xfc	-4
79	0x3d	61
80	0xc3	-61
81	0x66	102
82	0x69	105
83	0xd0	-48
84	0x3e	62
85	0xe4	-28
86	0xe1	-31
87	0x07	7
88	0x64	100
89	0x20	32
90	0x18	24
91	0xd4	-44
92	0xf5	-11
93	0xeb	-21
94	0xed	-19
95	0x9b	-101
96	0xef	-17
97	0x7f	127
98	0x39	57
99	0xf5	-11
100	0x4c	76
101	0x1d	29
102	0xdb	-37
103	0x65	101
104	0xb2	-78
105	0x11	17
106	0x1c	28
107	0x01	1

tfl.pseudo_qconst9 i1 [6, 1, 3, 6]
0	0xe9	-23
1	0x52	82
2	0xf6	-10
3	0xea	-22
4	0xfc	-4
5	0xd4	-44
6	0xfa	-6
7	0xd5	-43
8	0xc3	-61
9	0x20	32
10	0x7f	127
11	0xbe	-66
12	0xea	-22
13	0x4c	76
14	0x6d	109
15	0xfe	-2
16	0x1c	28
17	0x35	53
18	0x81	-127
19	0xd0	-48
20	0xc1	-63
21	0xfd	-3
22	0xa0	-96
23	0xfc	-4
24	0x22	34
25	0xc1	-63
26	0x24	36
27	0x04	4
28	0x1a	26
29	0xc2	-62
30	0x06	6
31	0x05	5
32	0x66	102
33	0xe8	-24
34	0x28	40
35	0x95	-107
36	0xf9	-7
37	0x6c	108
38	0x7f	127
39	0xe6	-26
40	0x23	35
41	0x44	68
42	0x3d	61
43	0x38	56
44	0xc3	-61
45	0xf0	-16
46	0xc4	-60
47	0xac	-84
48	0xf7	-9
49	0xea	-22
50	0xa7	-89
51	0x58	88
52	0xe2	-30
53	0xf0	-16
54	0xe1	-31
55	0x92	-110
56	0x86	-122
57	0x92	-110
58	0x2b	43
59	0x9d	-99
60	0x70	112
61	0xc4	-60
62	0xf4	-12
63	0x45	69
64	0x1a	26
65	0xe4	-28
66	0x81	-127
67	0x46	70
68	0x1c	28
69	0xfe	-2
70	0x15	21
71	0x66	102
72	0xef	-17
73	0x15	21
74	0x18	24
75	0xad	-83
76	0xf2	-14
77	0xde	-34
78	0xee	-18
79	0x03	3
80	0x91	-111
81	0xba	-70
82	0x81	-127
83	0x4d	77
84	0x3f	63
85	0xee	-18
86	0x3d	61
87	0x75	117
88	0xd9	-39
89	0xb3	-77
90	0xd5	-43
91	0x81	-127
92	0xe2	-30
93	0x69	105
94	0xdd	-35
95	0xdc	-36
96	0xe9	-23
97	0xbd	-67
98	0x56	86
99	0x4e	78
100	0xcc	-52
101	0x2b	43
102	0xea	-22
103	0xfa	-6
104	0xb2	-78
105	0xc6	-58
106	0xda	-38
107	0x55	85

tfl.pseudo_qconst11 i1 [6, 1, 3, 6]
0	0x98	-104
1	0xfb	-5
2	0x0f	15
3	0xd9	-39
4	0xbc	-68
5	0x50	80
6	0x7f	127
7	0xdb	-37
8	0xfb	-5
9	0x0d	13
10	0x92	-110
11	0x93	-109
12	0xdb	-37
13	0xd6	-42
14	0x04	4
15	0x1c	28
16	0x4e	78
17	0xac	-84
18	0xf0	-16
19	0xe9	-23
20	0x7f	127
21	0x4c	76
22	0x07	7
23	0x28	40
24	0xd9	-39
25	0x1b	27
26	0x8d	-115
27	0x8b	-117
28	0xdc	-36
29	0x49	73
30	0xd2	-46
31	0xcd	-51
32	0x22	34
33	0x3e	62
34	0x4a	74
35	0x7f	127
36	0xfa	-6
37	0x2c	44
38	0x41	65
39	0x7d	125
40	0x54	84
41	0x58	88
42	0x48	72
43	0x7f	127
44	0x42	66
45	0x00	0
46	0x58	88
47	0x05	5
48	0x5f	95
49	0x4b	75
50	0x02	2
51	0xb1	-79
52	0x0a	10
53	0x03	3
54	0xfa	-6
55	0xe2	-30
56	0x40	64
57	0x57	87
58	0xd9	-39
59	0xf6	-10
60	0x9d	-99
61	0xc4	-60
62	0x59	89
63	0xd3	-45
64	0xfc	-4
65	0x30	48
66	0x5c	92
67	0x59	89
68	0x2c	44
69	0x4b	75
70	0xf5	-11
71	0x81	-127
72	0xaa	-86
73	0x31	49
74	0x18	24
75	0x5d	93
76	0x14	20
77	0x81	-127
78	0xbd	-67
79	0x1c	28
80	0xaa	-86
81	0x53	83
82	0x16	22
83	0x99	-103
84	0xa0	-96
85	0x34	52
86	0x28	40
87	0xfe	-2
88	0x82	-126
89	0xee	-18
90	0xeb	-21
91	0x89	-119
92	0x78	120
93	0x2e	46
94	0xdc	-36
95	0x1c	28
96	0xc6	-58
97	0x81	-127
98	0xfd	-3
99	0x4d	77
100	0x7d	125
101	0x17	23
102	0x15	21
103	0x70	112
104	0x73	115
105	0x57	87
106	0xc5	-59
107	0xd0	-48

tfl.pseudo_qconst13 i1 [6, 1, 3, 6]
0	0x8c	-116
1	0x20	32
2	0xeb	-21
3	0xb9	-71
4	0xfd	-3
5	0x2f	47
6	0xa7	-89
7	0xe2	-30
8	0x81	-127
9	0xd7	-41
10	0x1d	29
11	0xe5	-27
12	0xb6	-74
13	0x36	54
14	0xb7	-73
15	0xf2	-14
16	0x00	0
17	0xf0	-16
18	0x96	-106
19	0x06	6
20	0xb2	-78
21	0x7f	127
22	0x13	19
23	0xf7	-9
24	0xee	-18
25	0x09	9
26	0x33	51
27	0x22	34
28	0x6b	107
29	0x14	20
30	0x9d	-99
31	0xc1	-63
32	0xbf	-65
33	0x5c	92
34	0xc6	-58
35	0xfa	-6
36	0xfa	-6
37	0xb6	-74
38	0xdd	-35
39	0xdb	-37
40	0x81	-127
41	0x0d	13
42	0xe0	-32
43	0xc1	-63
44	0x10	16
45	0x07	7
46	0x88	-120
47	0x11	17
48	0x24	36
49	0x26	38
50	0xba	-70
51	0xea	-22
52	0xa4	-92
53	0x23	35
54	0xc9	-55
55	0x42	66
56	0x4c	76
57	0xf4	-12
58	0xae	-82
59	0xfc	-4
60	0x05	5
61	0x07	7
62	0x34	52
63	0xb1	-79
64	0xa5	-91
65	0x4c	76
66	0x1a	26
67	0x81	-127
68	0xbb	-69
69	0xf2	-14
70	0xab	-85
71	0x23	35
72	0x46	70
73	0xf3	-13
74	0x3b	59
75	0xcf	-49
76	0xf5	-11
77	0xda	-38
78	0xfa	-6
79	0xc3	-61
80	0x71	113
81	0xf0	-16
82	0xf3	-13
83	0x81	-127
84	0x55	85
85	0xf2	-14
86	0xd5	-43
87	0x62	98
88	0x05	5
89	0xad	-83
90	0x25	37
91	0x30	48
92	0x36	54
93	0xdd	-35
94	0xc5	-59
95	0x8e	-114
96	0x83	-125
97	0xdc	-36
98	0x85	-123
99	0x18	24
100	0x81	-127
101	0x46	70
102	0x77	119
103	0x9d	-99
104	0xaa	-86
105	0xec	-20
106	0x04	4
107	0x11	17

tfl.pseudo_qconst15 i1 [6, 1, 3, 6]
0	0x65	101
1	0x27	39
2	0xeb	-21
3	0x24	36
4	0x3b	59
5	0xf5	-11
6	0x5d	93
7	0xf2	-14
8	0x51	81
9	0xde	-34
10	0x2d	45
11	0xde	-34
12	0x40	64
13	0x09	9
14	0xf5	-11
15	0x20	32
16	0x81	-127
17	0x32	50
18	0xe2	-30
19	0x0d	13
20	0x0c	12
21	0x2c	44
22	0x04	4
23	0xec	-20
24	0xa7	-89
25	0xdc	-36
26	0x06	6
27	0xcf	-49
28	0x30	48
29	0xe7	-25
30	0x81	-127
31	0x45	69
32	0xb6	-74
33	0xec	-20
34	0xbe	-66
35	0xa6	-90
36	0xf2	-14
37	0xc9	-55
38	0x63	99
39	0x8c	-116
40	0x46	70
41	0x93	-109
42	0xe4	-28
43	0x19	25
44	0x5c	92
45	0xf1	-15
46	0x45	69
47	0x44	68
48	0xab	-85
49	0x58	88
50	0xb9	-71
51	0x2e	46
52	0x17	23
53	0x81	-127
54	0x90	-112
55	0xe3	-29
56	0x7f	127
57	0x03	3
58	0x46	70
59	0xf6	-10
60	0xae	-82
61	0x9e	-98
62	0x02	2
63	0x45	69
64	0x19	25
65	0xe5	-27
66	0x46	70
67	0x67	103
68	0xa3	-93
69	0x36	54
70	0xfa	-6
71	0xc4	-60
72	0xcc	-52
73	0x29	41
74	0xc0	-64
75	0x0a	10
76	0x7f	127
77	0x37	55
78	0xa8	-88
79	0x9e	-98
80	0x90	-112
81	0x12	18
82	0xcc	-52
83	0xf2	-14
84	0x1f	31
85	0xf2	-14
86	0x5e	94
87	0x54	84
88	0x27	39
89	0x2c	44
90	0xed	-19
91	0xc4	-60
92	0xf8	-8
93	0xdd	-35
94	0xc0	-64
95	0xf6	-10
96	0x81	-127
97	0x45	69
98	0x31	49
99	0xf2	-14
100	0xfb	-5
101	0x10	16
102	0x44	68
103	0x1e	30
104	0xdd	-35
105	0x20	32
106	0x34	52
107	0x31	49

tfl.pseudo_qconst17 i1 [6, 1, 3, 6]
0	0xd3	-45
1	0xfd	-3
2	0xc0	-64
3	0x09	9
4	0xef	-17
5	0x03	3
6	0x46	70
7	0xf8	-8
8	0x47	71
9	0x05	5
10	0x07	7
11	0x0e	14
12	0x5f	95
13	0x7f	127
14	0x0f	15
15	0xff	-1
16	0x15	21
17	0x17	23
18	0x50	80
19	0xd7	-41
20	0xfc	-4
21	0x7e	126
22	0xe6	-26
23	0x7f	127
24	0x05	5
25	0xb1	-79
26	0x35	53
27	0xbb	-69
28	0x27	39
29	0x46	70
30	0xe1	-31
31	0xab	-85
32	0xfc	-4
33	0xaf	-81
34	0xca	-54
35	0xe4	-28
36	0xcd	-51
37	0x6f	111
38	0x84	-124
39	0x82	-126
40	0x0f	15
41	0x31	49
42	0x81	-127
43	0xf3	-13
44	0xe8	-24
45	0xf7	-9
46	0x20	32
47	0x43	67
48	0xfb	-5
49	0x11	17
50	0xed	-19
51	0x82	-126
52	0xfe	-2
53	0x0e	14
54	0x19	25
55	0x3a	58
56	0x66	102
57	0x5b	91
58	0xcd	-51
59	0xb0	-80
60	0xc0	-64
61	0xe9	-23
62	0x7f	127
63	0xb8	-72
64	0xd3	-45
65	0x81	-127
66	0x36	54
67	0x0b	11
68	0xc7	-57
69	0x1e	30
70	0x3a	58
71	0x0e	14
72	0x1b	27
73	0x7c	124
74	0x5c	92
75	0x31	49
76	0xb4	-76
77	0x78	120
78	0xd3	-45
79	0x7f	127
80	0x26	38
81	0xa0	-96
82	0xff	-1
83	0x05	5
84	0xcc	-52
85	0x51	81
86	0xdd	-35
87	0xac	-84
88	0xb9	-71
89	0xf4	-12
90	0xe6	-26
91	0xf8	-8
92	0xda	-38
93	0x48	72
94	0x10	16
95	0x44	68
96	0x36	54
97	0x69	105
98	0x6e	110
99	0x24	36
100	0x81	-127
101	0x28	40
102	0x8f	-113
103	0x2b	43
104	0xb1	-79
105	0x89	-119
106	0x77	119
107	0x70	112

tfl.pseudo_qconst19 i1 [6, 1, 3, 6]
0	0x37	55
1	0x4f	79
2	0xbb	-69
3	0xeb	-21
4	0xe9	-23
5	0x48	72
6	0x43	67
7	0x34	52
8	0x81	-127
9	0xfd	-3
10	0x5a	90
11	0x15	21
12	0x24	36
13	0xf2	-14
14	0xb6	-74
15	0xf8	-8
16	0x51	81
17	0x07	7
18	0xed	-19
19	0x1d	29
20	0x1f	31
21	0xb6	-74
22	0x38	56
23	0x88	-120
24	0x81	-127
25	0xee	-18
26	0x2c	44
27	0xea	-22
28	0x67	103
29	0x10	16
30	0xe1	-31
31	0xee	-18
32	0x16	22
33	0xbf	-65
34	0xfa	-6
35	0xf6	-10
36	0xbf	-65
37	0x27	39
38	0xc8	-56
39	0x0d	13
40	0xe7	-25
41	0x02	2
42	0x05	5
43	0xf4	-12
44	0x13	19
45	0x23	35
46	0x81	-127
47	0xba	-70
48	0xfb	-5
49	0x1f	31
50	0x82	-126
51	0x0e	14
52	0xec	-20
53	0xa1	-95
54	0xde	-34
55	0xf5	-11
56	0x7f	127
57	0xe4	-28
58	0xa0	-96
59	0x5a	90
60	0xe3	-29
61	0xc5	-59
62	0x0a	10
63	0x39	57
64	0x3d	61
65	0x5a	90
66	0xcd	-51
67	0xef	-17
68	0x3c	60
69	0xda	-38
70	0x53	83
71	0xa6	-90
72	0xca	-54
73	0x21	33
74	0xfc	-4
75	0xfb	-5
76	0xc0	-64
77	0xf0	-16
78	0xed	-19
79	0x47	71
80	0x91	-111
81	0xd5	-43
82	0xd5	-43
83	0x1d	29
84	0xf3	-13
85	0xe9	-23
86	0xbc	-68
87	0xfc	-4
88	0x23	35
89	0x81	-127
90	0x30	48
91	0x2d	45
92	0xde	-34
93	0x1c	28
94	0x63	99
95	0x3a	58
96	0x48	72
97	0x39	57
98	0xc6	-58
99	0x06	6
100	0xf8	-8
101	0xd2	-46
102	0xfd	-3
103	0x14	20
104	0xbc	-68
105	0x41	65
106	0x7f	127
107	0x55	85

tfl.pseudo_qconst21 i1 [6, 1, 3, 6]
0	0x74	116
1	0x0a	10
2	0x37	55
3	0x2f	47
4	0x00	0
5	0x08	8
6	0x4e	78
7	0x2e	46
8	0x43	67
9	0x66	102
10	0xc6	-58
11	0x02	2
12	0x52	82
13	0x25	37
14	0x7f	127
15	0x15	21
16	0xba	-70
17	0xc7	-57
18	0xde	-34
19	0xcd	-51
20	0x3f	63
21	0xfc	-4
22	0x2e	46
23	0x84	-124
24	0x3d	61
25	0x05	5
26	0x00	0
27	0x17	23
28	0x0f	15
29	0xa5	-91
30	0xb6	-74
31	0xaf	-81
32	0x4c	76
33	0x81	-127
34	0x7d	125
35	0xb2	-78
36	0xff	-1
37	0xeb	-21
38	0x9c	-100
39	0x81	-127
40	0xcd	-51
41	0x5a	90
42	0x4f	79
43	0x83	-125
44	0x72	114
45	0xd9	-39
46	0x2b	43
47	0x4b	75
48	0xb5	-75
49	0xaf	-81
50	0x0c	12
51	0xe5	-27
52	0x47	71
53	0xff	-1
54	0xcf	-49
55	0x44	68
56	0x5c	92
57	0xd1	-47
58	0x7f	127
59	0xe6	-26
60	0xeb	-21
61	0x4c	76
62	0x50	80
63	0x74	116
64	0x1c	28
65	0xf2	-14
66	0xc9	-55
67	0x01	1
68	0xea	-22
69	0xc9	-55
70	0xaf	-81
71	0x17	23
72	0x3a	58
73	0x0f	15
74	0xa6	-90
75	0xab	-85
76	0x13	19
77	0x99	-103
78	0x81	-127
79	0xa0	-96
80	0x08	8
81	0x1e	30
82	0x1c	28
83	0x08	8
84	0xef	-17
85	0xda	-38
86	0xd4	-44
87	0x14	20
88	0x40	64
89	0x02	2
90	0x35	53
91	0x0f	15
92	0xe8	-24
93	0x63	99
94	0x7f	127
95	0x98	-104
96	0xc6	-58
97	0x73	115
98	0x4f	79
99	0x2f	47
100	0xfc	-4
101	0xc7	-57
102	0xd2	-46
103	0xe1	-31
104	0x32	50
105	0x4a	74
106	0x13	19
107	0x10	16

tfl.pseudo_qconst33 i1 [6, 1, 3, 6]
0	0x8b	-117
1	0x22	34
2	0xe5	-27
3	0x68	104
4	0x2b	43
5	0xd5	-43
6	0xc7	-57
7	0xc7	-57
8	0x0e	14
9	0xfd	-3
10	0x27	39
11	0x5b	91
12	0xa5	-91
13	0x87	-121
14	0x97	-105
15	0x3b	59
16	0x7a	122
17	0x7f	127
18	0xbb	-69
19	0x02	2
20	0x7f	127
21	0x39	57
22	0x91	-111
23	0xb0	-80
24	0xbf	-65
25	0x11	17
26	0x2b	43
27	0x6b	107
28	0xc6	-58
29	0xdf	-33
30	0xad	-83
31	0x88	-120
32	0xf2	-14
33	0x9c	-100
34	0x75	117
35	0xbc	-68
36	0xd0	-48
37	0x42	66
38	0xde	-34
39	0x1b	27
40	0x9d	-99
41	0xc1	-63
42	0xc5	-59
43	0x22	34
44	0x1a	26
45	0xdd	-35
46	0xb7	-73
47	0x92	-110
48	0x7f	127
49	0x8b	-117
50	0x19	25
51	0xf7	-9
52	0xeb	-21
53	0xfa	-6
54	0xd6	-42
55	0x7f	127
56	0xd3	-45
57	0x46	70
58	0xde	-34
59	0xe6	-26
60	0x8d	-115
61	0x19	25
62	0xc4	-60
63	0x27	39
64	0x8a	-118
65	0x01	1
66	0xef	-17
67	0x24	36
68	0x54	84
69	0xa9	-87
70	0xed	-19
71	0x12	18
72	0x0f	15
73	0x60	96
74	0x21	33
75	0xd8	-40
76	0xfd	-3
77	0x3f	63
78	0xbb	-69
79	0x42	66
80	0x16	22
81	0xff	-1
82	0x81	-127
83	0xce	-50
84	0xed	-19
85	0x0d	13
86	0xc8	-56
87	0x70	112
88	0x6c	108
89	0xfa	-6
90	0xff	-1
91	0x2b	43
92	0x0d	13
93	0xcf	-49
94	0xe4	-28
95	0x0f	15
96	0xc2	-62
97	0x14	20
98	0x7e	126
99	0x7f	127
100	0x3d	61
101	0x0e	14
102	0x1a	26
103	0x16	22
104	0xfc	-4
105	0xfa	-6
106	0xe6	-26
107	0x4f	79

tfl.pseudo_qconst35 i1 [6, 1, 3, 6]
0	0x5b	91
1	0xef	-17
2	0x38	56
3	0x00	0
4	0x81	-127
5	0x1f	31
6	0x1e	30
7	0xd9	-39
8	0x04	4
9	0x05	5
10	0x64	100
11	0x4d	77
12	0x1c	28
13	0x25	37
14	0x11	17
15	0xfc	-4
16	0xf9	-7
17	0x13	19
18	0xf6	-10
19	0x27	39
20	0xc9	-55
21	0x5b	91
22	0x1b	27
23	0xfe	-2
24	0x81	-127
25	0xd3	-45
26	0x34	52
27	0x8c	-116
28	0x90	-112
29	0x2b	43
30	0x02	2
31	0x3d	61
32	0xf9	-7
33	0x6b	107
34	0x1a	26
35	0xdf	-33
36	0xe6	-26
37	0x7b	123
38	0xab	-85
39	0x81	-127
40	0xdd	-35
41	0xc3	-61
42	0x0c	12
43	0x3e	62
44	0x5b	91
45	0x52	82
46	0xfb	-5
47	0xfd	-3
48	0x1c	28
49	0x85	-123
50	0xda	-38
51	0xcc	-52
52	0xb7	-73
53	0x03	3
54	0x27	39
55	0xab	-85
56	0x7f	127
57	0x67	103
58	0xf9	-7
59	0xee	-18
60	0x9c	-100
61	0xea	-22
62	0x12	18
63	0xe7	-25
64	0x0b	11
65	0xee	-18
66	0x9d	-99
67	0x86	-122
68	0xff	-1
69	0x16	22
70	0xf8	-8
71	0x7a	122
72	0xbd	-67
73	0xba	-70
74	0x7f	127
75	0x15	21
76	0xfe	-2
77	0xe5	-27
78	0x0f	15
79	0x29	41
80	0x2b	43
81	0x26	38
82	0xd0	-48
83	0xdd	-35
84	0x0f	15
85	0x8e	-114
86	0x2e	46
87	0x06	6
88	0xf7	-9
89	0xe3	-29
90	0xd3	-45
91	0x2d	45
92	0xed	-19
93	0x1f	31
94	0x3d	61
95	0x33	51
96	0xb8	-72
97	0xfb	-5
98	0x17	23
99	0x9c	-100
100	0x81	-127
101	0xe4	-28
102	0x0a	10
103	0xb9	-71
104	0x14	20
105	0x61	97
106	0x2e	46
107	0x2d	45

tfl.pseudo_qconst37 i1 [6, 1, 3, 6]
0	0xcd	-51
1	0x81	-127
2	0x03	3
3	0x43	67
4	0x13	19
5	0xd1	-47
6	0xa4	-92
7	0xff	-1
8	0xf1	-15
9	0x9a	-102
10	0xe0	-32
11	0xed	-19
12	0x36	54
13	0xb2	-78
14	0x08	8
15	0x14	20
16	0xfb	-5
17	0x95	-107
18	0x2f	47
19	0x34	52
20	0xea	-22
21	0x74	116
22	0x43	67
23	0x06	6
24	0xbc	-68
25	0x0e	14
26	0x7f	127
27	0xed	-19
28	0xcd	-51
29	0x03	3
30	0x18	24
31	0xf7	-9
32	0x24	36
33	0x39	57
34	0xeb	-21
35	0xd4	-44
36	0xde	-34
37	0xdc	-36
38	0x5c	92
39	0x0f	15
40	0x17	23
41	0xd8	-40
42	0xa9	-87
43	0x09	9
44	0x2f	47
45	0x30	48
46	0xc2	-62
47	0x14	20
48	0xef	-17
49	0xe5	-27
50	0xfa	-6
51	0x0d	13
52	0x7f	127
53	0x50	80
54	0x81	-127
55	0xdf	-33
56	0x08	8
57	0x6f	111
58	0xfa	-6
59	0x60	96
60	0x2b	43
61	0xd9	-39
62	0x21	33
63	0x2f	47
64	0xb7	-73
65	0x4a	74
66	0xfb	-5
67	0xfd	-3
68	0x13	19
69	0xa9	-87
70	0xff	-1
71	0x31	49
72	0x3c	60
73	0x5d	93
74	0x58	88
75	0x7f	127
76	0x07	7
77	0x18	24
78	0xd7	-41
79	0x27	39
80	0x5a	90
81	0x4d	77
82	0x2f	47
83	0x13	19
84	0x14	20
85	0x2d	45
86	0x06	6
87	0x11	17
88	0x93	-109
89	0xdc	-36
90	0xd5	-43
91	0xed	-19
92	0x43	67
93	0x1c	28
94	0xfd	-3
95	0xae	-82
96	0xec	-20
97	0x09	9
98	0x7f	127
99	0x3d	61
100	0x0a	10
101	0x27	39
102	0xea	-22
103	0x0a	10
104	0xc7	-57
105	0x84	-124
106	0xf2	-14
107	0xc0	-64
