model_quantized.tflite (tflite, 196208 bytes, 25 tensors)

tfl.pseudo_qconst1 i1 [6, 64]
99 -86 -90 37 78 64 21 -39
24 105 121 -117 -24 36 -89 -16
112 -55 -108 -84 7 -47 -68 17
-55 -76 -37 48 55 -43 89 -117
12 7 -127 -117 95 11 114 15
80 -90 78 97 -51 -54 45 28
52 -35 -66 106 57 -14 -54 19
-98 -102 115 -7 -7 78 90 43
45 -112 34 -96 1 -43 72 47
-97 32 83 87 -89 63 9 34
-68 114 -35 8 -115 -45 -97 -12
27 117 -66 -44 34 34 -115 -93
-56 -90 36 -78 -44 -28 36 -82
-110 57 72 -85 -45 16 26 49
108 72 82 118 -66 47 -69 110
-105 -20 9 -107 90 127 24 -74
-36 -69 112 35 -112 45 -49 41
-85 -58 45 93 -37 9 -1 48
-108 -70 -51 -39 61 -39 -101 -74
19 42 -14 48 62 53 107 -82
110 79 -90 80 -2 -4 56 -95
61 -69 -53 -32 78 63 79 -127
-49 -44 -40 41 27 -56 9 74
-45 -48 -15 7 -98 -75 -108 -3
-14 102 79 116 -17 21 10 -102
-39 -69 25 84 -45 -76 35 -105
70 49 -48 92 93 -31 -98 1
62 -117 -69 -55 -41 -84 1 41
-50 13 -118 -81 -106 -71 -111 53
-88 93 127 17 -3 -86 110 56
126 17 -36 93 2 -32 -2 -40
-97 32 -37 60 65 -31 85 0
00000000: 63aa a625 4e40 15d9 1869 798b e824 a7f0
00000010: 70c9 94ac 07d1 bc11 c9b4 db30 37d5 598b
00000020: 0c07 818b 5f0b 720f 50a6 4e61 cdca 2d1c
00000030: 34dd be6a 39f2 ca13 9e9a 73f9 f94e 5a2b
00000040: 2d90 22a0 01d5 482f 9f20 5357 a73f 0922
00000050: bc72 dd08 8dd3 9ff4 1b75 bed4 2222 8da3
00000060: c8a6 24b2 d4e4 24ae 9239 48ab d310 1a31
00000070: 6c48 5276 be2f bb6e 97ec 0995 5a7f 18b6
00000080: dcbb 7023 902d cf29 abc6 2d5d db09 ff30
00000090: 94ba cdd9 3dd9 9bb6 132a f230 3e35 6bae
000000a0: 6e4f a650 fefc 38a1 3dbb cbe0 4e3f 4f81
000000b0: cfd4 d829 1bc8 094a d3d0 f107 9eb5 94fd
000000c0: f266 4f74 ef15 0a9a d9bb 1954 d3b4 2397
000000d0: 4631 d05c 5de1 9e01 3e8b bbc9 d7ac 0129
000000e0: ce0d 8aaf 96b9 9135 a85d 7f11 fdaa 6e38
000000f0: 7e11 dc5d 02e0 fed8 9f20 db3c 41e1 5500

tfl.pseudo_qconst3 i1 [64, 64]
-2 2 -83 112 -36 -127 64 86
24 51 -45 -114 -75 45 61 67
-75 2 -83 -60 32 -60 -48 -86
58 80 86 38 -8 -56 -5 -10
-111 -63 -113 -110 30 62 -76 -9
74 72 68 -87 52 98 -45 -73
67 -95 44 -75 68 100 -36 -50
-44 -47 -35 -49 -54 104 -82 -101
-93 104 90 -107 25 -34 -39 100
-51 73 21 -116 68 -12 109 -20
83 15 -8 101 -29 81 109 -127
38 45 -8 69 23 -98 32 99
95 -56 45 -82 115 -54 72 -115
-50 -33 106 63 -31 -112 -44 38
-25 -47 -28 71 -59 55 10 -87
-18 32 -117 123 -11 -52 -24 -38
5 107 115 97 -59 127 60 65
-7 -5 97 -37 36 -34 29 5
-26 52 -8 55 75 89 31 -65
106 47 7 9 -54 -32 22 -32
31 -67 82 -69 5 85 -106 -33
25 107 -90 -56 -88 0 1 73
-62 33 44 103 57 -19 -53 -8
70 -23 56 -49 -34 107 -50 -74
98 -91 40 -72 -3 -89 61 5
122 -43 113 -4 42 -99 35 42
-36 -4 -43 47 -4 -84 -20 115
-118 -42 52 113 -110 32 115 -77
118 -104 -4 -22 -23 87 -107 -121
-66 43 55 76 124 91 -58 -116
48 43 67 -81 27 -21 -92 124
-127 42 101 -25 -96 6 120 -100
00000000: fe02 ad70 dc81 4056 1833 d38e b52d 3d43
00000010: b502 adc4 20c4 d0aa 3a50 5626 f8c8 fbf6
00000020: 91c1 8f92 1e3e b4f7 4a48 44a9 3462 d3b7
00000030: 43a1 2cb5 4464 dcce d4d1 ddcf ca68 ae9b
00000040: a368 5a95 19de d964 cd49 158c 44f4 6dec
00000050: 530f f865 e351 6d81 262d f845 179e 2063
00000060: 5fc8 2dae 73ca 488d cedf 6a3f e190 d426
00000070: e7d1 e447 c537 0aa9 ee20 8b7b f5cc e8da
00000080: 056b 7361 c57f 3c41 f9fb 61db 24de 1d05
00000090: e634 f837 4b59 1fbf 6a2f 0709 cae0 16e0
000000a0: 1fbd 52bb 0555 96df 196b a6c8 a800 0149
000000b0: c221 2c67 39ed cbf8 46e9 38cf de6b ceb6
000000c0: 62a5 28b8 fda7 3d05 7ad5 71fc 2a9d 232a
000000d0: dcfc d52f fcac ec73 8ad6 3471 9220 73b3
000000e0: 7698 fcea e957 9587 be2b 374c 7c5b c68c
000000f0: 302b 43af 1beb a47c 812a 65e7 a006 789c

tfl.pseudo_qconst4 i1 [64] scale=0.00046266476 zero_point=24
-0.028685216 0.0069399714 -0.007402636 0.0050893123 -0.0023133238 0.024058567 0.025909226 -0.023595903
-0.007402636 -0.04395315 -0.012491949 0.017118596 -0.0152679365 0.04580381 -0.017118596 -0.0050893123
-0.016193267 -0.017118596 -0.035625186 0.0027759885 -0.0078653 0.0013879943 -0.0407145 0.023595903
-0.022670573 0.00046266476 0.04765447 0.00046266476 0.014805272 -0.054594442 0.024983898 -0.022207908
0.017581262 -0.0157306 -0.0046266476 0.00046266476 -0.07032505 0.0064773066 -0.0157306 -0.011103954
-0.006014642 -0.039326504 0.0050893123 -0.011566618 -0.005551977 -0.023133237 -0.025909226 0.017118596
-0.0152679365 -0.027759885 -0.016655931 0.0023133238 -0.0032386533 -0.024983898 -0.012029284 -0.022670573
-0.0032386533 -0.05228112 0.04256516 0.0064773066 -0.010178625 -0.0046266476 -0.011566618 -0.0069399714
00000000: da27 0823 134c 50e5 08b9 fd3d f77b f30d
00000010: f5f3 cb1e 071b c04b e719 7f19 38a2 4ee8
00000020: 3ef6 0e19 8026 f600 0bc3 23ff 0ce6 e03d
00000030: f7dc f41d 11e2 fee7 11a7 7426 020e ff09

tfl.pseudo_qconst5 i1 [64, 1, 3, 64]
33 -43 65 47 9 65 -4 9
19 -40 90 13 68 -15 9 -16
-68 18 46 -26 51 55 78 -14
32 28 27 14 -71 28 -26 22
-27 -82 -27 0 56 -32 37 -100
0 -2 34 -68 -6 76 -75 -46
-1 -63 88 34 7 -47 24 39
-7 -19 66 12 51 -14 -32 10
-50 -44 -55 69 -19 -80 30 0
-21 34 22 -3 59 -45 -60 -58
-27 10 41 22 41 -64 66 47
36 -33 -29 22 46 2 -64 2
-59 12 19 -127 -82 -4 11 -45
68 83 -1 -19 -91 70 23 -102
-14 -31 -11 3 4 -74 -53 8
53 -23 -69 65 51 90 20 42
20 -18 -17 24 117 -66 1 -26
-67 31 -26 2 85 40 80 -90
-56 -31 -26 -26 58 -26 57 87
-69 1 -97 -21 -66 97 28 67
52 -74 109 84 31 10 -28 19
-40 38 31 33 77 22 51 -21
74 -35 -5 -24 40 -13 -13 24
-71 -32 -57 -50 16 84 -52 16
-10 35 43 -30 26 -55 -45 3
-94 55 -39 20 104 56 13 60
63 -18 -12 25 71 -12 -39 -20
-77 -35 -11 48 -35 -24 -32 68
-106 -7 104 86 90 2 107 -90
27 80 0 28 73 -35 22 -33
7 27 -13 36 -73 108 -11 -25
-21 23 27 73 91 -48 3 24
00000000: 21d5 412f 0941 fc09 13d8 5a0d 44f1 09f0
00000010: bc12 2ee6 3337 4ef2 201c 1b0e b91c e616
00000020: e5ae e500 38e0 259c 00fe 22bc fa4c b5d2
00000030: ffc1 5822 07d1 1827 f9ed 420c 33f2 e00a
00000040: ced4 c945 edb0 1e00 eb22 16fd 3bd3 c4c6
00000050: e50a 2916 29c0 422f 24df e316 2e02 c002
00000060: c50c 1381 aefc 0bd3 4453 ffed a546 179a
00000070: f2e1 f503 04b6 cb08 35e9 bb41 335a 142a
00000080: 14ee ef18 75be 01e6 bd1f e602 5528 50a6
00000090: c8e1 e6e6 3ae6 3957 bb01 9feb be61 1c43
000000a0: 34b6 6d54 1f0a e413 d826 1f21 4d16 33eb
000000b0: 4add fbe8 28f3 f318 b9e0 c7ce 1054 cc10
000000c0: f623 2be2 1ac9 d303 a237 d914 6838 0d3c
000000d0: 3fee f419 47f4 d9ec b3dd f530 dde8 e044
000000e0: 96f9 6856 5a02 6ba6 1b50 001c 49dd 16df
000000f0: 071b f324 b76c f5e7 eb17 1b49 5bd0 0318

tfl.pseudo_qconst6 i1 [64] scale=0.00043216522 zero_point=2
0.005618148 -0.023336923 0.041055698 0.0077789742 0.038462706 -0.0069146436 -0.012964956 0.0034573218
-0.023769088 -0.018150939 -0.024201252 0.006050313 -0.00086433045 0.0 -0.008643305 0.054020654
-0.0047538173 0.03889487 -0.034141053 0.007346809 -0.013829287 0.0099398 0.0038894871 0.051859826
0.005618148 -0.03154806 0.010804131 0.0034573218 -0.012964956 -0.021608261 0.036734045 0.017718773
-0.012100626 -0.052291993 -0.008643305 0.026362078 -0.042352192 -0.008643305 -0.0043216525 0.02895507
-0.0069146436 -0.01728661 -0.0030251564 -0.0043216525 -0.05618148 0.01901527 -0.0025929913 -0.029819401
-0.0034573218 0.035005383 0.0038894871 -0.012100626 -0.018150939 0.006050313 -0.010371965 -0.0021608262
-0.030683732 -0.024201252 -0.005618148 -0.021176096 -0.019447435 -0.006050313 -0.010804131 0.019447435
00000000: 0fcc 6114 5bf2 e40a cbd8 ca10 0002 ee7f
00000010: f75c b313 e219 0b7a 0fb9 1b0a e4d0 572b
00000020: e689 ee3f a0ee f845 f2da fbf8 802e fcbd
00000030: fa53 0be6 d810 eafd bbca f5d1 d5f4 e92f

tfl.pseudo_qconst7 i1 [64, 1, 3, 64]
-119 13 43 -56 -4 -64 -35 -66
-9 73 -4 44 -119 10 -6 58
69 -11 -23 -79 3 64 -57 97
0 26 -28 43 3 -55 85 25
-37 9 -31 -78 -43 122 68 19
6 85 0 -10 -1 -73 -24 -68
-80 -110 1 27 50 15 -108 101
8 -19 -11 107 -85 19 -27 89
65 -50 -6 93 -18 73 43 42
-20 42 5 -43 -34 107 23 -38
-82 -71 -58 33 1 59 14 -9
99 71 81 28 -28 -36 12 70
-89 -12 30 34 -26 -36 23 75
2 -2 14 10 -48 -95 29 -90
-62 39 -95 -14 -44 -40 -80 39
-13 -21 -56 20 14 -121 -44 -6
-25 -127 3 -51 1 -5 87 -31
-87 -67 -60 -76 -10 18 -28 -80
-19 98 33 -85 37 20 113 80
2 8 117 -20 78 98 -19 -43
-74 7 -117 72 87 -73 10 -19
-32 20 -23 31 -26 27 -5 18
-47 21 85 84 -54 34 27 -59
-121 -84 -37 -25 -64 -16 -65 34
115 -71 41 77 -54 25 127 38
50 -20 61 -72 -11 31 -20 16
56 -24 -54 -39 17 -36 -2 93
-61 -35 -48 63 30 -10 -31 23
-20 -41 -14 -44 41 -79 -17 -86
-9 29 7 -28 92 64 25 27
0 -96 83 -65 -40 -25 29 9
-122 -44 64 51 83 61 106 53
00000000: 890d 2bc8 fcc0 ddbe f749 fc2c 890a fa3a
00000010: 45f5 e9b1 0340 c761 001a e42b 03c9 5519
00000020: db09 e1b2 d57a 4413 0655 00f6 ffb7 e8bc
00000030: b092 011b 320f 9465 08ed f56b ab13 e559
00000040: 41ce fa5d ee49 2b2a ec2a 05d5 de6b 17da
00000050: aeb9 c621 013b 0ef7 6347 511c e4dc 0c46
00000060: a7f4 1e22 e6dc 174b 02fe 0e0a d0a1 1da6
00000070: c227 a1f2 d4d8 b027 f3eb c814 0e87 d4fa
00000080: e781 03cd 01fb 57e1 a9bd c4b4 f612 e4b0
00000090: ed62 21ab 2514 7150 0208 75ec 4e62 edd5
000000a0: b607 8b48 57b7 0aed e014 e91f e61b fb12
000000b0: d115 5554 ca22 1bc5 87ac dbe7 c0f0 bf22
000000c0: 73b9 294d ca19 7f26 32ec 3db8 f51f ec10
000000d0: 38e8 cad9 11dc fe5d c3dd d03f 1ef6 e117
000000e0: ecd7 f2d4 29b1 efaa f71d 07e4 5c40 191b
000000f0: 00a0 53bf d8e7 1d09 86d4 4033 533d 6a35

tfl.pseudo_qconst8 i1 [64] scale=0.0004457923 zero_point=15
-0.02719333 -0.0035663384 -0.045916606 -0.03521759 0.04279606 0.04992874 0.0289765 -0.016940108
-0.020060653 -0.022735408 0.0231812 -0.0004457923 -0.0075784693 0.016940108 -0.010253223 -0.022289615
-0.020060653 -0.03521759 -0.0053495076 -0.016494315 -0.033434425 0.024518577 -0.022289615 0.004457923
-0.004457923 0.0231812 -0.0031205462 -0.016940108 0.009807431 -0.0637483 0.03254284 -0.0026747538
0.012482185 -0.008024261 -0.0004457923 0.016048523 -0.062410925 -0.0231812 -0.020952238 -0.039675515
-0.025855953 -0.03075967 -0.0066868844 -0.0115906 -0.0053495076 -0.037892345 -0.05973617 0.012482185
-0.028530708 0.015602731 -0.0026747538 0.016494315 -0.030313877 -0.025855953 -0.039229725 -0.03075967
-0.0057953 -0.055278245 0.03075967 0.024518577 -0.004457923 0.0040121307 -0.0075784693 -0.013373769
00000000: d207 a8c0 6f7f 50e9 e2dc 430e fe35 f8dd
00000010: e2c0 03ea c446 dd19 0543 08e9 2580 5809
00000020: 2bfd 0e33 83db e0b6 d5ca 00f5 03ba 892b
00000030: cf32 0934 cbd5 b7ca 0293 5446 0518 fef1

tfl.pseudo_qconst9 i1 [64, 1, 3, 64]
-85 6 -79 -34 -50 -80 40 25
-5 -75 -37 -21 39 -39 -52 -11
10 -65 -36 -50 7 60 -32 -50
-79 -63 -36 -50 -41 -111 -38 6
55 -79 -52 35 -45 -127 46 -73
52 37 59 7 -65 -3 5 -49
-75 -34 -113 -8 -67 10 9 42
-93 72 -40 39 32 18 4 -2
-52 61 46 -2 -24 25 -29 -87
30 81 20 -22 -62 -102 -65 66
39 51 6 60 -78 41 61 50
14 -7 3 14 39 -91 -11 9
-18 -84 47 65 -27 -22 32 66
48 -44 -90 34 -67 35 -26 46
2 -41 -49 -69 -32 10 83 -5
9 22 -44 79 -18 18 78 27
26 -59 -76 -31 -40 28 -40 -69
33 -33 -50 -73 -3 23 69 5
-73 43 -87 -29 26 18 -122 23
-63 -60 43 -12 1 -6 102 10
8 -31 -40 41 39 -21 -17 5
-19 30 -10 30 -56 -49 -36 91
66 -43 -15 -15 44 -5 76 -65
86 -70 -54 13 -61 30 -15 -49
-72 60 46 -67 -8 104 0 10
-31 -52 4 -70 -24 -2 -101 -89
54 94 20 -4 -68 54 -92 12
15 -57 57 61 10 -29 50 -44
15 -13 -47 -82 -49 -79 121 70
57 27 -33 -27 -15 58 2 34
-7 19 -27 -57 19 -20 -66 2
-42 108 -62 -43 25 -81 -94 -28
00000000: ab06 b1de ceb0 2819 fbb5 dbeb 27d9 ccf5
00000010: 0abf dcce 073c e0ce b1c1 dcce d791 da06
00000020: 37b1 cc23 d381 2eb7 3425 3b07 bffd 05cf
00000030: b5de 8ff8 bd0a 092a a348 d827 2012 04fe
00000040: cc3d 2efe e819 e3a9 1e51 14ea c29a bf42
00000050: 2733 063c b229 3d32 0ef9 030e 27a5 f509
00000060: eeac 2f41 e5ea 2042 30d4 a622 bd23 e62e
00000070: 02d7 cfbb e00a 53fb 0916 d44f ee12 4e1b
00000080: 1ac5 b4e1 d81c d8bb 21df ceb7 fd17 4505
00000090: b72b a9e3 1a12 8617 c1c4 2bf4 01fa 660a
000000a0: 08e1 d829 27eb ef05 ed1e f61e c8cf dc5b
000000b0: 42d5 f1f1 2cfb 4cbf 56ba ca0d c31e f1cf
000000c0: b83c 2ebd f868 000a e1cc 04ba e8fe 9ba7
000000d0: 365e 14fc bc36 a40c 0fc7 393d 0ae3 32d4
000000e0: 0ff3 d1ae cfb1 7946 391b dfe5 f13a 0222
000000f0: f913 e5c7 13ec be02 d66c c2d5 19af a2e4

tfl.pseudo_qconst10 i1 [64] scale=0.00040206307 zero_point=-5
-0.0024123783 -0.017690776 -0.017288713 -0.0024123783 0.004020631 0.021309342 -0.0024123783 -0.012061892
-0.008845388 0.011659829 -0.017288713 0.020103153 -0.014474271 -0.006030946 0.008443325 -0.014072208
-0.014072208 0.043020748 -0.041412495 -0.02090728 0.0 0.028144415 0.030154731 0.011257766
-0.010051576 -0.018092839 -0.008443325 0.012061892 -0.025732037 -0.014474271 -0.014876334 -0.0036185677
-0.018896965 -0.030154731 -0.004422694 -0.020103153 -0.020103153 -0.037391867 -0.020103153 -0.022113468
0.012061892 -0.010051576 -0.016082523 -0.00040206307 -0.01568046 -0.010051576 0.004020631 0.026938226
-0.049453758 -0.008845388 -0.008443325 0.011659829 0.053072326 -0.014876334 -0.005628883 -0.021711405
-0.011257766 -0.036989804 0.020103153 -0.016082523 0.0032165046 0.004020631 0.038598053 0.053072326
00000000: f5cf d0f5 0530 f5dd e518 d02d d7ec 10d8
00000010: d866 94c7 fb41 4617 e2ce e619 bbd7 d6f2
00000020: ccb0 f0c9 c99e c9c4 19e2 d3fa d4e2 053e
00000030: 80e5 e618 7fd6 edc5 df9f 2dd3 0305 5b7f

tfl.pseudo_qconst11 i1 [64, 1, 3, 64]
-49 -36 -79 -12 -127 48 24 44
-64 1 -28 -20 -72 -69 9 -82
-124 -49 52 -61 -104 28 -17 12
-61 -68 -13 -21 -86 10 -56 10
-7 -89 -7 65 50 -86 14 -98
5 -84 24 -12 62 -83 54 -107
-80 -4 -32 -31 80 29 7 8
-59 14 24 -73 42 23 -13 4
34 12 -2 40 27 -16 13 -50
84 23 -24 21 -47 -106 -43 20
6 -13 63 -66 -56 43 -8 56
-77 51 34 -117 -44 -8 65 1
-44 72 66 14 -52 -107 -1 29
84 -18 -5 -3 44 -33 -21 -68
-74 -37 40 61 -1 -14 -43 90
19 27 -107 10 34 -30 25 3
51 31 -54 120 24 -32 -24 33
-53 -112 -32 -98 58 -60 -7 -56
46 72 -16 -59 -10 35 -67 -38
51 -68 -111 8 -66 -36 -15 59
-84 21 84 113 50 98 -37 -76
23 -35 -122 -56 -34 62 80 -119
0 17 53 -44 39 20 -24 -51
1 -103 -49 47 -64 -45 -88 50
-28 -106 -26 -71 26 47 2 11
-123 0 -39 27 -90 16 59 50
-47 1 -1 -45 -85 -20 46 -98
-82 -17 -2 -40 -8 -37 22 -71
-44 79 48 8 66 -9 -48 115
35 -108 85 14 -38 -13 12 119
6 113 98 17 -47 3 -11 47
-37 21 45 -73 -81 4 24 -10
00000000: cfdc b1f4 8130 182c c001 e4ec b8bb 09ae
00000010: 84cf 34c3 981c ef0c c3bc f3eb aa0a c80a
00000020: f9a7 f941 32aa 0e9e 05ac 18f4 3ead 3695
00000030: b0fc e0e1 501d 0708 c50e 18b7 2a17 f304
00000040: 220c fe28 1bf0 0dce 5417 e815 d196 d514
00000050: 06f3 3fbe c82b f838 b333 228b d4f8 4101
00000060: d448 420e cc95 ff1d 54ee fbfd 2cdf ebbc
00000070: b6db 283d fff2 d55a 131b 950a 22e2 1903
00000080: 331f ca78 18e0 e821 cb90 e09e 3ac4 f9c8
00000090: 2e48 f0c5 f623 bdda 33bc 9108 bedc f13b
000000a0: ac15 5471 3262 dbb4 17dd 86c8 de3e 5089
000000b0: 0011 35d4 2714 e8cd 0199 cf2f c0d3 a832
000000c0: e496 e6b9 1a2f 020b 8500 d91b a610 3b32
000000d0: d101 ffd3 abec 2e9e aeef fed8 f8db 16b9
000000e0: d44f 3008 42f7 d073 2394 550e daf3 0c77
000000f0: 0671 6211 d103 f52f db15 2db7 af04 18f6

tfl.pseudo_qconst12 i1 [64] scale=0.00039298472 zero_point=-19
-0.007859694 -0.0035368623 -0.023972068 -0.021614159 0.0011789541 0.0 -0.005894771 -0.023579083
0.05737577 -0.012575511 -0.0011789541 -0.005108801 -0.0055017862 0.036940563 -0.014933419 0.019256251
-0.00668074 -0.026329976 -0.02004222 -0.03576161 -0.023186099 -0.023972068 -0.037333548 0.01336148
-0.011789542 0.012575511 0.022793114 -0.031831764 -0.014933419 -0.015719388 -0.010610587 -0.014147449
0.0035368623 -0.023579083 -0.007859694 -0.00039298472 -0.017291328 -0.028687885 -0.016898343 -0.023186099
0.009431633 -0.016112374 -0.011789542 -0.022007145 -0.024758037 -0.02082819 -0.00668074 -0.007859694
-0.014933419 -0.0035368623 -0.00039298472 0.013754465 -0.0074667097 -0.042835332 -0.005108801 -0.025151022
-0.024758037 -0.03418967 -0.024758037 -0.009038649 0.0074667097 0.024758037 -0.009038649 -0.024758037
00000000: d9e4 b0b6 f0ed deb1 7fcd eae0 df4b c71e
00000010: dcaa ba92 b2b0 8e0f cf0d 279c c7c5 d2c9
00000020: f6b1 d9ec c1a4 c2b2 05c4 cfb5 aeb8 dcd9
00000030: c7e4 ec10 da80 e0ad ae96 aed6 002c d6ae

tfl.pseudo_qconst13 i1 [64, 1, 3, 64]
79 102 -60 -45 -26 -84 -4 22
9 74 28 -21 67 34 -38 -17
7 15 42 -69 75 -20 -30 65
49 -76 0 -68 35 -101 -15 97
5 14 13 29 -41 -8 87 -48
-77 79 5 32 12 50 -78 -30
-7 55 -13 21 43 -107 0 21
-20 22 -87 -32 -92 51 73 46
61 -76 -13 -11 -77 -64 21 67
-52 6 3 -49 -110 4 -23 0
-50 -18 6 36 -70 46 -16 18
72 -61 92 -38 91 4 -67 -70
-42 -49 -5 92 104 -13 42 0
-27 -15 9 -77 37 20 23 86
-56 -16 -2 -41 -50 14 -62 70
12 10 34 117 98 27 127 44
24 63 -13 -46 91 21 29 -16
-50 -122 -57 38 19 15 -7 118
-19 -40 -91 -100 -73 21 13 7
20 -17 83 -40 82 -33 -34 47
-42 107 -104 -101 54 -16 26 -59
-48 10 34 26 -15 17 84 -89
-21 -38 33 87 59 17 29 35
13 -38 33 -49 59 89 123 17
-18 19 36 78 -36 -103 -16 56
50 52 -63 26 -68 101 -6 -66
-31 -122 70 -118 50 -31 -81 -28
-53 16 77 23 -8 -21 57 106
39 -31 71 -34 -21 38 82 91
-64 41 -56 -26 -51 -30 12 -39
-32 -9 39 -21 59 18 -14 19
118 29 95 -95 67 -25 27 15
00000000: 4f66 c4d3 e6ac fc16 094a 1ceb 4322 daef
00000010: 070f 2abb 4bec e241 31b4 00bc 239b f161
00000020: 050e 0d1d d7f8 57d0 b34f 0520 0c32 b2e2
00000030: f937 f315 2b95 0015 ec16 a9e0 a433 492e
00000040: 3db4 f3f5 b3c0 1543 cc06 03cf 9204 e900
00000050: ceee 0624 ba2e f012 48c3 5cda 5b04 bdba
00000060: d6cf fb5c 68f3 2a00 e5f1 09b3 2514 1756
00000070: c8f0 fed7 ce0e c246 0c0a 2275 621b 7f2c
00000080: 183f f3d2 5b15 1df0 ce86 c726 130f f976
00000090: edd8 a59c b715 0d07 14ef 53d8 52df de2f
000000a0: d66b 989b 36f0 1ac5 d00a 221a f111 54a7
000000b0: ebda 2157 3b11 1d23 0dda 21cf 3b59 7b11
000000c0: ee13 244e dc99 f038 3234 c11a bc65 fabe
000000d0: e186 468a 32e1 afe4 cb10 4d17 f8eb 396a
000000e0: 27e1 47de eb26 525b c029 c8e6 cde2 0cd9
000000f0: e0f7 27eb 3b12 f213 761d 5fa1 43e7 1b0f

tfl.pseudo_qconst14 i1 [64] scale=0.00033428552 zero_point=2
-0.016714277 -0.0123685645 0.016714277 -0.026742842 0.0033428553 -0.013037135 -0.010362851 -0.043457117
0.013371421 0.0123685645 -0.01270285 0.017382847 0.0013371421 0.02975141 0.013705706 0.013037135
0.002005713 -0.00969428 -0.0013371421 -0.013037135 -0.01637999 -0.0013371421 -0.011031422 -0.00969428
-0.021728558 0.004011426 -0.027077127 0.038442835 0.021059988 0.009025709 0.027745698 -0.024402844
0.04178569 0.0046799975 -0.02239713 -0.00033428552 -0.034765694 -0.00033428552 -0.016045704 -0.023734272
0.0016714276 -0.019054275 -0.0050142827 -0.0023399987 -0.01270285 -0.0033428553 -0.011031422 0.0023399987
-0.013705706 -0.019722845 -0.0026742842 0.023399986 0.008022852 -0.025071414 -0.005682854 0.01938856
-0.0066857105 -0.013371421 -0.011699993 0.023065701 -0.02005713 -0.014039991 0.02239713 0.017048562
00000000: d0dd 34b2 0cdb e380 2a27 dc36 065b 2b29
00000010: 08e5 fedb d1fe e1e5 c10e b175 411d 55b9
00000020: 7f10 bf01 9a01 d2bb 07c9 f3fb dcf8 e109
00000030: d9c7 fa48 1ab7 f13c eeda df47 c6d8 4535

tfl.pseudo_qconst15 i1 [64, 1, 3, 64]
101 60 -9 -1 26 19 48 33
38 -77 -18 9 73 -54 -18 63
-14 66 -50 -101 85 -4 -1 -36
51 74 -6 -10 -65 31 84 -32
-99 -3 25 76 -62 -8 -62 26
-31 68 -82 -41 13 -71 76 -44
-91 13 -114 15 65 44 -30 -2
108 -39 -12 -51 69 -52 -67 -127
-21 -46 14 83 106 40 -26 56
22 26 68 -8 67 -34 45 15
67 8 46 -86 108 23 -41 -54
-31 -98 32 -19 -29 0 78 14
83 0 -64 -12 -38 111 -30 -34
67 -50 80 1 31 12 -44 15
-86 11 81 -5 -73 2 -68 109
32 -98 25 95 47 57 15 -91
-62 -67 94 -70 -49 -24 0 10
73 -54 -36 -52 17 -81 89 -45
20 -21 48 80 -37 -66 -70 41
73 107 -43 -14 9 -57 -25 -69
0 -1 -35 -78 -70 -65 -52 38
57 -105 -127 -8 -87 -8 -8 26
-41 117 -44 -11 -47 -42 57 -88
-44 -43 -55 -107 69 -60 -61 40
105 25 58 -6 67 17 -86 -50
31 -26 -20 98 16 -47 24 18
-10 102 -48 -121 90 30 44 -67
-82 29 -6 40 -106 102 -58 100
95 56 -68 33 -52 80 -32 22
43 22 26 -7 21 92 27 74
-14 -68 10 -124 30 -126 101 -15
22 -109 53 79 64 -81 -23 60
00000000: 653c f7ff 1a13 3021 26b3 ee09 49ca ee3f
00000010: f242 ce9b 55fc ffdc 334a faf6 bf1f 54e0
00000020: 9dfd 194c c2f8 c21a e144 aed7 0db9 4cd4
00000030: a50d 8e0f 412c e2fe 6cd9 f4cd 45cc bd81
00000040: ebd2 0e53 6a28 e638 161a 44f8 43de 2d0f
00000050: 4308 2eaa 6c17 d7ca e19e 20ed e300 4e0e
00000060: 5300 c0f4 da6f e2de 43ce 5001 1f0c d40f
00000070: aa0b 51fb b702 bc6d 209e 195f 2f39 0fa5
00000080: c2bd 5eba cfe8 000a 49ca dccc 11af 59d3
00000090: 14eb 3050 dbbe ba29 496b d5f2 09c7 e7bb
000000a0: 00ff ddb2 babf cc26 3997 81f8 a9f8 f81a
000000b0: d775 d4f5 d1d6 39a8 d4d5 c995 45c4 c328
000000c0: 6919 3afa 4311 aace 1fe6 ec62 10d1 1812
000000d0: f666 d087 5a1e 2cbd ae1d fa28 9666 c664
000000e0: 5f38 bc21 cc50 e016 2b16 1af9 155c 1b4a
000000f0: f2bc 0a84 1e82 65f1 1693 354f 40af e93c

tfl.pseudo_qconst16 i1 [64] scale=0.0003047617 zero_point=9
-0.0063999956 -0.014019038 -0.003961902 -0.016457131 0.026514268 0.0091428505 -0.013714276 -0.0045714253
0.03382855 -0.013104753 0.011580944 0.0042666635 -0.007923804 -0.007923804 -0.028038075 -0.015542846
0.017066654 -0.022857128 0.019199986 -0.016761893 -0.0015238085 -0.02712379 -0.006095234 0.03596188
0.008838089 -0.017371416 0.029257122 -0.018285701 -0.009447613 -0.041752353 -0.0076190424 -0.0042666635
-0.014019038 -0.0063999956 -0.003047617 0.008838089 -0.020419033 -0.01980951 -0.011580944 -0.005180949
0.025599983 -0.024685698 -0.008838089 -0.02712379 -0.0024380935 -0.032914262 0.0009142851 -0.0076190424
-0.011580944 0.008838089 -0.011580944 -0.024685698 0.0015238085 -0.032914262 0.0036571403 -0.024685698
-0.028342837 -0.030171407 -0.0015238085 -0.010361898 -0.003961902 0.0027428553 -0.0024380935 -0.01798094
00000000: f4db fcd3 6027 dcfa 78de 2f17 efef add6
00000010: 41be 48d2 04b0 f57f 26d0 69cd ea80 f0fb
00000020: dbf4 ff26 c6c8 e3f8 5db8 ecb0 019d 0cf0
00000030: e326 e3b8 0e9d 15b8 aca6 04e7 fc12 01ce

tfl.pseudo_qconst17 i1 [64, 1, 3, 64]
49 43 -34 -44 29 -13 13 -44
45 -5 96 119 -18 -59 60 3
23 -29 61 -86 27 3 -8 97
-82 -12 -126 -36 -4 -7 118 -19
6 -2 -98 62 -121 -11 -15 28
4 -73 27 54 -55 -19 16 -43
-42 42 1 -21 95 -13 -16 39
0 -31 -77 100 -31 90 56 -61
33 103 -27 29 53 -31 -24 -68
29 -75 9 56 -88 -7 -8 -93
-91 23 -95 -88 34 50 -65 74
-41 92 41 0 108 -5 -89 -50
-38 -92 -10 108 3 32 13 -68
94 -110 -11 -82 35 112 -55 42
-85 105 47 64 45 87 20 62
42 2 7 -27 -6 52 -27 16
-76 15 0 -102 13 76 -44 -57
22 66 3 54 -5 -29 -10 -55
-97 -2 -91 103 -127 6 -46 -45
-19 -20 -16 12 -11 39 -65 -2
-26 -15 15 -80 56 58 -93 -52
-79 11 -88 -51 61 9 113 -38
12 107 10 27 7 20 50 65
67 -74 0 14 11 -82 110 85
12 -33 69 53 -53 -11 24 -94
-12 35 69 35 49 -127 63 31
40 1 6 -54 -44 65 -13 31
43 -6 -9 -7 -106 -12 -10 -3
-26 -63 -15 70 9 1 -107 123
46 -25 25 -5 16 -13 23 -4
-70 -54 27 -18 -58 -19 15 -70
100 -32 -59 26 -82 -102 -20 52
00000000: 312b ded4 1df3 0dd4 2dfb 6077 eec5 3c03
00000010: 17e3 3daa 1b03 f861 aef4 82dc fcf9 76ed
00000020: 06fe 9e3e 87f5 f11c 04b7 1b36 c9ed 10d5
00000030: d62a 01eb 5ff3 f027 00e1 b364 e15a 38c3
00000040: 2167 e51d 35e1 e8bc 1db5 0938 a8f9 f8a3
00000050: a517 a1a8 2232 bf4a d75c 2900 6cfb a7ce
00000060: daa4 f66c 0320 0dbc 5e92 f5ae 2370 c92a
00000070: ab69 2f40 2d57 143e 2a02 07e5 fa34 e510
00000080: b40f 009a 0d4c d4c7 1642 0336 fbe3 f6c9
00000090: 9ffe a567 8106 d2d3 edec f00c f527 bffe
000000a0: e6f1 0fb0 383a a3cc b10b a8cd 3d09 71da
000000b0: 0c6b 0a1b 0714 3241 43b6 000e 0bae 6e55
000000c0: 0cdf 4535 cbf5 18a2 f423 4523 3181 3f1f
000000d0: 2801 06ca d441 f31f 2bfa f7f9 96f4 f6fd
000000e0: e6c1 f146 0901 957b 2ee7 19fb 10f3 17fc
000000f0: baca 1bee c6ed 0fba 64e0 c51a ae9a ec34

tfl.pseudo_qconst18 i1 [64] scale=0.00023487335 zero_point=36
-0.018554995 -0.015971389 -0.0016441135 -0.0056369603 -0.0098646805 -0.03851923 0.011743668 -0.0009394934
-0.0103344275 -0.0037579737 0.010099554 -0.007985694 -0.016441135 -0.020433981 0.005871834 -0.00070462003
-0.016441135 0.0030533536 -0.021608349 0.013622655 -0.01620626 -0.0037579737 -0.015031895 0.006576454
-0.0049323402 0.0028184801 -0.012213415 -0.012683162 -0.018789869 -0.03429151 -0.0098646805 -0.015501642
-0.008220567 0.021138601 0.017850375 -0.013857528 -0.008690314 -0.025366323 -0.013152908 0.003288227
0.003288227 0.0018789868 0.012448288 0.021373475 -0.020433981 -0.0068113273 -0.0115087945 -0.0016441135
0.016441135 0.0108041745 -0.0054020872 -0.031003283 0.00211386 -0.007046201 -0.0115087945 -0.00916006
-0.014092402 -0.007750821 -0.0009394934 -0.02935917 0.014797022 0.0030533536 0.0110390475 -0.0105693005
00000000: d5e0 1d0c fa80 5620 f814 4f02 decd 3d21
00000010: de31 c85e df14 e440 0f30 f0ee d492 fae2
00000020: 017e 70e9 ffb8 ec32 322c 597f cd07 f31d
00000030: 6a52 0da0 2d06 f3fd e803 20a7 6331 53f7

tfl.pseudo_qconst19 i1 [64, 1, 3, 64]
-17 51 -107 43 -34 23 -62 4
65 23 59 29 -127 38 -53 -97
-95 -44 57 106 47 -62 -71 -85
33 -4 21 -50 60 -15 37 15
-97 -109 48 -37 -65 35 -6 7
-38 -20 3 29 54 2 -116 6
-20 14 45 -19 18 21 -102 -52
-16 -36 -20 -51 -97 -83 -45 43
-61 62 98 -73 -63 -19 91 -69
-15 76 -9 -12 -89 -68 -11 -40
11 -9 15 25 -26 -1 -100 -88
-74 -127 -56 76 -29 -72 -125 58
8 38 -8 -16 20 22 2 -44
-4 14 -30 -70 -117 5 -86 25
71 56 59 -73 51 -93 26 -75
-47 -2 -29 112 33 41 37 42
-28 81 -15 11 -20 -42 12 57
-19 13 -38 -37 -21 4 -7 111
7 -124 -78 -35 -50 54 -42 -35
22 1 16 -101 -56 10 15 -97
-86 -87 36 75 -25 -123 -107 0
-16 14 -60 -52 31 -9 -1 92
55 -74 -5 7 -126 46 105 -51
-12 -44 -3 -80 -72 -72 -20 16
41 44 14 69 79 -50 -50 -29
-75 86 40 -43 -42 3 63 10
32 18 29 -42 38 -21 39 -19
-96 51 70 -6 53 -20 -80 59
122 51 58 89 24 38 -9 -113
55 78 -57 39 68 -38 -44 51
35 94 -58 -39 -70 2 5 9
88 -8 -12 -53 -35 -29 37 -34
00000000: ef33 952b de17 c204 4117 3b1d 8126 cb9f
00000010: a1d4 396a 2fc2 b9ab 21fc 15ce 3cf1 250f
00000020: 9f93 30db bf23 fa07 daec 031d 3602 8c06
00000030: ec0e 2ded 1215 9acc f0dc eccd 9fad d32b
00000040: c33e 62b7 c1ed 5bbb f14c f7f4 a7bc f5d8
00000050: 0bf7 0f19 e6ff 9ca8 b681 c84c e3b8 833a
00000060: 0826 f8f0 1416 02d4 fc0e e2ba 8b05 aa19
00000070: 4738 3bb7 33a3 1ab5 d1fe e370 2129 252a
00000080: e451 f10b ecd6 0c39 ed0d dadb eb04 f96f
00000090: 0784 b2dd ce36 d6dd 1601 109b c80a 0f9f
000000a0: aaa9 244b e785 9500 f00e c4cc 1ff7 ff5c
000000b0: 37b6 fb07 822e 69cd f4d4 fdb0 b8b8 ec10
000000c0: 292c 0e45 4fce cee3 b556 28d5 d603 3f0a
000000d0: 2012 1dd6 26eb 27ed a033 46fa 35ec b03b
000000e0: 7a33 3a59 1826 f78f 374e c727 44da d433
000000f0: 235e c6d9 ba02 0509 58f8 f4cb dde3 25de

tfl.pseudo_qconst20 i1 [64] scale=0.0002932153 zero_point=3
-0.03547905 -0.010848966 -0.0014660765 -0.026096161 0.02375044 0.010848966 0.0043982295 -0.011435397
0.0023457224 -0.033426546 0.015540411 0.0020525071 -0.021111501 0.007623598 -0.01876578 0.021111501
-0.017006487 -0.0035185837 -0.014660765 -0.02932153 -0.01876578 0.011728612 -0.023457224 0.004691445
0.0011728612 -0.017006487 0.036358695 -0.03430619 -0.031374037 -0.028441884 -0.00996932 0.0011728612
-0.008796459 -0.017299702 -0.0082100285 0.0041050143 -0.009089674 -0.027269023 -0.003811799 0.0005864306
-0.0082100285 -0.025802946 0.0052778753 -0.01935221 -0.038411204 -0.0023457224 -0.020818286 -0.02814867
0.021991147 0.0 0.010555751 0.032840114 0.016713273 -0.0064507364 0.007623598 -0.022870794
-0.007623598 -0.015247196 -0.010555751 -0.01436755 -0.00996932 -0.022870794 0.0082100285 -0.012315042
00000000: 8ade feaa 5428 12dc 0b91 380a bb1d c34b
00000010: c9f7 d19f c32b b313 07c9 7f8e 98a2 e107
00000020: e5c8 e711 e4a6 f605 e7ab 15c1 80fb bca3
00000030: 4e03 2773 3ced 1db5 e9cf dfd2 e1b5 1fd9

tfl.pseudo_qconst21 i1 [64, 1, 3, 64]
78 37 -38 -113 24 -31 28 -62
-18 -14 -43 -53 0 -22 -61 46
47 -66 -47 -15 16 -11 -76 61
9 10 -33 -13 77 41 -30 -8
27 -10 -12 18 -47 -32 -29 6
-61 -14 -77 -32 31 14 -12 27
70 -3 77 -39 32 -18 127 32
-122 12 34 86 -38 55 12 11
4 -48 18 -1 -35 -6 88 1
3 -45 9 -28 -43 -95 -70 -25
39 -9 10 17 21 27 18 31
-66 19 31 23 -8 101 19 42
34 -33 71 16 14 -2 -33 -112
-32 -64 -42 47 -28 -38 -7 24
3 -1 -94 5 -54 -1 30 2
69 5 -63 -54 -3 81 -15 80
-41 -25 69 96 26 -18 -17 16
88 -42 -70 -46 6 13 -12 -10
58 -61 -7 -72 -40 11 -4 -57
8 38 4 -35 3 21 54 -33
-18 55 -58 -10 89 9 16 32
-27 -22 79 -5 30 60 3 55
45 61 -70 8 -24 -34 -20 47
-13 40 89 -54 -90 -45 64 2
-10 18 -24 -91 42 -46 65 -20
38 10 17 -33 -98 -32 -36 -6
-53 -30 -9 -57 23 42 49 0
66 -43 -14 100 3 -36 -2 -19
30 -33 18 -38 -56 -102 15 -19
28 27 -45 52 26 -26 -24 22
-49 -119 -43 -69 8 29 -31 -76
-84 -16 4 19 6 -24 65 -57
00000000: 4e25 da8f 18e1 1cc2 eef2 d5cb 00ea c32e
00000010: 2fbe d1f1 10f5 b43d 090a dff3 4d29 e2f8
00000020: 1bf6 f412 d1e0 e306 c3f2 b3e0 1f0e f41b
00000030: 46fd 4dd9 20ee 7f20 860c 2256 da37 0c0b
00000040: 04d0 12ff ddfa 5801 03d3 09e4 d5a1 bae7
00000050: 27f7 0a11 151b 121f be13 1f17 f865 132a
00000060: 22df 4710 0efe df90 e0c0 d62f e4da f918
00000070: 03ff a205 caff 1e02 4505 c1ca fd51 f150
00000080: d7e7 4560 1aee ef10 58d6 bad2 060d f4f6
00000090: 3ac3 f9b8 d80b fcc7 0826 04dd 0315 36df
000000a0: ee37 c6f6 5909 1020 e5ea 4ffb 1e3c 0337
000000b0: 2d3d ba08 e8de ec2f f328 59ca a6d3 4002
000000c0: f612 e8a5 2ad2 41ec 260a 11df 9ee0 dcfa
000000d0: cbe2 f7c7 172a 3100 42d5 f264 03dc feed
000000e0: 1edf 12da c89a 0fed 1c1b d334 1ae6 e816
000000f0: cf89 d5bb 081d e1b4 acf0 0413 06e8 41c7

tfl.pseudo_qconst22 i1 [64] scale=0.0003129186 zero_point=-15
-0.021591382 -0.010013395 0.0021904302 0.0028162673 0.0 0.0040679416 -0.008448802 0.0028162673
-0.02002679 -0.0006258372 0.0025033487 -0.0056325346 -0.0012516744 0.01564593 -0.0028162673 0.007822965
-0.023468895 0.0003129186 0.023781814 0.014394255 -0.020339709 0.009387557 0.0 -0.006884209
0.01783636 0.0050066975 -0.02440765 -0.010639233 -0.019088034 0.0028162673 -0.0009387558 -0.009387557
-0.020652628 -0.0046937787 -0.013768418 -0.012203825 -0.0031291859 0.0003129186 0.015333011 -0.0021904302
-0.020965546 -0.022530138 -0.0056325346 -0.017523441 0.04443444 -0.0071971277 -0.0353598 0.009700476
0.03129186 0.0053196163 -0.015333011 -0.013142581 -0.008761721 0.0031291859 -0.0015645929 -0.015958847
0.021591382 -0.021278465 -0.0065712905 -0.01095215 -0.0134555 -0.01564593 -0.010639233 -0.0071971277
00000000: acd1 f8fa f1fe d6fa b1ef f9df ed23 e80a
00000010: a6f2 3d1f b00f f1db 2a01 a3cf b4fa eed3
00000020: afe2 c5ca e7f2 22ea aea9 dfb9 7fda 8010
00000030: 5502 c0c7 d5fb ecbe 36ad dcce c6bf cfda

tfl.pseudo_qconst33 i1 [64, 1, 3, 64]
73 -115 -53 -79 63 1 -51 8
-25 -58 -40 3 98 -17 -17 52
22 -23 -100 55 -36 86 -76 23
-108 91 64 85 5 -36 32 59
-19 111 -58 -37 -25 -58 -77 44
-7 17 29 111 2 67 27 31
6 22 -37 38 5 90 -2 -58
-30 -40 -50 34 114 -106 -28 11
-106 -52 -82 47 -23 -69 13 -19
60 72 85 5 40 -81 -22 25
-101 -15 29 -100 -60 -30 -26 62
10 -14 -4 70 52 73 -107 59
-30 -11 -70 -90 80 -11 -117 53
96 35 -17 118 47 -90 -65 9
63 87 -4 47 76 -110 -30 -65
25 -21 -92 -17 -74 117 -25 -28
-52 -75 -55 -115 -32 100 -23 -25
-23 1 27 85 -56 -4 48 -55
72 -24 36 77 -29 -38 69 9
-51 111 -39 -30 31 -12 -34 -71
21 7 -90 20 -29 59 -88 -22
1 66 -31 2 48 1 3 -49
-13 -79 -127 15 77 -34 -44 7
31 14 -33 56 -78 -83 -71 -39
-33 -28 -3 -39 22 28 59 49
-42 -68 9 70 -87 -16 -43 23
-26 17 47 23 -16 22 51 -17
-10 74 -60 39 -39 3 8 -111
1 30 -34 49 58 -101 36 47
-32 0 90 -1 60 11 -5 28
50 -27 -6 61 -39 -47 -35 81
-82 -28 -29 -19 79 65 1 -74
00000000: 498d cbb1 3f01 cd08 e7c6 d803 62ef ef34
00000010: 16e9 9c37 dc56 b417 945b 4055 05dc 203b
00000020: ed6f c6db e7c6 b32c f911 1d6f 0243 1b1f
00000030: 0616 db26 055a fec6 e2d8 ce22 7296 e40b
00000040: 96cc ae2f e9bb 0ded 3c48 5505 28af ea19
00000050: 9bf1 1d9c c4e2 e63e 0af2 fc46 3449 953b
00000060: e2f5 baa6 50f5 8b35 6023 ef76 2fa6 bf09
00000070: 3f57 fc2f 4c92 e2bf 19eb a4ef b675 e7e4
00000080: ccb5 c98d e064 e9e7 e901 1b55 c8fc 30c9
00000090: 48e8 244d e3da 4509 cd6f d9e2 1ff4 deb9
000000a0: 1507 a614 e33b a8ea 0142 e102 3001 03cf
000000b0: f3b1 810f 4dde d407 1f0e df38 b2ad b9d9
000000c0: dfe4 fdd9 161c 3b31 d6bc 0946 a9f0 d517
000000d0: e611 2f17 f016 33ef f64a c427 d903 0891
000000e0: 011e de31 3a9b 242f e000 5aff 3c0b fb1c
000000f0: 32e5 fa3d d9d1 dd51 aee4 e3ed 4f41 01b6

tfl.pseudo_qconst35 i1 [64, 1, 1, 6]
-99 127 24 -20 74 -41 -57 -50
109 102 106 -127 91 -36 -127 126
120 -68 37 113 -44 127 113 -11
127 -11 109 46 13 119 -104 -43
83 127 -126 -34 124 54 127 -15
0 65 35 -62 71 -5 127 -15
16 -22 -127 -30 18 -95 -77 -18
-90 113 68 127 -109 -8 78 -21
127 -82 -91 -71 -127 44 69 -39
-43 -25 26 127 -86 45 -127 -27
52 111 -119 -43 -127 -52 54 -69
35 15 55 -127 34 -103 13 52
-47 74 127 -22 -68 -30 66 8
14 -12 127 -79 67 -86 89 54
27 -127 -127 -6 -11 -42 -31 70
-54 4 -11 5 127 28 25 19
32 95 -127 88 82 -90 62 23
15 127 93 -71 -127 -63 127 -116
60 -127 -9 51 -22 99 48 -36
-92 83 44 127 71 68 -19 112
-127 -94 127 105 17 95 -27 34
127 16 -31 19 26 -125 127 47
-5 60 26 113 31 -58 -127 31
-61 -5 -127 70 -31 -15 26 -14
-36 28 4 47 27 -127 -35 127
-67 37 -99 95 -96 127 36 -3
114 -51 -42 63 -21 -73 127 -22
-116 -51 82 127 10 14 65 -127
-90 -37 -60 -101 -2 -64 -97 -127
-80 -57 -95 26 -127 52 -104 14
127 -76 -58 75 29 65 127 88
8 -28 -31 44 -27 61 23 -108
00000000: 9d7f 18ec 4ad7 c7ce 6d66 6a81 5bdc 817e
00000010: 78bc 2571 d47f 71f5 7ff5 6d2e 0d77 98d5
00000020: 537f 82de 7c36 7ff1 0041 23c2 47fb 7ff1
00000030: 10ea 81e2 12a1 b3ee a671 447f 93f8 4eeb
00000040: 7fae a5b9 812c 45d9 d5e7 1a7f aa2d 81e5
00000050: 346f 89d5 81cc 36bb 230f 3781 2299 0d34
00000060: d14a 7fea bce2 4208 0ef4 7fb1 43aa 5936
00000070: 1b81 81fa f5d6 e146 ca04 f505 7f1c 1913
00000080: 205f 8158 52a6 3e17 0f7f 5db9 81c1 7f8c
00000090: 3c81 f733 ea63 30dc a453 2c7f 4744 ed70
000000a0: 81a2 7f69 115f e522 7f10 e113 1a83 7f2f
000000b0: fb3c 1a71 1fc6 811f c3fb 8146 e1f1 1af2
000000c0: dc1c 042f 1b81 dd7f bd25 9d5f a07f 24fd
000000d0: 72cd d63f ebb7 7fea 8ccd 527f 0a0e 4181
000000e0: a6db c49b fec0 9f81 b0c7 a11a 8134 980e
000000f0: 7fb4 c64b 1d41 7f58 08e4 e12c e53d 1794

tfl.pseudo_qconst37 i1 [64, 1, 3, 64]
-11 82 -18 -38 -20 -26 111 62
81 64 -47 94 -66 -89 38 -54
78 86 84 -12 106 -58 -106 -5
41 35 -1 -27 -78 10 -15 -28
35 100 -12 10 27 79 -47 -96
2 127 25 51 -28 48 -23 11
68 8 -3 -33 20 4 -79 -32
-117 -92 13 -37 25 -102 110 35
-23 -34 -116 41 -35 -48 -14 34
-15 -7 62 -38 40 30 -10 67
-54 24 27 73 -13 -97 86 -65
65 -14 -106 68 110 9 71 37
-50 74 -79 -94 -6 -20 11 -3
-7 -11 0 -38 -46 -6 -25 41
-4 115 -37 -22 -56 -126 -109 110
66 87 96 82 -33 12 48 5
53 -16 -6 25 -5 -21 34 -69
-83 40 77 26 8 28 53 -49
-55 66 107 17 52 -24 1 -56
17 -76 51 11 108 -76 -62 68
-61 -36 6 78 38 75 51 -104
-6 16 67 91 -90 -33 120 -76
-59 -8 -113 -49 -18 -40 77 17
-18 2 -73 29 18 -33 1 -42
9 43 -50 -17 -68 9 55 -26
-11 -10 23 13 -76 -9 -56 20
44 -41 21 41 -33 127 -86 84
9 -55 13 -5 -25 -97 -64 -47
15 -64 -104 54 -8 -48 66 72
-65 -20 48 30 -53 -52 96 -45
-30 -31 -7 -100 26 -77 76 32
-58 -48 25 1 117 0 -56 -20
00000000: f552 eeda ece6 6f3e 5140 d15e bea7 26ca
00000010: 4e56 54f4 6ac6 96fb 2923 ffe5 b20a f1e4
00000020: 2364 f40a 1b4f d1a0 027f 1933 e430 e90b
00000030: 4408 fddf 1404 b1e0 8ba4 0ddb 199a 6e23
00000040: e9de 8c29 ddd0 f222 f1f9 3eda 281e f643
00000050: ca18 1b49 f39f 56bf 41f2 9644 6e09 4725
00000060: ce4a b1a2 faec 0bfd f9f5 00da d2fa e729
00000070: fc73 dbea c882 936e 4257 6052 df0c 3005
00000080: 35f0 fa19 fbeb 22bb ad28 4d1a 081c 35cf
00000090: c942 6b11 34e8 01c8 11b4 330b 6cb4 c244
000000a0: c3dc 064e 264b 3398 fa10 435b a6df 78b4
000000b0: c5f8 8fcf eed8 4d11 ee02 b71d 12df 01d6
000000c0: 092b ceef bc09 37e6 f5f6 170d b4f7 c814
000000d0: 2cd7 1529 df7f aa54 09c9 0dfb e79f c0d1
000000e0: 0fc0 9836 f8d0 4248 bfec 301e cbcc 60d3
000000f0: e2e1 f99c 1ab3 4c20 c6d0 1901 7500 c8ec

tfl.pseudo_qconst39 i1 [64, 1, 3, 6]
-26 100 -49 -22 38 56 -20 73
127 60 17 49 -34 -28 61 -36
-19 -74 -10 -106 -38 38 23 51
53 26 -1 -75 26 -60 -127 -21
24 29 -9 -71 5 -49 60 22
101 3 -117 51 12 127 -47 -7
-93 -53 -41 -32 -69 -21 59 -15
-73 66 42 -51 -74 18 112 13
-127 -1 -31 15 38 -40 -77 -14
-46 -16 -26 95 0 -17 -26 46
-20 -81 -127 -42 4 114 113 42
10 -52 -79 -97 98 127 108 -25
-1 16 12 -3 30 -63 23 7
86 70 35 43 -70 -106 20 -85
127 -17 99 10 36 91 31 -1
12 20 32 -41 31 57 43 35
78 81 -59 -127 -34 81 -13 -40
77 4 -81 -15 38 -112 -85 -4
99 127 -11 -60 -16 -76 -37 -50
-34 -40 93 -55 -67 -45 -48 -9
41 80 51 104 38 23 10 127
36 23 118 74 78 -81 -36 -39
14 87 21 -124 -28 -18 -52 -31
-14 -127 98 -22 19 -112 -20 -98
-14 3 123 74 -37 97 -32 56
-127 88 7 102 56 118 -22 -35
-60 -8 1 59 -36 124 -31 -55
-1 120 -16 45 -43 24 14 -63
16 127 -36 -100 -64 -22 -19 -63
-9 90 -43 -36 23 -68 95 127
14 -96 16 -15 95 -50 109 -61
19 88 -10 8 50 41 -6 -127
00000000: e664 cfea 2638 ec49 7f3c 1131 dee4 3ddc
00000010: edb6 f696 da26 1733 351a ffb5 1ac4 81eb
00000020: 181d f7b9 05cf 3c16 6503 8b33 0c7f d1f9
00000030: a3cb d7e0 bbeb 3bf1 b742 2acd b612 700d
00000040: 81ff e10f 26d8 b3f2 d2f0 e65f 00ef e62e
00000050: ecaf 81d6 0472 712a 0acc b19f 627f 6ce7
00000060: ff10 0cfd 1ec1 1707 5646 232b ba96 14ab
00000070: 7fef 630a 245b 1fff 0c14 20d7 1f39 2b23
00000080: 4e51 c581 de51 f3d8 4d04 aff1 2690 abfc
00000090: 637f f5c4 f0b4 dbce ded8 5dc9 bdd3 d0f7
000000a0: 2950 3368 2617 0a7f 2417 764a 4eaf dcd9
000000b0: 0e57 1584 e4ee cce1 f281 62ea 1390 ec9e
000000c0: f203 7b4a db61 e038 8158 0766 3876 eadd
000000d0: c4f8 013b dc7c e1c9 ff78 f02d d518 0ec1
000000e0: 107f dc9c c0ea edc1 f75a d5dc 17bc 5f7f
000000f0: 0ea0 10f1 5fce 6dc3 1358 f608 3229 fa81
