final/model.tflite (tflite, 176584 bytes, 31 tensors)

arith.constant f4 [32]
000000 96 2f 2a 3c a3 25 27 3c 99 cc 3d bc 51 e8 8c bc
       0.010387322 0.010201844 -0.011584424 -0.01720062
000010 9b bb b3 3c db 75 a0 bc 28 4f da bb 44 f8 7e ba
       0.021940043 -0.019587448 -0.006662268 -0.00097263255
000020 f4 a9 16 3c e9 e9 2b bb e1 4b e2 3c 60 79 c4 3c
       0.009195793 -0.002623195 0.027624073 0.023983657
000030 40 dc 58 3c b2 5d d6 3c 30 82 aa 3b 9c 3f 4e 3d
       0.013236105 0.026167724 0.005203508 0.05035363
000040 7e 3f 2a bc 9d a2 b1 3a b7 21 97 3c 1a 80 06 3d
       -0.010391114 0.0013552491 0.018448694 0.03283701
000050 a3 ce d7 bc 99 42 af bc 1f 2d e7 bc 33 2f 65 bc
       -0.02634365 -0.02139406 -0.028219758 -0.013988304
000060 d3 21 34 3d 8c 1e 26 3c 33 70 1a ba c6 26 77 3c
       0.04397757 0.010139119 -0.0005891353 0.015084928
000070 fc 70 43 3c 78 8b f0 3c 54 65 85 bc 26 8a b8 bc
       0.011928793 0.029363379 -0.016283669 -0.022526812

arith.constant1 f4 [32]
000000 0c a7 f4 bb 90 d6 32 bb e9 db 8b bb 7a 9b b6 bc
       -0.0074662026 -0.0027288534 -0.0042681587 -0.022290934
000010 89 a9 96 3c de 5a f5 bb 39 11 70 bc cb ab d7 bb
       0.018391388 -0.007487639 -0.014652544 -0.0065817586
000020 db 73 f9 3b 58 7b 96 3c df c0 31 3c 39 ec 05 3b
       0.007612688 0.018369362 0.010849207 0.002043499
000030 5c 4f 96 bc 9d 62 3f 3c 8f 4e 10 3d 1a 04 ab 3c
       -0.018348388 0.011681226 0.03523117 0.02087598
000040 8d a6 8a ba b1 53 d2 bc 7b 29 98 3c a1 64 bd 3b
       -0.00105782 -0.025674673 0.018574467 0.005779818
000050 9b 0d c8 bc 0d c9 61 ba 5c 43 16 bc 33 3a b7 bb
       -0.02442055 -0.0008613028 -0.009171333 -0.0055916547
000060 86 8c 86 3c b9 61 e1 bb 95 be 06 b7 db cb ef 3c
       0.016424429 -0.0068781045 -8.031396e-06 0.02927201
000070 fe 5e 89 3c bc 5a 0b 3d 76 ce c6 3b bb fe fd bc
       0.016768929 0.034022078 0.0060670925 -0.031005254

arith.constant2 f4 [32]
000000 f3 72 56 3a 8e dc 12 3d 95 df 0f bd 5a b4 9c 3c
       0.0008180581 0.03585487 -0.035125334 0.019128967
000010 78 94 57 bc a8 2a f9 3b 2f 4e d7 bb 16 2f 52 bc
       -0.013157956 0.007603962 -0.0065705995 -0.012828609
000020 ad 86 96 bc d5 13 84 3c d9 49 0b bd be b2 b9 3a
       -0.018374765 0.016122738 -0.034005973 0.0014167649
000030 f5 56 0a bd 72 f7 1d 3c ae 93 17 3d 9a 94 bb 3c
       -0.033774335 0.009641515 0.037006073 0.022898007
000040 2b d0 3e ba a5 c6 23 bb 7d 01 55 3c 8d e3 71 bc
       -0.0007278944 -0.0024990228 0.013000843 -0.014763725
000050 30 c6 5e 3c 08 63 3b bc d7 74 80 3d 9c 2d a3 bc
       0.013597056 -0.011437185 0.062722854 -0.01991921
000060 ff 74 7e 3b 5f ee a3 3c 62 48 bf 3b 0a a5 a3 3b
       0.003882706 0.020011125 0.005837486 0.0049940394
000070 11 90 27 3d 50 df f2 bb c1 84 80 bc d4 0b eb bc
       0.040908877 -0.007411875 -0.015688302 -0.028692164

arith.constant9 f4 [32, 1, 3, 32]
000000 3f 43 84 be 8f 4d 38 bd f8 e7 ef bd 0c b1 d5 3b
       -0.25832555 -0.04499584 -0.117141664 0.00652135
000010 80 70 36 be 3e fd 50 be ce 9e 2e 3e e3 6b 22 bd
       -0.17816353 -0.20409104 0.17052767 -0.03965367
000020 cd 0b 93 3b 1b 00 27 3d 33 44 9b be 31 ec 54 3d
       0.0044874907 0.040771585 -0.3032547 0.051983062
000030 03 40 fb bb a9 62 b9 bd b6 6c 88 3e ae b9 73 3d
       -0.007667543 -0.09052021 0.2664544 0.05950325
000040 1e 18 f5 3d f3 92 73 be a2 a1 b9 bb 23 bc 33 3d
       0.119674906 -0.23786525 -0.00566502 0.043880593
000050 4a 2f 00 be 2c 2d 6a 3e bc a9 39 be 38 f6 91 3e
       -0.1251804 0.22868794 -0.18131155 0.28508162
000060 6a 40 6d bd 88 6f 9a bd e0 dd 1d bd 10 66 6f be
       -0.05792276 -0.07540804 -0.038541675 -0.23378778
000070 60 53 98 3d e0 a8 3e 3d 86 9d 0d be 37 66 3e 3d
       0.074377775 0.04654777 -0.13829622 0.0464842
000080 a6 5b 56 be 17 6f 6f 3d 4d 42 09 bc 3c 08 57 3d
       -0.20933399 0.058455553 -0.008377624 0.052498087
000090 29 d5 6e 3e b6 b2 3b 3e dc 06 9a 3d 40 b7 5c 3e
       0.23323502 0.18329892 0.075208396 0.2155428
0000a0 c6 ab c3 3b 88 3f 12 be c9 da 8c bc f4 59 38 3e
       0.0059714047 -0.14282048 -0.017194169 0.18003064
0000b0 e7 8a cc 3d f0 0b ce 3d f2 16 6b be 0a 95 ee bd
       0.09987431 0.10060871 -0.22957972 -0.11649521
0000c0 59 2c c9 3d f8 53 0f 3e d0 98 bd 3c 00 a6 08 be
       0.09822912 0.13996875 0.023144156 -0.13344574
0000d0 0a 5a 98 3c d7 69 c0 ba df af ae 3d 75 bb 02 3d
       0.018597621 -0.001467998 0.085296385 0.031917054
0000e0 05 5a a4 3d 76 61 2a 3c b4 6c 7a 3e 69 f9 f3 bd
       0.08024982 0.010399213 0.2445553 -0.119128056
0000f0 fb 27 06 3c 66 10 a9 3d c4 2a 3b 3e 99 7b 51 bd
       0.008188243 0.08255081 0.18278033 -0.051143263
000100 2f 11 8a 3c 2e e8 ef 3a 63 e7 19 be 06 77 37 be
       0.016853897 0.0018303448 -0.15029673 -0.17916498
000110 51 35 c1 3d 39 e5 93 3d 9f 45 48 3e e4 03 44 3e
       0.094339974 0.07221455 0.19557808 0.19142109
000120 7e 03 37 be c7 b7 9d be e2 75 f0 bc 00 7e a4 bb
       -0.17872426 -0.30804273 -0.029353086 -0.005019903
000130 ce 0d b4 bd 61 59 ac be 6e 58 5f 3e 11 44 80 be
       -0.087916955 -0.3366194 0.21811077 -0.2505193
000140 12 77 79 3e 72 76 ac 3d 7b 4f cd 3d 53 4f 29 3b
       0.24361828 0.08421029 0.10024925 0.0025834634
000150 f4 85 60 be cf 4d 44 bd 3d 0b 87 3e 96 b7 d4 bd
       -0.21926099 -0.047925767 0.26375762 -0.10386579
000160 67 37 2e be d7 5b 30 be f0 71 be bd ff b1 84 be
       -0.17013322 -0.17222534 -0.092990756 -0.2591705
000170 2f 33 8d 3e 79 c4 65 3e 70 67 08 be 8d 76 51 ba
       0.27578112 0.2243823 -0.13320708 -0.0007990383
000180 7e 42 6c 3e 6f 0d 07 3d 81 30 c3 bd 03 fd 69 3d
       0.2307224 0.032971796 -0.09530736 0.057126056
000190 a4 21 00 3e 8c de 0a 3e b7 de 07 3e 2d 54 9c 3e
       0.12512833 0.13561457 0.13268553 0.3053297
0001a0 4c a9 02 3e c2 4d 9c 3e 68 99 0a 3d e5 0e 1b be
       0.12759894 0.30528075 0.033837706 -0.151424
0001b0 cd e7 1b 3e 51 8c 4c 3e 9a 12 92 bb 5e 76 a8 bd
       0.15225144 0.19975401 -0.004457784 -0.08225702
0001c0 be 69 26 be 75 16 84 be 01 37 10 bc f4 69 6e 3e
       -0.16251275 -0.25798383 -0.008802176 0.23282605
0001d0 d4 a6 92 bd b6 63 9d 3c 34 6d c9 3d 8f 00 1a 3e
       -0.07160726 0.019212585 0.09835282 0.15039276
0001e0 8b 93 3a be 9c 2f d8 bd e8 be 36 be e7 c4 0a be
       -0.18220346 -0.10555956 -0.17846262 -0.13551675
0001f0 64 74 73 3e 8c 68 91 3d 14 e1 1c 3d 2d ad c6 bd
       0.23774868 0.07100019 0.03830059 -0.097009994
000200 6e c6 42 bd 50 a3 14 3e 93 7e b1 bd c0 d2 4b be
       -0.04755252 0.14515424 -0.0866672 -0.19904613
000210 2f ff 54 be ac a4 ba bd 7a 59 e2 bd 7b 4e 84 bd
       -0.2080047 -0.0911344 -0.110522225 -0.064602815
000220 0c bc e2 bc 8a 8c bd bc ca db 28 bd 4d eb 30 3e
       -0.027677558 -0.023138303 -0.041225232 0.1727726
000230 59 4b 26 3e 21 e4 13 3e 16 11 57 be 01 3f 8f bd
       0.1623968 0.14442493 -0.21002612 -0.06994439
000240 b6 b1 56 3d 51 52 84 be 4b 21 2b 3d 60 ed d4 bd
       0.052415572 -0.25844052 0.041779798 -0.10396838
000250 46 56 d8 3d 87 b9 a1 3d 11 d3 74 bb 02 23 f0 3c
       0.1056333 0.07896715 -0.003735725 0.029313568
000260 01 78 87 bd 61 cc 9a 3d d2 1c 1f be 6b 62 59 be
       -0.06614686 0.075585134 -0.15538338 -0.2122895
000270 c2 18 99 3e cb c0 31 3d fb 22 35 bd 6e e3 d7 bd
       0.299017 0.043396752 -0.044222813 -0.10541426
000280 e5 89 90 3d f4 b0 40 3e cc 7b 3c 3e 94 b9 75 3e
       0.07057551 0.18817502 0.184066 0.23996574
000290 0c 29 6a 3d 07 f3 b1 3d 90 51 bf 3b 09 7b a4 bc
       0.05716805 0.08688932 0.0058385804 -0.020078199
0002a0 61 19 75 bd bd d5 81 3e 78 55 b9 3d 53 ca 84 be
       -0.059838656 0.25358382 0.09049505 -0.2593561
0002b0 79 ea 83 3c da 49 05 3d 86 6b 8f bd f1 3d 68 be
       0.016103016 0.032541133 -0.0700293 -0.22679879
0002c0 18 d3 fb 3d 32 88 85 be 15 f5 11 3e 82 e3 60 be
       0.12296122 -0.2608047 0.14253648 -0.21961787
0002d0 16 0f aa bd e9 7f 0c bd e3 88 15 3b 6a c6 6c be
       -0.08303659 -0.034301672 0.0022817187 -0.23122564
0002e0 4f 30 a6 3d 20 1a de bb ab 8c 22 3e 32 4a 8e bd
       0.08114683 -0.0067780167 0.15873973 -0.069477454
0002f0 8f 91 f7 3d c1 bc 99 3d 4b da 7f 3e b6 8a 9a 3e
       0.1208831 0.07506705 0.24985616 0.30183953
000300 c0 d0 09 3e 55 fa 38 3e 3a 3b 80 3c 88 10 77 3c
       0.13458538 0.18064244 0.015653241 0.015079625
000310 fd 14 0d bd cb 4e cb 3d 7e 5e 8e 3d 20 a6 96 be
       -0.034443844 0.09927138 0.06951617 -0.29423618
000320 3b f3 00 3d 28 55 52 be ea 1b 50 3e b6 b2 6b 3a
       0.031481963 -0.20540297 0.20323148 0.00089911686
000330 9c 83 3a 3e c0 4c 13 3d 7c 49 b6 3d 5d 07 28 be
       0.18214267 0.035961866 0.08900735 -0.16409059
000340 7a e1 6d 3d ef 46 11 be b9 1a 2b be fa 54 2c be
       0.05807636 -0.14187215 -0.16709413 -0.16829291
000350 88 79 76 3e df 92 96 3d 31 a2 67 3e ed 40 52 3d
       0.24069798 0.07352232 0.22620465 0.05133145
000360 21 51 97 bd 2d 41 59 bd c2 82 43 be 9e 70 88 be
       -0.07388521 -0.053040672 -0.19092849 -0.2664842
000370 9e ab 1f be 33 73 14 be f5 15 2e be 78 bc e5 3c
       -0.1559281 -0.1449707 -0.17000563 0.02804397
000380 4d 0b 9a 3d 8d f4 8b 3d 8a 8d 05 be 45 1d 39 bc
       0.07521687 0.06833754 -0.13042274 -0.011298482
000390 fd a1 6d bd ca 2a 20 3e 37 0f 2a bc ca 00 e6 bd
       -0.058015812 0.15641323 -0.010379604 -0.11230619
0003a0 f5 2c 1c bc 3e 4c 0d be eb 0d 1d bd f4 60 c4 3d
       -0.009532203 -0.13798615 -0.03834335 0.09588805
0003b0 b8 9c 71 be df 08 75 3c 87 9a 20 3e 8b 37 2e 3e
       -0.2359494 0.014955728 0.15683948 0.17013375
0003c0 af 21 d8 3d 2a 48 cf bd 11 2b 0b bd 4d d6 96 bd
       0.105533 -0.10121186 -0.03397662 -0.073650934
0003d0 9d 2b 35 3d d4 44 15 bd 56 34 37 be 75 c5 e9 3c
       0.044231046 -0.036442593 -0.17891058 0.028536538
0003e0 80 bb bd 3c 69 c8 08 bd db 21 a1 3e da 80 b8 3d
       0.023160696 -0.03339425 0.31471142 0.090089515
0003f0 1a cd 74 3e 84 60 53 be a0 73 2d 3e 64 fd 76 bc
       0.23906365 -0.20642287 0.16938639 -0.0150750615

arith.constant10 f4 [32, 1, 3, 32]
000000 55 2c e1 bd ed d7 40 be 18 99 50 be b3 10 08 be
       -0.10994784 -0.18832369 -0.203709 -0.1328762
000010 20 f7 fd 3c cb 1a 31 39 3c 65 e5 3d b4 ef 9f bc
       0.031001627 0.00016890017 0.112009495 -0.019523479
000020 df a8 bf 3c b0 63 a3 3a 19 ea 62 be 98 e9 26 3c
       0.023395954 0.0012465622 -0.22159614 0.010187529
000030 c5 f3 69 3d 19 65 36 3d 14 81 46 3e e3 b7 2b 3e
       0.057117242 0.044530008 0.19385177 0.16769366
000040 9c c7 ea 3d 67 9d 25 be f9 44 5b 3d 57 98 9c bd
       0.11463854 -0.16173325 0.053532574 -0.07646244
000050 eb dd 17 be f2 e3 08 be 7c b7 9e 3e ab 20 8f be
       -0.14830749 -0.13368204 0.30999362 -0.2795461
000060 8a c7 bb 3d 0c ac af 3d 54 cd 3a be 1c 90 8b be
       0.091689184 0.08577737 -0.18242389 -0.27258384
000070 98 fd b9 3c ec 5f 27 3d d0 5e 07 be 84 37 52 3e
       0.02270393 0.040862963 -0.13219762 0.2052899
000080 1d 7d 3d bd c9 af 2e 3b 90 cc 9a 3c c0 e4 72 be
       -0.046261895 0.002665507 0.018896371 -0.23720074
000090 07 29 37 3e ee 0c a0 be f8 6f 95 bd 05 43 c6 bd
       0.17886744 -0.31259865 -0.07296747 -0.09680752
0000a0 3f d5 20 bd 3d d5 bf 3c 9b 21 94 bd 5e ea ef bd
       -0.039265867 0.02341711 -0.07232972 -0.11714624
0000b0 b7 43 a4 bd d2 61 40 bd aa ae 80 3e 85 3c 49 be
       -0.08020728 -0.04696829 0.25133258 -0.19651993
0000c0 e0 0e 22 bd 44 94 47 3d 66 94 cd 3d 5f 9e 1b 3e
       -0.039564967 0.04872538 0.100380704 0.15197133
0000d0 0a 98 bd bd ef 64 c0 bd fb 00 04 3e 6f f0 d1 bc
       -0.09257515 -0.093942516 0.12890999 -0.025627343
0000e0 0a 9e 85 bd 6a b3 57 bd 87 18 59 3e 86 99 24 3e
       -0.06524284 -0.052661337 0.21200763 0.1607419
0000f0 80 13 8b 3d b3 fe 0e bd 8e 6f e5 3c a2 08 3f 3c
       0.06790829 -0.03491087 0.028007295 0.011659773
000100 88 56 a3 3d 26 9b 0c 3d a0 1d c0 3c 8c d0 08 bc
       0.07975489 0.03432765 0.023451626 -0.008350503
000110 c7 70 f3 bd f0 fa a4 3e 45 22 35 3d c9 a9 9a bd
       -0.11886745 0.322227 0.044222135 -0.07551915
000120 1e bf 66 3e 12 3e 81 be 62 57 45 be 40 f7 93 3e
       0.22533843 -0.25242668 -0.19271615 0.28899574
000130 20 ae 75 be 5c dc 27 3e 70 b1 eb bd 14 61 bb bd
       -0.23992205 0.16392654 -0.11508453 -0.091493756
000140 61 c9 a5 3c 20 b1 a3 bd 7e 2a 54 3e 62 ea 1d 3e
       0.020237627 -0.07992768 0.20719334 0.15421441
000150 af 9d bf 3c 81 7f aa bd 8a 54 37 3e be 38 ca 3d
       0.02339062 -0.08325101 0.17903343 0.09874104
000160 24 3d 01 3e 4f bf 75 3d 41 97 36 3e 8b 24 8a be
       0.1262098 0.0599969 0.17831136 -0.26981005
000170 18 99 c1 bb 5a 52 59 3c 20 26 3e 3e d6 ab e9 bd
       -0.005908143 0.013264263 0.18569231 -0.11409728
000180 cb 72 88 3e 46 f4 17 be b4 4f 0d bd 41 44 41 be
       0.2665008 -0.14839277 -0.03449984 -0.18873693
000190 e2 f3 21 3e 94 25 da 3d 03 74 8a bd c7 a5 85 3e
       0.1581569 0.10651699 -0.06760409 0.2610304
0001a0 16 83 56 3e 3d f3 1c be 93 f8 36 be 95 88 25 be
       0.20948443 -0.15327163 -0.17868261 -0.16165383
0001b0 88 be 45 be 4e d6 99 3a 56 63 df 3c 05 87 c3 3d
       -0.19310963 0.0011736841 0.027269047 0.09547237
0001c0 10 af ad 3c 57 42 8b 3d e6 85 d8 bc 86 10 47 3e
       0.02120164 0.06799763 -0.026431035 0.19439897
0001d0 42 4c a7 3e 4c 59 52 be 96 f2 08 bd 36 f5 04 bd
       0.32675368 -0.20541877 -0.033434473 -0.032460414
0001e0 e4 bd 94 bb be 3c 42 3e 38 d7 27 be 17 d0 64 be
       -0.0045392383 0.18968484 -0.16390693 -0.22345005
0001f0 d1 92 75 3d 0c 8f 43 3e ad b1 41 be 03 22 5a bd
       0.05995447 0.19097537 -0.18915434 -0.053255092
000200 9d 46 52 bd 7f ba 8a be 5b 24 42 3e 87 d4 fa 3d
       -0.051336873 -0.2709541 0.18959181 0.122475676
000210 a1 5e a8 3d cb 15 05 bd a4 34 48 3e 01 10 b4 bc
       0.08221174 -0.032491487 0.19551331 -0.021980288
000220 3a 97 fb bd 96 7e d0 3d c7 00 11 3e 6c 89 0a 3d
       -0.122847036 0.10180394 0.14160453 0.033822462
000230 7e d0 c8 3d 40 9b c9 3c 75 bb 7b 3d c0 1d 01 be
       0.09805392 0.024610162 0.06145807 -0.12609005
000240 63 7f 5f 3d 50 35 db 3d b5 d0 11 3d c7 39 49 bd
       0.054564845 0.10703528 0.03559943 -0.049127366
000250 bd 62 d4 3d c1 66 49 bc ce 7f 08 bd 35 68 3c 3e
       0.10370395 -0.012292565 -0.03332501 0.18399127
000260 a6 e7 0e 3e 16 6e d9 3c 94 41 4d 3e ef 30 13 3c
       0.13955554 0.02654175 0.20044547 0.008983835
000270 44 12 3c 3d 52 fc 97 3e 45 71 71 3d fc 17 21 3d
       0.045915857 0.29684693 0.058945913 0.039329514
000280 d6 71 29 bc e9 96 89 be 78 7d 6c bc ef 67 e3 3c
       -0.010342082 -0.26872948 -0.014434211 0.02775952
000290 9f fe e3 3c 1b 01 70 be d9 a2 1c 3c a3 b1 48 3e
       0.027831374 -0.23437922 0.00956031 0.19599013
0002a0 cb b3 ed bd ee 0f 11 3d ea d5 86 3e d6 63 64 be
       -0.116065584 0.035415582 0.26335078 -0.2230371
0002b0 1c 9c 2b 3e a4 96 0e be ec 35 21 be 2b c3 49 bd
       0.1675877 -0.13924652 -0.15743226 -0.049258392
0002c0 e2 ec c7 3d e6 31 80 be c2 84 c1 3d 81 ca 8e bd
       0.09761979 -0.2503807 0.0944915 -0.06972218
0002d0 21 cf 07 3e c4 3b 4f 3d 73 d5 3d be b4 bf af bd
       0.13262607 0.050594106 -0.18538456 -0.08581486
0002e0 49 7f 1b be 0a 98 27 3d 8b a0 f1 bd d2 0b 68 3e
       -0.15185274 0.04091648 -0.11798199 0.22660759
0002f0 dc b7 9e 3e 85 47 6d bc e8 ca 9b 3d 80 99 6f be
       0.3099965 -0.014482384 0.07607061 -0.233984
000300 52 9b 77 3e 8d d1 3e be 57 f6 d3 3d 26 56 c4 bc
       0.24180344 -0.18634625 0.1034972 -0.02396686
000310 f5 42 c0 3d 7b cc 73 3d 38 1d 5e 3d 82 6c 02 be
       0.09387771 0.05952118 0.054227084 -0.12736705
000320 ef db 9d bd 2c 86 92 3e 42 6d 1c be a6 c2 d7 bd
       -0.07707965 0.2861799 -0.15276054 -0.10535173
000330 56 b8 13 be 53 0c 50 3e 84 95 11 3e b9 51 63 3c
       -0.14425787 0.20317201 0.14217192 0.013874465
000340 19 9e b7 bc 60 e0 77 be fb 09 47 be 39 91 99 3d
       -0.022414254 -0.24206686 -0.19437401 0.07498402
000350 94 cc d5 3c ab fc c2 3d 4f a5 43 be e3 69 54 3d
       0.026098527 0.09520849 -0.19106029 0.051858794
000360 8f 83 c9 bd ba 78 3e 3e f0 06 1a 3e 44 79 1d 3e
       -0.09839546 0.18600741 0.15041709 0.1537829
000370 49 52 3b 3c fb 41 cf 3c 15 c9 8e bc 21 f0 cc 3d
       0.0114331925 0.025300017 -0.017429868 0.100067385
000380 24 20 49 be f2 fd fe bd 90 97 cf 3d 17 a0 c7 bc
       -0.19641167 -0.1245078 0.1013633 -0.024368329
000390 b3 f9 e1 3d 15 cd 03 3e cc 55 1f bc 94 7f 57 3c
       0.110339545 0.12871201 -0.009725045 0.013152976
0003a0 de 5b 3e 3e c7 f4 17 3d 9f c6 66 3e 31 08 51 3c
       0.18589732 0.037098672 0.22536705 0.012758301
0003b0 16 cc ea bd 62 bc 6c 3e dc d5 16 be 3b b8 24 3e
       -0.114647076 0.23118737 -0.14730018 0.16085903
0003c0 d9 98 d4 bd c0 47 a1 3d e6 31 46 be c2 9b eb bd
       -0.10380716 0.07875013 -0.19354972 -0.11504318
0003d0 a1 01 2a bd 19 39 cf 3d b5 64 3e 3d 01 f3 78 3d
       -0.04150546 0.101183124 0.04648276 0.06077862
0003e0 24 36 04 3e e9 56 6b be 46 03 04 bd b6 7a 5d bd
       0.12911278 -0.22982372 -0.032229684 -0.054072104
0003f0 80 50 40 be 52 17 e4 3d 39 6b 1f bd 0b a6 21 be
       -0.18780708 0.111372605 -0.038920615 -0.15785997

arith.constant11 f4 [32, 1, 3, 32]
000000 3f 6d a6 be 8f 6c 8d 3e 8d 70 44 3e ca c3 48 3d
       -0.32505223 0.27621886 0.1918356 0.049014844
000010 1c 07 49 3e 12 3b 5f 3d ad 50 5e be ff 16 41 3d
       0.19631618 0.054499693 -0.21710463 0.04714107
000020 07 1e ac 3d ec fb 30 bd 9c fa ce 3d ff 7f 73 bc
       0.08404165 -0.043209 0.10106394 -0.01486206
000030 69 6c 11 be f5 b0 84 bc fa d5 56 3e 04 56 c6 bd
       -0.14201511 -0.016197661 0.20980063 -0.09684375
000040 7d 86 4f 3d 4a 6d 89 3e 7a 6e 1c 3e 3f 5e 3a 3e
       0.050665367 0.26841193 0.15276518 0.18200015
000050 98 31 26 3d 4c c5 89 3d 94 06 0a 3e e4 02 76 be
       0.04057464 0.067270845 0.13479072 -0.2402454
000060 af fe 54 bd 84 ba 30 be ab b8 6f 3d 3a e8 cf bd
       -0.052000698 -0.1725865 0.058525722 -0.101517156
000070 83 fb dc bc 6c 0b 25 3d f4 7c e9 3d 99 07 b9 3d
       -0.026975399 0.040294096 0.11400786 0.09034652
000080 72 99 29 be 61 28 e1 bd 7c 1a 70 bd 27 5e 85 be
       -0.16562441 -0.1099403 -0.058619007 -0.26048395
000090 6c 6e 47 3e 21 91 df 3d bc b7 7b 3e 95 ae 87 3e
       0.19475716 0.10916353 0.24581808 0.26500383
0000a0 66 09 1c bd ab 41 1e bd e7 29 a9 bc fe a1 e3 3d
       -0.0380949 -0.038636845 -0.020649863 0.11114882
0000b0 8d ea 14 3e 89 20 89 bd ee ce a7 be 9d e6 29 3e
       0.14542599 -0.06695659 -0.32775062 0.16591878
0000c0 42 17 86 bd 60 f1 4a 3e 40 53 c3 bd 51 64 00 3e
       -0.06547405 0.1981864 -0.09537363 0.12538268
0000d0 b0 7d 74 be e6 d2 86 bd 1a ad d1 bd 78 fa e0 bd
       -0.23876071 -0.065831944 -0.10238095 -0.10985273
0000e0 38 48 d5 3c 82 69 07 be 50 00 54 3d 10 7e 83 3e
       0.026035413 -0.13223842 0.05175811 0.25682116
0000f0 85 3d fc 3c 1b ec e1 bd 73 35 92 bc 99 12 91 3b
       0.030791054 -0.11031362 -0.017847752 0.004427266
000100 be ac 86 be e7 ce 16 be e2 51 cd 3c e8 ff 85 3e
       -0.26303667 -0.14727364 0.025063459 0.26171803
000110 0f 81 ec 3c 18 5b 98 3d 6b 99 4d 3e 01 e9 03 3e
       0.028870134 0.0743925 0.20078056 0.12881853
000120 27 56 3f 3e 06 e9 54 3b 95 b6 10 be 43 6f 9d be
       0.18685208 0.0032487526 -0.1413215 -0.30748948
000130 e5 e3 47 3d 89 93 83 be ee dc 80 3d 21 a9 2f be
       0.04880132 -0.25698498 0.06292139 -0.17154361
000140 c0 9d ca 3b 46 b4 62 be c4 de 65 3e 8a 8e d6 bd
       0.006183356 -0.22139081 0.2244826 -0.10476406
000150 da ee 90 3d b6 37 1c be e3 ac 37 3e 44 42 33 bb
       0.07076807 -0.15255627 0.17937045 -0.002735273
000160 dd 9d c3 bd f6 83 95 3e d6 41 85 3e 44 ff b3 3d
       -0.095515944 0.2920224 0.2602679 0.087889224
000170 5c bf ea 3d 04 d8 19 3c 8d 5e 5d 3e 04 0d 93 3e
       0.1146228 0.009389881 0.216181 0.28720868
000180 bc 45 81 3d 6c 29 53 3d 5e 8a 80 3d 6c a8 16 3e
       0.06312129 0.051553175 0.062763914 0.14712685
000190 56 b7 cb bd e6 3d e3 3d 06 56 1a 3e 94 48 02 3e
       -0.09947078 0.110957906 0.15071878 0.12722999
0001a0 09 08 f2 bc ed 5c 03 3d 78 cf 9a 3c 0d 3d 25 3b
       -0.029544847 0.032071043 0.018897757 0.002521339
0001b0 9f a4 ad b8 0c d9 c8 3d eb 0a 76 be eb b9 ad 3d
       -8.279946e-05 0.098070234 -0.24027602 0.08482727
0001c0 8a de 51 be cf ee be 3d ec df 7d 3e 89 71 01 be
       -0.20495048 0.09322893 0.2479245 -0.12640966
0001d0 19 65 90 be 0a 34 3f be 27 b1 05 3d 0d 31 29 be
       -0.2820213 -0.18672195 0.03263965 -0.16522618
0001e0 3d 5c 80 be 23 8e 02 3e 01 67 03 3e 72 14 51 3e
       -0.25070372 0.12749533 0.12832262 0.20417956
0001f0 1b 14 c4 3c 04 ca 84 3e f2 c6 8c bd b4 ea 90 bd
       0.023935368 0.25935376 -0.06873883 -0.07076016
000200 0b 39 60 bd 1d 8f cf bd 83 28 6d 3d 14 f2 16 3e
       -0.0547419 -0.101347186 0.057899963 0.14740783
000210 a2 e3 5f bd af 44 91 be 9b bd 1c 3d 93 cd 64 be
       -0.054660447 -0.28372714 0.03826676 -0.22344045
000220 ef 9e 83 3e eb 95 e9 bd 6b d5 b4 3d ef 93 83 be
       0.25707194 -0.11405548 0.08829769 -0.25698802
000230 1b 78 83 3e 5f 7c 94 be e4 b8 da bd 52 23 c7 3b
       0.2567757 -0.29001138 -0.10679796 0.0060772086
000240 8f 82 0d be da 37 1d 3e 89 81 5f 3e 34 a6 79 3d
       -0.13819335 0.15353337 0.21826757 0.06094952
000250 82 91 55 3e 2a aa 96 bd bb 01 27 3e 87 6a ea 3d
       0.20856288 -0.07356675 0.16309254 0.114461
000260 89 2e 92 3e 41 2f a1 3e e5 df 85 be 11 4e 23 bd
       0.28551129 0.31481364 -0.2614738 -0.03986937
000270 ec c1 77 be 8d 31 34 3e ee ef df 3c 14 fb 84 3c
       -0.24195069 0.17597027 0.027336087 0.016233005
000280 3a f8 77 bd 07 9f 89 be 35 eb 7c 3e 0d 45 2d bc
       -0.06053946 -0.2687914 0.246991 -0.010575545
000290 d1 b3 11 3e 3b e4 80 3e 05 2e 94 3c f3 ad 36 3d
       0.14228751 0.25174126 0.01808835 0.044599485
0002a0 f5 d3 d1 3a 08 7b 39 3c 30 3f 84 3e 4c 15 04 be
       0.0016008603 0.011320837 0.25829458 -0.12898749
0002b0 a0 da b2 3d d8 83 49 be 75 7f 05 be ca ad 18 3e
       0.08733106 -0.196792 -0.13036902 0.14910045
0002c0 29 cb ca 3d c6 ff 40 be b2 90 19 bd ca 1b 78 ba
       0.09902031 -0.1884757 -0.037491508 -0.000946459
0002d0 ef 26 d8 bd 40 e3 54 3e 46 21 f4 3d 37 ae 11 3c
       -0.10554301 0.20789814 0.11920409 0.008891634
0002e0 31 61 56 bd a9 d7 32 3e d7 5f 85 3e 48 59 20 3e
       -0.052338783 0.1746508 0.26049682 0.15659058
0002f0 92 83 12 3e b2 77 a0 be 34 fa 97 be 5a d4 1f 3e
       0.14308003 -0.3134132 -0.29683077 0.1560835
000300 9a 15 c6 bd 18 4c 10 3e 6b 2a ac bc cf b4 0c be
       -0.09672089 0.14091527 -0.02101632 -0.13740848
000310 c9 9a 02 be 19 ce a7 bd 8c c0 cb 3c 01 cc d4 bd
       -0.12754358 -0.08193607 0.024872087 -0.10390473
000320 39 0c a9 3d 59 75 a9 3c c2 79 7e bd db b1 2b be
       0.082542844 0.020685839 -0.062127836 -0.16767065
000330 e2 7c da 3d 42 f0 76 be 50 0a b6 3d 13 77 61 be
       0.10668351 -0.24115089 0.08888686 -0.2201808
000340 81 31 0a 3d 5b e2 cb bd e7 3e f8 bd 44 e9 64 3c
       0.033738617 -0.09955283 -0.12121373 0.0139716305
000350 96 80 d1 bd 84 a5 82 3e 1d 03 89 3e 89 71 c8 bd
       -0.10229604 0.25516903 0.26760188 -0.0978728
000360 b4 20 38 3d 86 e3 c0 bd 58 4b 90 be a0 c9 12 3e
       0.044953063 -0.09418397 -0.28182483 0.14334726
000370 30 d1 77 3c 84 b8 a4 3d 0a 35 93 be 07 d5 b1 bd
       0.015125558 0.08043006 -0.28751403 -0.0868321
000380 04 61 b5 3d 91 de af 3d a3 19 6e 3d fb a8 70 3d
       0.08856395 0.08587373 0.058129918 0.058754902
000390 a9 c2 48 3d 85 1f 14 3e a6 bf 4d bb f5 d7 f4 bc
       0.049013767 0.14465149 -0.003139475 -0.029888133
0003a0 8e c2 1c be f2 bb 52 be 49 be a7 3d ba d1 15 3e
       -0.15308592 -0.20579508 0.08190591 0.14630786
0003b0 b8 c2 22 be e3 64 22 3e 3f f3 43 be 0d f4 c4 bd
       -0.15894592 0.15858798 -0.1913576 -0.096168615
0003c0 1d 9b 02 3e 8e ac 28 3e dd d8 8a 3d 3f cd 87 3e
       0.12754484 0.16472074 0.06779645 0.26523778
0003d0 85 b2 90 3d 37 9e 02 be eb 57 fa bd 55 d6 82 3d
       0.070653 -0.12755667 -0.122238 0.06388537
0003e0 6c a3 07 3e 68 33 84 3e bd af 23 bc ae 58 15 3e
       0.13245934 0.2582047 -0.00999063 0.1458461
0003f0 bb 23 a8 3e 1c 9f b5 be 81 d4 dc bd 87 ef 32 bd
       0.3283976 -0.35472953 -0.107827194 -0.043685462

arith.constant12 f4 [32, 1, 3, 32]
000000 cd 82 4b 3e a1 21 01 be 56 f6 82 3e 20 d3 59 be
       0.19874115 -0.12610485 0.25578564 -0.21271944
000010 c3 a0 b6 3c 2d 90 12 3e a5 c5 04 be 2d b3 81 be
       0.022293454 0.14312811 -0.1296602 -0.25332013
000020 f9 ab de bc 1a 5d 05 be b3 ef 42 be 0b 31 c3 39
       -0.027181612 -0.13023797 -0.1903675 0.00037229838
000030 24 8f 15 3e bc ac 69 3e be 9d 39 be 14 c7 22 be
       0.14605385 0.22819799 -0.1812658 -0.15896255
000040 3e 9c 27 3e d7 39 72 3e bd b4 86 3d c5 7c 4c be
       0.16368195 0.23654877 0.06577442 -0.19969471
000050 f3 14 2e 3e 80 fc 60 be ad 50 a3 bb d2 09 36 bd
       0.17000179 -0.21971321 -0.0049839825 -0.04444296
000060 ce 98 56 bc ce 6b 70 be bd 39 5f 3e b2 53 6e bc
       -0.013097955 -0.23478624 0.21799369 -0.014546322
000070 85 06 91 be b1 c0 03 be d9 5c 16 3e f4 c3 c9 3c
       -0.28325287 -0.12866475 0.14683856 0.02462957
000080 a1 0e 99 3d ae 6d 7e 3c 7a 25 97 3e 72 ea 1b 3e
       0.07473493 0.015529079 0.2952078 0.15226153
000090 41 da 42 3e 33 a7 a5 bd aa 91 a0 3e 23 b3 05 3d
       0.1902857 -0.08088531 0.31361133 0.03264154
0000a0 52 67 60 be f4 d3 c7 bd ee 2e 75 3e 84 c3 86 3e
       -0.21914414 -0.09757224 0.23943684 0.26321042
0000b0 f4 16 14 3e 65 1c b4 39 00 ab 1d be 79 43 a5 ba
       0.14461881 0.0003435343 -0.15397263 -0.0012608609
0000c0 c4 4e 20 3d 1c f1 cb bd cd d9 fd bc 56 6d 87 bd
       0.039137617 -0.09958097 -0.030987645 -0.06612651
0000d0 92 20 35 3c e3 6d 3d 3e c7 b0 b1 bd 77 b5 39 bd
       0.011055129 0.1849895 -0.08676296 -0.045339074
0000e0 ff 75 6c be 98 b7 a9 bd 84 70 16 be e6 ce 29 3d
       -0.23091887 -0.08286971 -0.14691359 0.04145708
0000f0 61 d3 8a 3e 97 79 9a bd c4 f3 36 be b6 42 e5 3c
       0.27114394 -0.07542723 -0.17866427 0.027985912
000100 25 98 6f be e6 18 f2 bd f6 9a 50 3e a6 9f 9f be
       -0.23397882 -0.11821155 0.20371613 -0.3117649
000110 24 c9 83 be 84 3a ac bd 88 34 17 3e 29 06 e8 bd
       -0.25739396 -0.084095985 0.14766133 -0.113293
000120 be ee 56 bd 6a e8 9d 3c 91 5e 48 3d 49 23 81 3e
       -0.052473776 0.019275863 0.04891831 0.25222233
000130 bd b9 10 bd bf c9 c9 bd fb 0d 73 be 39 ff 8b 3d
       -0.035333384 -0.09852933 -0.23735802 0.06835789
000140 da 73 f2 bd 04 4d 5e be 74 7c 2b 3d 3b 6a df bd
       -0.11838503 -0.21709067 0.041866735 -0.10908934
000150 46 5a 8b 3d 3f 4c 28 3e 5f 96 ed 3c 47 52 97 3d
       0.06804328 0.16435336 0.029002367 0.0738874
000160 34 f8 18 3e 1f eb 08 3e e7 cf c6 3d 4c 64 f6 bd
       0.14938432 0.13370942 0.09707623 -0.12030849
000170 78 15 05 3e 67 92 20 3e 31 5a b2 bd 6b b2 92 bd
       0.12996471 0.15680848 -0.08708609 -0.07162937
000180 b5 60 b6 bc 2d 84 03 be 2e ff 7f 3c 7c f5 57 3e
       -0.02226291 -0.1284339 0.015624804 0.21089739
000190 7d e1 7f 3e 46 80 a7 3d fb 4e 88 be 47 f4 d5 bd
       0.2498836 0.08178763 -0.26622757 -0.10446983
0001a0 b9 21 90 be ee cf a3 3d 4b 6d 68 be 95 b6 a1 bd
       -0.28150728 0.07998644 -0.22697942 -0.07896153
0001b0 5c 1b 5f 3e 55 b1 fc bd 42 07 da 3d a4 7a 96 bd
       0.2178778 -0.12338511 0.106459156 -0.073476106
0001c0 c0 31 4e 3e b0 a6 95 3d 86 5f 02 be 56 31 0c bd
       0.20136166 0.07307184 -0.12731752 -0.034226738
0001d0 73 46 bf bd d5 a6 9a bc d2 24 20 3e fd 48 13 3e
       -0.09339609 -0.01887838 0.15639046 0.14383312
0001e0 f5 00 2c 3e b9 02 bd bd 81 8d 22 bc ae 1a 07 be
       0.1679724 -0.09229035 -0.0099214325 -0.13193771
0001f0 e7 d2 ca bd 87 5d 83 3e 65 40 46 3e 94 12 93 bd
       -0.09903508 0.25657293 0.19360502 -0.07181278
000200 7f 07 30 be 99 da 84 3d 86 9d 90 bd ff 9c ad bd
       -0.1719036 0.06487007 -0.07061295 -0.0847721
000210 6b 29 73 3e d6 db 80 bd ff 12 73 bd 37 30 84 3d
       0.23746268 -0.062919304 -0.059344288 0.06454509
000220 4a 78 36 bd a3 25 69 bd 25 88 3e bc 5a d6 9f bb
       -0.04454831 -0.05692066 -0.011629139 -0.0048778476
000230 af b8 ea bb e9 f1 11 3e 81 9c 35 be 1f 1b 07 3c
       -0.0071631293 0.14252438 -0.17735483 0.008246212
000240 33 d1 7c be 43 e1 17 bd 16 78 64 be 53 8b 53 bd
       -0.24689178 -0.03708006 -0.22311434 -0.05164654
000250 02 a0 0f be 9c d5 dc bd 8b 88 8a be 63 0b f2 bd
       -0.14025882 -0.1078293 -0.270573 -0.11818578
000260 1c e1 91 bd 98 44 89 be 11 52 16 bd 8c fe 7c be
       -0.07123014 -0.26810145 -0.03669936 -0.24706477
000270 ef 1e 12 be 8d e2 6d 3e 6d 8e 5e 3d 8b ac 9c be
       -0.14269613 0.23230954 0.054335047 -0.3060039
000280 f0 79 4d be 97 f7 a3 be d9 d0 16 3e 19 49 8d 3d
       -0.20066047 -0.32024834 0.14728107 0.06898708
000290 4f 37 2f be d9 a7 c3 3d f1 77 94 3e 81 34 e0 bd
       -0.17110942 0.09553499 0.28997758 -0.10947514
0002a0 b3 9a 8b be a9 63 b8 bd 75 29 d6 bc 34 7f 03 3e
       -0.27266464 -0.09003384 -0.026142815 0.12841493
0002b0 b9 1a 74 bd 17 11 60 3b db c4 e5 3b 38 eb 10 3e
       -0.059595797 0.0034189874 0.0070119924 0.14152229
0002c0 19 f0 1d bd 72 36 e4 3d 0a 01 c1 bd 5b f6 6d bd
       -0.038559053 0.11143197 -0.09424026 -0.05809627
0002d0 50 04 0d 3e 68 83 4f 3c ea d1 c7 3d 2a ba 1a be
       0.13771176 0.012665607 0.09756835 -0.15110078
0002e0 7d a5 01 3e c9 e5 18 3e 8d dd 2a be fd af e1 3d
       0.12660785 0.14931406 -0.16686077 0.11019895
0002f0 e1 5f 7e 3e c0 22 f3 3d 34 e0 4a 3e a7 fe 59 be
       0.24841262 0.118718624 0.19812089 -0.21288548
000300 cf 31 0c be 2c 34 0e 3e e2 b2 49 be 21 06 9e 3d
       -0.13690875 0.1388709 -0.19697145 0.07716013
000310 01 13 87 bd a6 d8 b6 3d d5 93 91 be c6 27 40 3e
       -0.065954216 0.08928041 -0.284331 0.18765172
000320 67 9f 5a bc a9 ad 46 3d f5 6b 6c 3d 47 e9 ce bb
       -0.013343669 0.04850546 0.057720143 -0.00631443
000330 b5 c6 a6 3e b0 6b 8e 3d 20 08 42 3d 8c 3c d1 3b
       0.32573476 0.069541335 0.04737103 0.0063853916
000340 0b 00 3f 3e e9 b6 05 be 74 89 97 bd b5 ae 5e bd
       0.1865236 -0.13058056 -0.07399264 -0.054365832
000350 47 44 31 3e 01 f7 37 bd 0c 39 c5 3d a4 15 09 bb
       0.17311202 -0.044913296 0.096300215 -0.002091744
000360 eb a2 6d 3d 82 4d 7d 3e e7 99 dc bd f8 72 03 bd
       0.0580167 0.24736598 -0.10771542 -0.032092065
000370 87 ce 5a 3d db 90 06 be e8 7b 49 bd 4f 47 7e 3e
       0.053419616 -0.13141195 -0.04919043 0.2483189
000380 37 26 3f be ea 96 fe 3d 7e 82 e3 3d 31 5d 82 3d
       -0.18666922 0.12431128 0.11108874 0.06365431
000390 54 59 0e 3e 67 a0 48 3e 78 91 51 3e a8 99 47 3e
       0.13901263 0.19592439 0.20465648 0.19492209
0003a0 93 0a c1 3c 1b 90 b1 3c 89 6b 9f 3e da 0e 07 be
       0.023564612 0.02167516 0.3113673 -0.13189259
0003b0 d1 ab 01 be 44 f2 4e be 37 b8 1e 3e 47 2f bd 3d
       -0.12663199 -0.20209605 0.1549996 0.09237533
0003c0 f2 f8 8d be 24 c6 33 3d 94 26 3f 3e e4 39 3a bc
       -0.27728993 0.043890134 0.1866706 -0.011366341
0003d0 d1 b8 4b bd 4a 80 f4 bd 17 dd a5 bc d7 1c 5e bd
       -0.0497368 -0.11938532 -0.020247025 -0.054226723
0003e0 04 71 b0 3d 14 6f 42 3e 85 bd f8 bd 43 14 23 bc
       0.08615306 0.18987685 -0.12145523 -0.009953561
0003f0 f1 34 0c be 5a 1e 00 be 89 da 86 be 33 ca bf bd
       -0.1369207 -0.12511578 -0.26338604 -0.09364738

arith.constant13 f4 [32, 1, 3, 32]
000000 ee 21 26 bd 6b 44 31 be bf a6 8b be 8f 7f 7c 3d
       -0.0405597 -0.17311256 -0.27275655 0.061645087
000010 c3 e6 c7 bd 5e 6b 43 3e a0 76 90 3d d0 b9 bd 3d
       -0.09760811 0.19083926 0.07053876 0.092639565
000020 83 86 1b 3e ba f3 fa bc ea 2c e3 3c df 2e fe bc
       0.15188031 -0.030633796 0.027731378 -0.03102821
000030 21 7d 6d be 52 10 48 be 02 29 0f 3d d6 8c e6 bc
       -0.23192264 -0.19537476 0.034951217 -0.028143328
000040 dc 1b 8b be a7 f3 bd bd 1c d4 d5 bd 64 f8 4f 3e
       -0.27169693 -0.092749886 -0.10440847 0.20309597
000050 84 92 6f bd 1c 02 c8 3d a8 32 ad 3d 99 2e 3c bd
       -0.058489338 0.09766027 0.084569275 -0.045942876
000060 26 55 2e be cf af e7 3c ea 5f 59 3e 8b 00 7f 3e
       -0.17024669 0.028282074 0.21227995 0.24902551
000070 1b 93 7b 3d 89 53 98 bd b1 6e f9 3d 91 d4 54 be
       0.061419588 -0.07437808 0.12179316 -0.20784213
000080 f3 2e 17 3e 86 c7 9c 3e d6 51 be ba 33 f8 81 be
       0.14764003 0.30620974 -0.0014520239 -0.25384673
000090 89 9d 4c be 3d d0 68 3c dd eb 85 be 9a 6a 10 bd
       -0.1998197 0.014209804 -0.26156512 -0.035257913
0000a0 64 a2 b4 bb ce 5b c8 3d ae 51 87 3e f7 70 1f 3d
       -0.0055125225 0.09783135 0.26429504 0.03892609
0000b0 24 32 f9 bd b1 de 15 3e 8a 04 83 bd af fe 82 be
       -0.12167767 0.14635731 -0.0639735 -0.25584933
0000c0 3b 79 0e 3e 2e d6 17 be a1 dc c3 bc 07 49 1a 3e
       0.13913433 -0.14827797 -0.023908915 0.1506692
0000d0 0f c3 fd 3d 83 de e4 bd 78 af 9b 3c fb 15 9c b9
       0.1239072 -0.11175253 0.019004568 -0.00029771015
0000e0 5c db 24 3d 8e 92 ab 3d ec 22 a4 bd 14 46 a7 3d
       0.04024826 0.083775625 -0.08014473 0.08167663
0000f0 8c fd 5e 3c 7f 0a 66 be 23 28 61 3e bb 30 69 3e
       0.013610255 -0.22464941 0.21987967 0.22772495
000100 dc 21 87 bd d8 be 20 be a9 33 91 be a8 5f 0a 3c
       -0.06598255 -0.15697801 -0.28359726 0.008445658
000110 b7 7c b3 be f3 77 ad 3d 5e fa 75 bd c0 02 b7 bd
       -0.35056087 0.08470144 -0.060053222 -0.089360714
000120 9e 56 37 3d e3 6a 31 bd e3 45 47 3e 1c e8 3e be
       0.04476034 -0.043314826 0.19460253 -0.1864323
000130 02 c1 72 3e d8 57 40 3e 32 86 62 be b1 11 52 be
       0.23706439 0.1878351 -0.22121504 -0.20514561
000140 9f 88 2e 3e ab 7b 3a be a0 dd d1 3d a9 3a 52 bd
       0.17044304 -0.18211238 0.1024735 -0.051325474
000150 1c a1 b7 bc 20 2c 40 bc 2d 0c c0 3e 7e a2 1f be
       -0.02241569 -0.01172927 0.3750929 -0.1558933
000160 98 e6 b2 3d a2 1d 3d be 4d e2 30 3e 1b af a2 3d
       0.087353885 -0.18468335 0.17273827 0.07943555
000170 10 41 1c be 54 9a 4a be 39 e2 aa bc 10 c9 d7 bd
       -0.15259194 -0.19785434 -0.020859824 -0.105363965
000180 02 95 5f bd e0 4a 22 3e 71 8b 57 3e c7 13 7b 3e
       -0.054585464 0.15848875 0.21049286 0.24519263
000190 77 95 5b 3d fa 3b 03 be a0 1d 45 be ae 71 39 3e
       0.053609338 -0.12815848 -0.19249582 0.18109772
0001a0 e2 b7 25 3e 53 b8 08 3c 1a 8d e5 bd 96 18 fa 3d
       0.16183427 0.008344728 -0.112085536 0.12211721
0001b0 e2 5b 20 bc 23 ee 4c bc 80 f6 01 bc 5d 53 36 3d
       -0.009787532 -0.012507948 -0.007932305 0.044513095
0001c0 fa 14 e4 bd ab ea 42 be 22 de 03 3e 9b a8 86 3d
       -0.111368135 -0.19034831 0.12877706 0.06575128
0001d0 fa 9c 3f 3e e6 ea 07 3c 79 41 46 3e ef 4c 59 be
       0.18712226 0.00829575 0.19360913 -0.21220754
0001e0 ea 13 4c 3e 71 3d a1 3e 3c b3 e8 bd d7 62 f4 bd
       0.19929472 0.3149219 -0.11362311 -0.11932915
0001f0 1a 37 9e 3e c2 d2 0e bd 82 76 17 3d b4 0b 05 be
       0.30901414 -0.034868963 0.036978252 -0.12992746
000200 3a 11 f0 bd f1 f6 7c 3d 17 dc 4d bb 0c 61 6b bd
       -0.11722036 0.06175894 -0.0031411701 -0.057465598
000210 7c 98 94 3e 52 d1 2e 3e 1a 3c a2 be b0 74 59 3b
       0.29022586 0.17072037 -0.3168648 0.0033181123
000220 63 5d 86 3e 18 4d d0 bd 24 b0 ae 3d cc 1e d2 3d
       0.26243123 -0.101709545 0.0852969 0.1025978
000230 69 a7 94 bd 69 84 0f be 4c 45 ad 3d 41 90 66 bd
       -0.072584935 -0.14015354 0.08460483 -0.056289915
000240 62 cb 27 3d 39 b7 88 bc 15 7f 32 3e 20 15 e6 ba
       0.040965445 -0.01668893 0.1743129 -0.0017553903
000250 54 e4 1b 3d 81 a6 35 3c c3 f4 a2 bd b3 a3 93 3e
       0.038059548 0.011087061 -0.07956841 0.2883583
000260 4e 3f 0b be f3 17 31 be 83 8f b0 3d 85 3c 51 3d
       -0.13598368 -0.17294292 0.08621123 0.051083107
000270 61 39 a4 be 98 89 bf bd dc 54 1c 3e 61 0c f6 bd
       -0.32075027 -0.09352416 0.15266746 -0.1201408
000280 58 e9 9c bd 57 51 bd 3b 79 3f 21 3d 81 28 63 bd
       -0.07661694 0.0057775187 0.039367173 -0.05545855
000290 1a 92 b5 3d db 74 49 be 0b 2c e7 3c d3 ba cb bd
       0.08865757 -0.19673483 0.028219244 -0.09947743
0002a0 c3 d4 5d be 15 b3 5a 3d a2 35 eb bd bf 34 ca bd
       -0.21663193 0.053393442 -0.11484839 -0.09873342
0002b0 33 78 ae 3d f4 3e 83 3d 67 67 83 3e 62 3f 28 3e
       0.0851902 0.06408492 0.25664827 0.16430429
0002c0 48 5d 0a 3e 72 45 86 be 86 b7 36 3e ac 7b b0 bd
       0.13512146 -0.26224858 0.17843446 -0.086173385
0002d0 eb f5 8f 3d ed 5a 20 3d 19 9d 3f 3d 90 9a 09 be
       0.07029327 0.039149214 0.04678068 -0.13437867
0002e0 47 b5 82 be ca 3d 22 3e 29 e4 1c 3e 43 8e 75 3e
       -0.2552893 0.15843883 0.15321411 0.2398005
0002f0 a6 4b df bd ac b6 15 be 27 21 9f 3c 7f b1 2c be
       -0.10903101 -0.14620465 0.019424988 -0.16864584
000300 35 b3 07 bd 7d 59 49 3a 29 ab 1a be 02 c5 a2 3e
       -0.03312989 0.00076808763 -0.15104355 0.3179093
000310 47 70 cc bd df 70 4b bd 42 dc 92 be 25 d5 10 be
       -0.09982353 -0.04966819 -0.28683668 -0.14143808
000320 66 4f 21 3e 05 bc 1b 3e 65 6b 55 3d e6 a2 f2 3d
       0.15752944 0.15208443 0.052104373 0.11847477
000330 a4 a4 9d be 67 4c 6d 3e 98 3c 4f 3d 2e 38 e4 bc
       -0.30789673 0.23173676 0.050594896 -0.02785882
000340 ae b1 8a bd 8b 97 05 3d bf 31 f8 bd 4e 1c b9 bc
       -0.06772171 0.032615226 -0.12118863 -0.022596505
000350 60 ff 24 3e 61 a2 b3 bd 96 8b 14 3e 94 90 b8 bd
       0.16113043 -0.08771206 0.14506373 -0.09011951
000360 12 d3 a6 bd 5e 3d 16 bc 05 fb 47 3e d1 3c 20 3e
       -0.08145727 -0.0091699045 0.1952935 0.156482
000370 e4 db 2b 3e 56 99 98 3d df bb d1 bc d5 5f 8d 3e
       0.167831 0.074511215 -0.02560228 0.27612177
000380 b2 2d 85 3d 47 cf 35 be 87 7a 32 3b 6d 5a 3d be
       0.06502856 -0.17754851 0.0027233677 -0.18491526
000390 30 18 5f 3e 50 9e e0 3d d9 a9 a2 bd 95 a0 62 be
       0.2178657 0.10967696 -0.07942552 -0.2213157
0003a0 a2 82 18 bd 6f 61 ee bd 69 3e ee bd 2c 4f e2 3d
       -0.037233956 -0.11639678 -0.116329975 0.11050257
0003b0 aa 38 08 3e 1a 7b 08 be 0a 8c 00 be 32 73 4c 3e
       0.13302866 -0.1332821 -0.1255342 0.19965819
0003c0 7d b1 b5 3d fd 30 e1 3c dc 55 15 3e 8c ea 55 3d
       0.08871744 0.02748918 0.14583534 0.052225634
0003d0 75 7e ab 3a 56 dd f5 3d 2f a3 56 3e 37 01 50 3e
       0.0013083952 0.12005107 0.20960687 0.20312963
0003e0 dd 9f 30 bd a7 15 83 bd 23 a5 87 3d 8a 96 f2 bd
       -0.043121208 -0.06400614 0.06623294 -0.11845119
0003f0 02 26 f0 bd 97 38 50 3c bb 42 59 3c 21 72 a6 3e
       -0.117259994 0.012708805 0.013260539 0.32508948

arith.constant14 f4 [32, 1, 3, 32]
000000 21 b3 f5 3d f3 87 ab 3d 39 57 2e 3e 14 5f b5 bc
       0.11997057 0.0837554 0.1702546 -0.022140063
000010 99 46 bf 3d a1 94 1f 3e a0 5d e2 bc f5 d5 88 3c
       0.09339637 0.15584041 -0.027632535 0.016703585
000020 51 d3 c0 bd 7e a2 11 be b5 95 47 be 15 23 c0 bd
       -0.094153054 -0.14222142 -0.19490702 -0.09381691
000030 43 6e 4c 3e 1b cc 8b 3c 98 ab 2b 3e a5 37 18 3e
       0.19963937 0.017065099 0.16764677 0.14864977
000040 11 47 a7 3d 08 89 07 be ec e2 3f be 75 d5 5c 3a
       0.08167852 -0.13235867 -0.18738908 0.00084241416
000050 68 c8 59 3e 19 25 e6 3d 03 7d 62 3d 60 b1 18 3e
       0.21267855 0.112375446 0.055295 0.14911413
000060 12 44 29 3e 8c d3 16 3c 80 9c 63 be a1 f4 83 3d
       0.16529873 0.00920571 -0.22227669 0.06443144
000070 11 ef 1f be a0 f3 4e be 09 19 23 be 12 a2 d1 bb
       -0.1561854 -0.20210123 -0.15927519 -0.006397494
000080 53 74 34 be a3 d0 34 be c1 5b 38 3d d8 e4 e7 3d
       -0.17622499 -0.17657714 0.04500938 0.11322945
000090 9d 53 de bd 48 2d 7e be be 72 02 3d 20 f8 54 3d
       -0.10855792 -0.24821961 0.031847708 0.051994443
0000a0 61 2a 2c be da c7 a9 3d 42 e4 bf bd 9d 2f 0d be
       -0.16813041 0.08290072 -0.093697086 -0.13787694
0000b0 8d 3e 3c 3d 1a 72 1e 3e 07 6f 12 bd 65 81 20 3e
       0.04595809 0.15473214 -0.035750415 0.1567436
0000c0 8d b3 03 3e 06 a9 8f bd bc 6c 96 3b b4 4f 48 be
       0.12861462 -0.070146605 0.004590599 -0.19561654
0000d0 a1 ac 3a ba 82 12 ed 3c da de df 3d 86 a1 a3 bd
       -0.00071210606 0.02893949 0.109311774 -0.079897925
0000e0 ae 5e e8 bc aa 55 36 3e 01 46 13 3c 75 3c 64 bd
       -0.02836546 0.17806116 0.008988858 -0.05572172
0000f0 fb c3 18 3c 0c d9 0f 3e ec 59 1a 3e e7 2d ae bd
       0.009324069 0.1404764 0.15073365 -0.08504849
000100 02 48 13 3d ae 2d 92 bd a1 ff 59 bd 6f 17 73 3c
       0.035957344 -0.07137619 -0.053222302 0.01483713
000110 0c 55 75 bc 3c 06 89 3e d2 27 7a be ac 74 86 3e
       -0.01497389 0.2676257 -0.24429253 0.2626089
000120 34 99 12 be de 45 bd 3d 4e ac 42 be c4 bf 75 be
       -0.14316255 0.09241842 -0.19011042 -0.23998934
000130 3c 7e aa 3c c5 d3 92 3e 06 f9 dc bd c8 a7 71 3e
       0.020812146 0.28677192 -0.10789685 0.2359916
000140 1a 19 4c 3d 52 97 99 be 74 2f c9 bd b0 30 84 3d
       0.049828626 -0.2999826 -0.09823504 0.06454599
000150 18 6a 95 3d 5a e8 56 bd 84 9c 72 3e 34 9d 56 3e
       0.072956264 -0.05246768 0.23692518 0.20958406
000160 1e da f1 bd e1 1e 43 3e 01 c6 38 bd fb a2 8c bc
       -0.11809181 0.19054748 -0.045110706 -0.017167559
000170 06 e9 e7 ba 42 20 eb bd a7 14 d7 3c 35 04 12 be
       -0.0017693348 -0.11480762 0.026254965 -0.14259417
000180 a3 0e 0c be 7f 7e e5 bd 5b 36 61 be 3b 82 9c 3e
       -0.13677458 -0.11205768 -0.21993391 0.30568108
000190 a4 ac 2a 3e 94 25 c2 bd 34 c2 9a 3e b3 3a 91 3d
       0.1666742 -0.09479824 0.3022629 0.07091274
0001a0 ed 34 c6 3c 70 ea c3 bd 80 9f 8a 3e b6 a6 3d 3e
       0.024195159 -0.095662 0.27074814 0.18520626
0001b0 fd ea 51 be 4f 0d 2f 3e 10 ad 98 bd 3d 4c 00 3e
       -0.20499797 0.1709492 -0.07454884 0.12529083
0001c0 85 1e e5 bd 48 da 2b 3e e7 1e 4c 3e a2 d2 d9 3d
       -0.11187462 0.16782486 0.19933663 0.10635878
0001d0 94 f0 c3 bd b0 c1 8b 3c d9 9c 0f be a7 b2 0a 3e
       -0.09567371 0.01706013 -0.14024676 0.13544713
0001e0 c4 d5 47 3b 94 14 3a 3e 41 ba 8e bc 92 4a 6e 3d
       0.0030492404 0.18171912 -0.017422797 0.058176585
0001f0 3e 86 bc bd e7 03 ab bd 55 47 59 3e 30 88 d9 bc
       -0.09205292 -0.08350354 0.21218617 -0.026554197
000200 ae 4e c8 bd c1 b1 00 3d 23 53 29 3d 60 2c f0 bb
       -0.09780632 0.03141952 0.04133905 -0.0073295087
000210 3e 88 d8 3c 79 5f 13 be e3 02 4a be 29 8d 8c be
       0.026432153 -0.14391889 -0.19727664 -0.27451447
000220 68 d2 f5 3d 3b 5a 2f 3c 66 74 86 3d 7c 66 ab be
       0.120030224 0.010702665 0.0656517 -0.33476627
000230 7f c2 53 bd 53 e4 8f 3e 6c 2f 5f be 04 aa 8b bb
       -0.051699158 0.28103885 -0.21795434 -0.004262211
000240 a8 64 47 be 5b cf 2b 3d 61 1d b1 3d 18 34 99 3c
       -0.19471991 0.041945796 0.08648182 0.018701598
000250 51 8c c4 bd 12 c9 33 bd c6 02 82 be 13 5c 12 be
       -0.09597076 -0.043892927 -0.2539274 -0.14292936
000260 c5 f7 92 3e 7d ae de bd 22 75 c4 3d 0e 35 2d 3e
       0.28704658 -0.10873125 0.09592654 0.1691477
000270 21 77 21 3e ef 8e 45 3c 79 c0 2b 3e af c2 e7 bd
       0.157681 0.012058004 0.16772641 -0.1131643
000280 fc 8b 5f bd c9 58 66 3d 6a 54 4c 3c 2d 15 98 bd
       -0.05457686 0.056237016 0.012471298 -0.07425914
000290 3d 17 12 3e a5 4b 44 be 45 b8 44 be 78 ed 45 3b
       0.14266677 -0.19169481 -0.19210918 0.0030201357
0002a0 c2 e6 0c 3d da e6 1c 3e 94 88 21 3e 71 4c 76 bd
       0.034399755 0.15322438 0.15774757 -0.060131494
0002b0 b5 91 da bd fc d5 1d 3c 41 98 65 be 21 15 9d 3d
       -0.10672323 0.009633537 -0.22421362 0.07670046
0002c0 9e 76 17 3b 6b 88 60 3e a0 e2 06 be 34 62 83 3e
       0.0023111473 0.2192704 -0.13172388 0.2566086
0002d0 41 c7 40 be 66 95 8e 3e 94 84 91 3c 73 bd cd bc
       -0.1882601 0.27848357 0.017763413 -0.02511475
0002e0 64 49 03 bd 16 b7 30 3c d2 a7 d2 bd 76 56 62 3d
       -0.032052413 0.010785839 -0.102859154 0.055258237
0002f0 87 64 72 be 7a fe 06 3c 39 94 fb bd 94 ef 49 bd
       -0.2367116 0.008239383 -0.122841306 -0.049300745
000300 69 bc 53 be 7c 6d 80 bd 47 30 7f be 96 d4 91 3b
       -0.20677342 -0.062708825 -0.2492076 0.004450391
000310 b3 1e 13 be a1 06 32 bd 7e 41 90 3e ab 66 fc 3d
       -0.1436718 -0.043463353 0.28174967 0.1232427
000320 7a cb 25 bd 81 96 3b be 41 0c 51 3e 71 13 1d bd
       -0.040477253 -0.18319131 0.2041483 -0.03834862
000330 2a c1 a5 3d 6b 47 5c bd 03 b5 19 3e 4b d5 dd bd
       0.08093484 -0.053779047 0.15010457 -0.10831698
000340 17 3b 7c be 7a 76 34 bc 2a af 2c 3d da 6b 0b be
       -0.24631916 -0.011014575 0.042159237 -0.13615361
000350 33 19 03 3c f2 35 37 be 3d af 60 3d 6d c5 26 bd
       0.008001613 -0.17891672 0.05485462 -0.040715624
000360 37 13 09 3d d4 64 bb 3d f8 c8 c5 bc 00 23 4b 3e
       0.03346559 0.09150091 -0.02414368 0.1983757
000370 99 16 04 be 1b 62 be bd 10 35 66 be a1 24 67 be
       -0.12899245 -0.09296056 -0.22481179 -0.22572567
000380 c3 bc 5f be 77 01 fe 3d 5a 78 86 3e 3e e4 ec bd
       -0.2184935 0.12402623 0.26263696 -0.11566971
000390 f7 85 d9 3c 99 a3 8e be e0 45 bb 3d 39 b0 a4 be
       0.026553137 -0.2785919 0.09144187 -0.32165697
0003a0 33 ce 6d 3e 85 b7 8f 3e 31 a1 f7 bd d4 fa 02 bc
       0.2322319 0.28069702 -0.12091292 -0.007994372
0003b0 fe 53 5b bd 06 13 3a be bf 88 fc bd 7f a6 82 be
       -0.053546898 -0.1817132 -0.1233077 -0.2551765
0003c0 8c 0a 3f 3e 5c 0f 83 3d 82 16 2f be 0b 82 6e be
       0.18656367 0.06399414 -0.1709843 -0.23291795
0003d0 1a 76 c0 bd 2a 24 1f bd 22 3a 05 3e d9 06 4b 3e
       -0.09397526 -0.038852848 0.13010457 0.19826831
0003e0 6c ad 1c bd f7 d6 46 3e 1e 29 45 3d 6b 78 8b bd
       -0.038251325 0.1941794 0.048134916 -0.06810077
0003f0 4a 89 e6 3d 5e a3 8b 3d 2d 34 35 be a4 3e c9 3d
       0.112566546 0.06818269 -0.17695685 0.09826401
