final/model.tflite (tflite, 595144 bytes, 31 tensors)

arith.constant f4 [64]
0	0xbadb0e67	-0.0016712666
1	0xbc8917b8	-0.016734943
2	0xbd0d8f06	-0.034560226
3	0xbc76a974	-0.015055049
4	0xbca8a35f	-0.020585714
5	0xbcf96ba7	-0.03044684
6	0xbbf3b9f9	-0.007437941
7	0x3bb15c66	0.005412626
8	0xbb6f7212	-0.0036536497
9	0xbcf496ad	-0.029857004
10	0xbd290374	-0.04126306
11	0xbac21db0	-0.0014809873
12	0xbd07fd68	-0.03320065
13	0xbc1b0f64	-0.009464119
14	0xbbd626f6	-0.006535406
15	0x3d0289f8	0.03186986
16	0x3cad0bc9	0.021123784
17	0xbd0262e1	-0.03183258
18	0x3d21ca64	0.039499655
19	0xbccedf15	-0.025252858
20	0xbce8b2de	-0.028405603
21	0x3b852376	0.004063065
22	0xbc1ffdf6	-0.009765139
23	0x3bfbeb24	0.007687943
24	0x3b9dde11	0.004817732
25	0xbc7aed8e	-0.0153154265
26	0x3c9024e3	0.017595714
27	0xbcdcf64d	-0.026972914
28	0xbc69b9ba	-0.014265472
29	0xbd3b24e6	-0.045689486
30	0xbc1e9027	-0.009677923
31	0xbc019f44	-0.007911507
32	0xbc169dc8	-0.009192891
33	0xbc497581	-0.0122960815
34	0x3cea233f	0.02858126
35	0x3bdb3d10	0.006690629
36	0xbc93ad73	-0.018027043
37	0xbc9ce4ea	-0.019152123
38	0x3b8af59d	0.004240705
39	0xbccc7c06	-0.024961483
40	0x3bc8c1f9	0.006126639
41	0xbcd1c6de	-0.025607523
42	0xbbaa73cc	-0.0052017923
43	0xbd1d2b52	-0.03837139
44	0xbce9d31d	-0.02854305
45	0x3cd3ae3a	0.025839914
46	0xbc6138f0	-0.013746485
47	0xbd1b606b	-0.03793375
48	0xbc1b9ecc	-0.009498309
49	0xb92048b4	-0.00015285873
50	0x3c87dc14	0.016584434
51	0xbc97a374	-0.018510558
52	0xbd0473e0	-0.03233707
53	0xbc8964aa	-0.016771633
54	0xbd001b69	-0.03127614
55	0x3bccea0c	0.0062534865
56	0xbbebced8	-0.0071962886
57	0x3c043e8b	0.008071552
58	0xbd157ec7	-0.036497857
59	0xbc90bc88	-0.017668024
60	0xbc1a0fbd	-0.009403166
61	0xbbff441c	-0.0077901017
62	0x3d0ea048	0.034820825
63	0xbc951760	-0.018199623

arith.constant1 f4 [64]
0	0x3bb50223	0.0055239364
1	0xbae1c556	-0.0017224948
2	0xbc58ac2d	-0.013224644
3	0xbcad1f6b	-0.021133145
4	0xbc48cd98	-0.012256049
5	0x3bd70e9c	0.006563021
6	0xbbbffcc6	-0.0058589904
7	0xbc8bf40a	-0.01708414
8	0xbc873b05	-0.016507635
9	0xbcd52954	-0.026020683
10	0xbc208d78	-0.009799354
11	0x3c50f1fc	0.012753006
12	0xbcc21104	-0.023689754
13	0x3c4f0265	0.012634848
14	0x3a9ad639	0.0011813111
15	0x3d0d67a5	0.03452267
16	0x3cd21b41	0.025647761
17	0xbd0a461e	-0.033758275
18	0xbaa87a48	-0.0012853825
19	0xbc05a8c2	-0.008157911
20	0xbcc4d700	-0.024028301
21	0x3afa9d86	0.0019120432
22	0xbc8896e0	-0.016673505
23	0x3c41b258	0.011822306
24	0xbb587b8d	-0.0033032626
25	0xbc07216f	-0.008247717
26	0xbaa86f6e	-0.0012850591
27	0xbbf55cf1	-0.007487886
28	0x3acd01a5	0.0015640749
29	0xbd50a7f7	-0.050941434
30	0xba8bfc3d	-0.0010680031
31	0xbc852be2	-0.016256277
32	0xbbe2a1be	-0.006916254
33	0x3b2332ab	0.0024902027
34	0x3d179294	0.037005022
35	0x3bca58e3	0.006175147
36	0xbcb51797	-0.022105975
37	0xbc34c575	-0.011033406
38	0x3c616d87	0.0137590235
39	0xbc083f13	-0.008315819
40	0xbb539fcd	-0.0032291294
41	0xbd01d36a	-0.03169576
42	0xbc3206f7	-0.010865918
43	0x3c3ad12e	0.011402411
44	0xbc82cbd7	-0.015966339
45	0xbcc206f6	-0.02368496
46	0xbcd69869	-0.026195722
47	0xbce5f78f	-0.028072147
48	0xbb9020f2	-0.0043984586
49	0xbc477283	-0.012173298
50	0xbc712d07	-0.014720208
51	0xbcab93f3	-0.020944571
52	0xbc7c9409	-0.015416154
53	0xbc155516	-0.009114524
54	0xbccb382c	-0.024807058
55	0x3c3a2267	0.011360741
56	0xbc38b775	-0.011274208
57	0xbb897c51	-0.004195728
58	0x3b76f4a2	0.0037682434
59	0xbc04a7b2	-0.008096622
60	0x3c69e831	0.01427655
61	0xbc736170	-0.014854774
62	0x3c16327c	0.00916731
63	0xbad8b19d	-0.0016532425

arith.constant2 f4 [64]
0	0xbcd30f36	-0.02576409
1	0xbbea17f2	-0.007143968
2	0xbca10d24	-0.019659586
3	0x3a9986c7	0.001171314
4	0xbc58ae9d	-0.013225225
5	0x3bc16efd	0.0059031234
6	0x3b4fdb78	0.0031716507
7	0x3c93b673	0.018031335
8	0xbd1de336	-0.038546763
9	0xba508cb8	-0.0007955539
10	0xbc6ec8cb	-0.01457424
11	0xbc4a741d	-0.012356785
12	0xbc979d63	-0.018507665
13	0xbc467fc1	-0.01211542
14	0xbc8b7ee3	-0.017028278
15	0xbbbcac4f	-0.0057578455
16	0xbcad9b02	-0.021192078
17	0x3cb3215c	0.021866493
18	0xbd2aff4d	-0.04174738
19	0xbc65f8ca	-0.014036367
20	0xbc9d6e00	-0.019217491
21	0xbcb55cc6	-0.022138964
22	0xbc31a79b	-0.010843183
23	0x3bafaa8d	0.0053609074
24	0x3bda6650	0.0066650286
25	0x3a71b2da	0.00092200714
26	0xbbd79495	-0.0065789917
27	0xbd3c870c	-0.04602723
28	0x3b9d4ff6	0.004800792
29	0xbce7044d	-0.028200293
30	0x3c4f1cf9	0.012641185
31	0xbcd04738	-0.025424585
32	0xbc400841	-0.011720718
33	0xbd26e7a5	-0.040748257
34	0x3ce9ea82	0.028554205
35	0xbc600276	-0.013672462
36	0x3a60f56a	0.00085814914
37	0x3b0e599a	0.0021720887
38	0xbd46f1d2	-0.04857046
39	0xbc625446	-0.013814038
40	0xbcfe1ca4	-0.031019516
41	0xbd0d610c	-0.03451638
42	0x3bc3d1cb	0.005975937
43	0x39ac9271	0.00032915504
44	0xbc023f11	-0.0079496065
45	0xbc6bc8ff	-0.014391183
46	0x3aeeeb3e	0.0018228067
47	0xbc495c6e	-0.012290103
48	0xbbe5274d	-0.0069932104
49	0xbcc5c0e1	-0.024139823
50	0xbcc21951	-0.023693712
51	0xbca80d7b	-0.02051424
52	0xbc1eb326	-0.009686267
53	0xbca6147d	-0.020273441
54	0xbcb13338	-0.021630868
55	0xbbd1004b	-0.0063782088
56	0xbd1c7289	-0.038195167
57	0x3c038935	0.008028318
58	0x3c317790	0.010831729
59	0xbc8ee761	-0.017444314
60	0xbd343a30	-0.044000804
61	0xbc853949	-0.016262667
62	0x3cac275a	0.021014858
63	0xbd3f2ac2	-0.046671636

arith.constant9 f4 [64, 1, 3, 64]
0	0x3d98d7a4	0.07463005
1	0xbdc3f92c	-0.0956901
2	0x3e15701b	0.14593546
3	0x3dd69fa1	0.104796655
4	0x3c9f366a	0.019435126
5	0x3e13eb67	0.14445268
6	0xbc17815c	-0.00924715
7	0x3ca219cd	0.019787693
8	0x3d2da4dd	0.042393554
9	0xbdb60001	-0.088867195
10	0x3e4e4e7c	0.20147127
11	0x3cf1a344	0.029496796
12	0x3e1b8f7f	0.15191458
13	0xbd08613a	-0.033295847
14	0x3ca12c4e	0.019674446
15	0xbd13c670	-0.036077917
16	0xbe1c3068	-0.1525284
17	0x3d238d71	0.03992981
18	0x3dd099fb	0.101856194
19	0xbd6f7e5b	-0.05847011
20	0x3de6ddb2	0.11272754
21	0x3dfce1c5	0.123477496
22	0x3e3136e9	0.17306103
23	0xbcf82c00	-0.030294418
24	0x3d930a84	0.0717974
25	0x3d7ba794	0.06143911
26	0x3d7785ff	0.060430523
27	0x3cfe8b01	0.031072142
28	0xbe229199	-0.15875854
29	0x3d81063b	0.063000165
30	0xbd69454c	-0.056950852
31	0x3d4470d5	0.047959168
32	0xbd749df4	-0.05972095
33	0xbe3bfabf	-0.18357371
34	0xbd771e9c	-0.060331926
35	0xb79d68e5	-1.8764704e-05
36	0x3dffbda7	0.12487345
37	0xbd944078	-0.07238859
38	0x3da8ec49	0.08248193
39	0xbe648826	-0.22317562
40	0x39603d48	0.00021385134
41	0xbb810da5	-0.003938394
42	0x3d997c38	0.07494396
43	0xbe1ac89e	-0.15115592
44	0xbc4f35be	-0.0126470905
45	0x3e2c8931	0.1684921
46	0xbe2bc0b6	-0.16772732
47	0xbdd45ecc	-0.103696436
48	0xbb2e54ef	-0.0026600917
49	0xbe0ff996	-0.14060053
50	0x3e49285c	0.19644302
51	0x3d99ab99	0.07503433
52	0x3c7110b1	0.014713452
53	0xbdd7a192	-0.10528864
54	0x3d5db267	0.054125216
55	0x3db33434	0.08750191
56	0xbc88aa1f	-0.016682683
57	0xbd2aef47	-0.0417321
58	0x3e16ace1	0.14714386
59	0x3cdb8ec6	0.026801478
60	0x3dea4f8c	0.114409536
61	0xbcfd6824	-0.030933447
62	0xbd90f8de	-0.07078718
63	0x3cb00585	0.021487007
64	0xbde5f19b	-0.11227723
65	0xbdcaa561	-0.09894825
66	0xbdfd607f	-0.12371921
67	0x3e1e1851	0.15438963
68	0xbd30cb0e	-0.043162398
69	0xbe3681eb	-0.17822997
70	0x3d87065c	0.0659301
71	0x3a8498e1	0.0010116362
72	0xbd4186c6	-0.04724767
73	0x3d99a8cf	0.07502901
74	0x3d472017	0.048614588
75	0xbbea063f	-0.007141858
76	0x3e07c944	0.1326037
77	0xbdcdedee	-0.10055147
78	0xbe097c74	-0.13426381
79	0xbe058ab7	-0.13041197
80	0xbd73d809	-0.0595322
81	0x3cb3e446	0.021959435
82	0x3db94ea5	0.090482034
83	0x3d4c7958	0.04992041
84	0x3db9f33f	0.09079599
85	0xbe116a43	-0.14200692
86	0x3e17a367	0.14808427
87	0x3dd4cdca	0.10390814
88	0x3da68c49	0.08132226
89	0xbd95dbaf	-0.07317292
90	0xbd82b58d	-0.06382284
91	0x3d498e5a	0.049208023
92	0x3dd0ddf8	0.10198587
93	0x3b8ae620	0.004238859
94	0xbe11e5dd	-0.14247842
95	0x3b9d4892	0.004799911
96	0xbe067883	-0.13131909
97	0x3cdceba0	0.026967824
98	0x3d31e8f8	0.043435067
99	0xbe9108b2	-0.28326946
100	0xbe3b018b	-0.18262307
101	0xbc0a98dc	-0.008459296
102	0x3ccca946	0.02498306
103	0xbdcdfada	-0.10057612
104	0x3e1abc90	0.15110993
105	0x3e3c7bea	0.18406644
106	0xbb164bce	-0.0022933367
107	0xbd32158a	-0.043477573
108	0xbe4f49c1	-0.20242979
109	0x3e20b19d	0.15692754
110	0x3d5695e0	0.052389026
111	0xbe6879a5	-0.22702654
112	0xbcff5268	-0.031167224
113	0xbd8f0674	-0.06983653
114	0xbccb1963	-0.024792379
115	0x3bfb8feb	0.0076770685
116	0x3c1ebdfa	0.009688849
117	0xbe28d2c0	-0.16486645
118	0xbdf12442	-0.11774494
119	0x3c911864	0.017711826
120	0x3df3adc7	0.1189838
121	0xbd55390b	-0.052056354
122	0xbe1e56c6	-0.15462789
123	0x3e143b8b	0.14475839
124	0x3de70a35	0.11281244
125	0x3e4d9551	0.20076491
126	0x3d32db56	0.043666206
127	0x3dbe7560	0.09299731
128	0x3d3a7c69	0.045528803
129	0xbd25f187	-0.04051354
130	0xbd1b1b2b	-0.037867706
131	0x3d5b322f	0.053514656
132	0x3e861999	0.26191404
133	0xbe1608f8	-0.14651859
134	0x3b30a3f0	0.0026953183
135	0xbd6ed1df	-0.058305617
136	0xbe185260	-0.14875174
137	0x3d8d9767	0.06913643
138	0xbd6e481f	-0.05817425
139	0x3bb08330	0.0053867325
140	0x3e42b8b2	0.19015768
141	0x3db4741f	0.08811211
142	0x3e377de4	0.17919117
143	0xbe4cec1c	-0.20011944
144	0xbe00023b	-0.12500851
145	0xbd8eed40	-0.069788456
146	0xbd711dbd	-0.05886625
147	0xbd6bc97a	-0.05756519
148	0x3e04fa78	0.12986171
149	0xbd704a38	-0.05866453
150	0x3e01d3bd	0.12678428
151	0x3e4790e1	0.1948886
152	0xbe1cc14e	-0.15308115
153	0x3b441c04	0.0029923925
154	0xbe5d1352	-0.21589401
155	0xbd3dd122	-0.046342023
156	0xbe1657a9	-0.14681877
157	0x3e5cbf2a	0.21557298
158	0x3d8118f2	0.06303586
159	0x3e18c893	0.14920263
160	0x3debc2c3	0.11511757
161	0xbe2912dd	-0.16511102
162	0x3e79a61d	0.24379773
163	0x3e3f91b6	0.18707928
164	0x3d8caf1f	0.06869339
165	0x3caf813b	0.021423927
166	0xbd7ec7af	-0.062202152
167	0x3d290764	0.041266814
168	0xbdb4743a	-0.08811231
169	0x3dad80da	0.08471842
170	0x3d8c11d3	0.06839337
171	0x3d94b3ee	0.07260881
172	0x3e2ee48a	0.17079368
173	0x3d495d83	0.049161445
174	0x3de981d7	0.11401718
175	0xbd3f8b62	-0.046763785
176	0x3e29b003	0.1657105
177	0xbda08d47	-0.078394465
178	0xbc4793eb	-0.0121812625
179	0xbd5f07f1	-0.054450933
180	0x3db6934c	0.089148134
181	0xbce4cc66	-0.027929496
182	0xbce6b1fa	-0.028161038
183	0x3d5784aa	0.052616753
184	0xbe2197cf	-0.15780567
185	0xbd932359	-0.071844764
186	0xbe0211ba	-0.12702075
187	0xbde310a4	-0.11087158
188	0x3d113419	0.035450075
189	0x3e3eddd9	0.18639316
190	0xbdee1445	-0.1162496
191	0x3d102889	0.035194907
192	0xbcafce33	-0.021460628
193	0x3d95270f	0.072828405
194	0x3db6203b	0.08892866
195	0xbd7bb5d1	-0.06145269
196	0x3d5e2b9c	0.054240808
197	0xbde83dd7	-0.1133992
198	0xbdbd6fdb	-0.0924985
199	0x3bdc381e	0.006720557
200	0xbe47ad9e	-0.19499823
201	0x3de74e99	0.11294288
202	0xbda553ae	-0.08072601
203	0x3d2cbd14	0.042172506
204	0x3e5c44af	0.21510576
205	0x3deceae0	0.11568236
206	0x3ce170c4	0.027519591
207	0x3e000629	0.1250235
208	0x3e05c805	0.13064583
209	0xbd17aeca	-0.037031926
210	0xbcc4866a	-0.023989875
211	0x3d526e39	0.051374648
212	0x3e15611e	0.14587829
213	0xbcd2073f	-0.02563822
214	0xbda5700e	-0.08078013
215	0xbd2a6626	-0.041601323
216	0xbe22d379	-0.15900983
217	0xbd949d31	-0.072565444
218	0xbcc07a35	-0.023495773
219	0x3dcb1f76	0.0991811
220	0xbd941b7d	-0.072318055
221	0xbd4a65a5	-0.049413342
222	0xbd8958f3	-0.06706419
223	0x3e104353	0.14088182
224	0xbe5fc802	-0.2185364
225	0xbc73ecf4	-0.014888037
226	0x3e5c5f5e	0.21520755
227	0x3e35d15f	0.1775565
228	0x3e3f640e	0.18690512
229	0x3b9d3652	0.0047977353
230	0x3e62a65d	0.22133775
231	0xbe3dfe9e	-0.1855416
232	0x3d63f645	0.055654783
233	0x3e2a2e4d	0.16619225
234	0x398eb601	0.00027219954
235	0x3d700a0e	0.05860334
236	0x3e19a148	0.1500293
237	0xbd92a44f	-0.071602456
238	0x3d3909ff	0.04517555
239	0xbd8bef8e	-0.06832801
240	0x3c784c38	0.015154891
241	0x3d66338f	0.056201514
242	0xbcd6d2d6	-0.026223581
243	0x3d98f8ea	0.074693516
244	0xbe19f59a	-0.15035096
245	0x3e63bed7	0.22240768
246	0xbcb5b1f6	-0.022179585
247	0xbd54e5a6	-0.051976822
248	0xbd34ce9a	-0.044142343
249	0x3d4374a5	0.047718663
250	0x3d6482c5	0.055788774
251	0x3e1b225e	0.15149829
252	0x3e4079fc	0.18796533
253	0xbdcc2191	-0.0996734
254	0x3bd44114	0.0064774845
255	0x3d4eebfb	0.050518017

arith.constant10 f4 [64, 1, 3, 64]
0	0xbe609cfb	-0.21934883
1	0x3cc2727b	0.02373623
2	0x3da1357f	0.07871532
3	0xbdd1ccdb	-0.10244151
4	0xbc061219	-0.008183026
5	0xbdefe87c	-0.11714265
6	0xbd8242d2	-0.06360401
7	0xbdf9df60	-0.122008085
8	0xbc803534	-0.01565037
9	0x3e08f941	0.13376333
10	0xbbf6a805	-0.0075273537
11	0x3da65f36	0.08123629
12	0xbe6084f0	-0.21925712
13	0x3c9aaa3f	0.018880008
14	0xbc36e64f	-0.011163308
15	0x3ddacc80	0.106835365
16	0x3e013c2f	0.12620614
17	0xbca4cf72	-0.020118449
18	0xbd2c3451	-0.04204208
19	0xbe15416a	-0.14575735
20	0x3baf7908	0.005355004
21	0x3df0d5c0	0.117595196
22	0xbdd6adaa	-0.104823425
23	0x3e36cd9c	0.17851871
24	0xba4d60ff	-0.0007834583
25	0x3d42a304	0.047518745
26	0xbd52cc87	-0.051464584
27	0x3da0301e	0.078216776
28	0x3babad9d	0.005239202
29	0xbdd1171e	-0.102094874
30	0x3e20c110	0.15698647
31	0x3d3e3b1b	0.046443086
32	0xbd8ad91d	-0.06779692
33	0x3c81fa9b	0.015866568
34	0xbd691cb4	-0.05691214
35	0xbe13c3bf	-0.1443014
36	0xbda36482	-0.07978155
37	0x3e667fc9	0.22509684
38	0x3dff6471	0.124703296
39	0x3d11573a	0.035483576
40	0x3c3f5fd7	0.011680565
41	0x3e2007b5	0.1562794
42	0x3a22aa5b	0.00062051945
43	0xbc911391	-0.017709525
44	0xbaf10266	-0.0018387556
45	0xbe0a339e	-0.13496253
46	0xbd32e354	-0.04367383
47	0xbe00674a	-0.12539402
48	0xbe1686c4	-0.14699847
49	0xbe4fb66c	-0.20284432
50	0x3b1e0b88	0.002411576
51	0x3d4d4a5f	0.050119754
52	0x3dbababb	0.09117647
53	0x3cdf47d7	0.027255936
54	0xbe4bbeac	-0.19896954
55	0x3e3f1adb	0.18662588
56	0x3c6fdd39	0.014640146
57	0xbd0f0806	-0.03491976
58	0xbca3db86	-0.020002138
59	0x3e48ce2b	0.19609897
60	0xbe1fd84b	-0.15609853
61	0x3d0bf9e4	0.03417386
62	0xbd4ec102	-0.050477035
63	0x3e288ff5	0.16461165
64	0x3df5938f	0.11991035
65	0xbdbc50d1	-0.09195102
66	0xbc338732	-0.010957526
67	0x3e2f49e5	0.17118032
68	0xbd0a0fb9	-0.0337064
69	0x3e0a474a	0.13503757
70	0x3da20b3b	0.07912298
71	0x3d9ff35c	0.07810089
72	0xbd19637c	-0.03744839
73	0x3d9f085a	0.07765265
74	0x3c07c21c	0.008286025
75	0xbda16533	-0.0788063
76	0xbd7d3196	-0.061814867
77	0x3e4921ca	0.19641796
78	0x3d2e4b1a	0.04255209
79	0xbd8d52c9	-0.06900556
80	0xbe1b610f	-0.15173744
81	0xbe0696f9	-0.13143529
82	0xbddb14ea	-0.106973484
83	0x3d7bd1cc	0.061479375
84	0x3a8a919a	0.0010571957
85	0x3ddcb5cc	0.107768625
86	0x3cd4e573	0.025988316
87	0xbc87ec3c	-0.016592138
88	0x3e39d214	0.18146545
89	0x3e05d86c	0.1307084
90	0x3e17bdcd	0.14818497
91	0x3d555ca6	0.05209031
92	0xbd55ccfd	-0.052197445
93	0xbd870f16	-0.06594674
94	0x3cb90426	0.022584986
95	0x3e04cbbc	0.12968343
96	0xbe278b5b	-0.16361754
97	0xbcb63ce2	-0.022245828
98	0x3d61912a	0.05507008
99	0x3d7ca560	0.06168115
100	0xbd438e4a	-0.04774312
101	0xbd87b61b	-0.06626531
102	0x3d2c0562	0.04199732
103	0x3e0d7209	0.13813032
104	0x3b662dd3	0.0035122528
105	0xbb93f60f	-0.0045154165
106	0x3ccba1f4	0.024857499
107	0x3c95ae0a	0.018271465
108	0xbdb63981	-0.08897687
109	0xbe331db5	-0.17491801
110	0x3d5da5de	0.05411326
111	0xbe28f1dd	-0.16498514
112	0xbde7f4ea	-0.113260105
113	0x3d91de60	0.07122493
114	0xbe33939a	-0.17536774
115	0xbcd7002e	-0.026245203
116	0xbda5d0c6	-0.08096461
117	0xbd96790d	-0.07347307
118	0xbe16b3ed	-0.14717074
119	0x3d9438a8	0.07237369
120	0xbcbeb84f	-0.023281245
121	0xbd1cecdb	-0.03831182
122	0xbdd3d288	-0.1034289
123	0x3d13bf6a	0.03607122
124	0x3cd07da8	0.025450543
125	0xbe63fccc	-0.22264403
126	0xbda5b2ba	-0.0809073
127	0xbc2af993	-0.01043548
128	0xbd3e7987	-0.046502616
129	0xbe6f4018	-0.23364294
130	0x3ba9d996	0.005183409
131	0xbdc1cec8	-0.094632685
132	0x3b0f70d2	0.0021887315
133	0xbc217ce7	-0.009856439
134	0x3e22f75e	0.15914676
135	0xbd65d5c6	-0.056112073
136	0xbe23fb05	-0.16013725
137	0xbdfe11e3	-0.12405755
138	0xbde04f7e	-0.10952662
139	0xbe0fef46	-0.1405612
140	0xbc97fc2a	-0.018552858
141	0x3d0aa6e5	0.03385057
142	0xbd50ad52	-0.05094654
143	0xbe171575	-0.14754279
144	0xbd0d94fc	-0.03456591
145	0x3e394d97	0.18096004
146	0x3d781096	0.060562693
147	0xbe206223	-0.15662436
148	0x3d8c2a4b	0.06844004
149	0x3d16e321	0.0368377
150	0x3e546a66	0.20743713
151	0x3e170075	0.14746268
152	0x3b4b83f2	0.0031053987
153	0x3c6c947c	0.014439698
154	0x3e5b96d8	0.21444261
155	0xbd18b606	-0.037282966
156	0x3e13d7fe	0.14437863
157	0x3e38febc	0.18065923
158	0xbd111604	-0.035421386
159	0xbda1d2e1	-0.0790155
160	0xbe0a78f7	-0.13522707
161	0x3c60030c	0.013672601
162	0xbe5d219f	-0.21594857
163	0x3e07cd44	0.13261896
164	0x3e24aa32	0.1608055
165	0xbe093421	-0.13398792
166	0x3c9cca0a	0.019139308
167	0xbd0ecee3	-0.03486527
168	0xbd6d772a	-0.05797497
169	0x3d18ba01	0.037286762
170	0xbd2ce0ed	-0.042206693
171	0x3d6be85a	0.057594635
172	0xbd46d45e	-0.048542373
173	0x3d4eb805	0.050468463
174	0xbc245275	-0.010029425
175	0x3d0aa434	0.033848003
176	0xbdafcd9b	-0.08584138
177	0x3d210234	0.03930874
178	0x3e1f8f25	0.15581949
179	0x3e1d8df6	0.15386185
180	0xbdc9cb66	-0.09853248
181	0x3d7cb0c5	0.061692018
182	0x3d4805ca	0.048833646
183	0xbddd9bc4	-0.108207256
184	0xbe64ce40	-0.22344303
185	0xbe1eb488	-0.15498555
186	0xbd8cf69f	-0.06882977
187	0xbd3ff2aa	-0.04686228
188	0xbdf15e69	-0.117855854
189	0xbcf81108	-0.030281559
190	0xbdf602fa	-0.120122865
191	0x3d80165f	0.06254267
192	0x3e542abb	0.20719425
193	0xbe03165f	-0.12801503
194	0x3d99a335	0.075018324
195	0x3e0f5e78	0.1400088
196	0xbdc630c7	-0.09677272
197	0x3d394cf8	0.04523942
198	0x3e6b2f62	0.22967294
199	0x3d8c8abc	0.06862399
200	0x3db8f7a0	0.09031606
201	0xbd16b589	-0.03679422
202	0x3de02e14	0.10946289
203	0xbe05aa22	-0.13053182
204	0xbca74464	-0.020418353
205	0x3d659036	0.056045733
206	0xbd17cab7	-0.03705856
207	0x3cf03b37	0.02932511
208	0x3dcda7aa	0.10041745
209	0xbd34badc	-0.044123515
210	0xbdc8c55e	-0.0980327
211	0xbd8f2c8d	-0.06990919
212	0x3cfaf980	0.030636549
213	0xbd843209	-0.06454856
214	0xbb517c52	-0.003196497
215	0x3e2b4e7c	0.16729158
216	0xbde25dea	-0.11053069
217	0xbd8310c9	-0.06399686
218	0xbdb1438f	-0.08655464
219	0x3de82976	0.11336033
220	0x3d5b1d54	0.053494766
221	0xbc9662d8	-0.01835768
222	0xbd64f7c5	-0.055900354
223	0x3d2a9614	0.041647032
224	0xbd11e3ae	-0.035617523
225	0xbd983eab	-0.07433828
226	0xbcce3754	-0.025172867
227	0xbda28a17	-0.07936495
228	0x3d98c316	0.07459085
229	0xbe129efa	-0.14318457
230	0xbcfbb2cc	-0.030724905
231	0xbe1f5a96	-0.155619
232	0xbc839858	-0.016063854
233	0x3d532409	0.051548038
234	0x3c537aec	0.012907725
235	0xbd4d96a7	-0.0501925
236	0x3e29a654	0.16567355
237	0x3dee9c53	0.1165091
238	0x3d3b2e51	0.045698468
239	0x3d464d3f	0.04841351
240	0xb978fad2	-0.00023744561
241	0xbe320212	-0.17383602
242	0x3e1979be	0.14987847
243	0xbdef81a0	-0.11694646
244	0xbd9296c5	-0.07157663
245	0xbd3a19ab	-0.045434635
246	0x3d5824e3	0.052769553
247	0x3c89e5da	0.016833235
248	0xbe61126b	-0.21979682
249	0xbda4bb0f	-0.08043491
250	0x3decd918	0.11564845
251	0x3dbe530f	0.09293186
252	0x3e1a1df1	0.15050484
253	0x3de3a581	0.11115552
254	0x3e450102	0.19238666
255	0x3dc62427	0.09674864

arith.constant11 f4 [64, 1, 3, 64]
0	0xbe317002	-0.17327884
1	0x3c38a5bf	0.011269986
2	0xbe250e51	-0.16118743
3	0xbd8d4219	-0.06897373
4	0xbdcf3016	-0.101165935
5	0xbe2725ff	-0.16323088
6	0x3da422c5	0.08014444
7	0x3d52614b	0.051362317
8	0xbc3337c7	-0.010938591
9	0xbe1acd1b	-0.15117304
10	0xbd99ee55	-0.07516161
11	0xbd2e3feb	-0.042541426
12	0x3da1b064	0.07894972
13	0xbda3ace6	-0.07991962
14	0xbdd9988d	-0.106248
15	0xbcb21f26	-0.021743368
16	0x3ca16295	0.019700328
17	0xbe0756bb	-0.13216679
18	0xbd93a751	-0.072096474
19	0xbdd18467	-0.10230332
20	0x3c6bce2a	0.014392415
21	0x3df8099c	0.12111208
22	0xbd837a79	-0.06419844
23	0xbdd029be	-0.10164212
24	0xbe246510	-0.16054177
25	0xbe030ba6	-0.12797412
26	0xbd944718	-0.072401226
27	0xbdce8d37	-0.10085528
28	0xbdab0b24	-0.08351734
29	0xbe66e6c9	-0.22548975
30	0xbd9d4ff6	-0.07681267
31	0x3c3993ce	0.011326743
32	0x3de41853	0.11137452
33	0xbe23a50d	-0.1598093
34	0xbdd80418	-0.10547656
35	0x3d937a8a	0.07201107
36	0xbdb96a1c	-0.09053442
37	0xbe83ece8	-0.25766683
38	0x3dbe7a9e	0.09300731
39	0xbe175ca1	-0.14781429
40	0x3dd93b3a	0.10607
41	0x3d99b2d3	0.07504811
42	0x3df4cdcb	0.119533144
43	0x3c655c9f	0.013999133
44	0xbe0608d8	-0.13089311
45	0xbbc9b047	-0.006155047
46	0x3c30af6a	0.0107840095
47	0xbdcbd635	-0.09952966
48	0xbe1cc84d	-0.15310784
49	0xbd8cec3c	-0.06880996
50	0xbe6a7a00	-0.22898102
51	0xbc825197	-0.015908046
52	0xbe0bd8ba	-0.13656893
53	0x3ca6da99	0.020367907
54	0x3c95d582	0.018290285
55	0x3dadf2ae	0.08493553
56	0xbe41aa4b	-0.18912618
57	0x3e1616c0	0.14657116
58	0xbda606e7	-0.08106785
59	0x3da21a22	0.07915141
60	0x3d850a68	0.064961255
61	0x3d13fc9b	0.036129575
62	0x3bfe43ff	0.0077595706
63	0xbb4d9249	-0.003136771
64	0xbdd669a1	-0.10469366
65	0x3dfefe46	0.124508426
66	0x3dbf4bc4	0.09340623
67	0xbb7fe65c	-0.0039047217
68	0xbd4719e7	-0.048608687
69	0x3d519d49	0.05117539
70	0xbd72f2a3	-0.059313428
71	0xbe356a4b	-0.17716329
72	0x3d768019	0.060180757
73	0x3e28943c	0.16462797
74	0x3d29e3c4	0.04147698
75	0xbd39dede	-0.04537856
76	0xbe0159af	-0.12631868
77	0xbe545f5a	-0.20739499
78	0xbe072f57	-0.13201652
79	0x3e085076	0.13311943
80	0x3da30897	0.07960623
81	0x3dd34f77	0.10317891
82	0x3c57d902	0.013174297
83	0x3dfa854a	0.12232454
84	0xbe22b27e	-0.15888402
85	0x3dac5685	0.0841494
86	0x3dfd7f53	0.12377801
87	0x3dce3196	0.100680515
88	0x3ceeb803	0.029140478
89	0xbc5e5944	-0.013571087
90	0x3bdc44ff	0.006722092
91	0x3ce2974b	0.027660033
92	0x3da081bb	0.07837244
93	0xbe3e05e9	-0.18556942
94	0xbcb68e11	-0.02228454
95	0x3c932027	0.017959667
96	0xbd13d8ac	-0.036095306
97	0xbe2ed059	-0.17071666
98	0x3dc28cdd	0.09499524
99	0x3e06f551	0.13179518
100	0xbd64143d	-0.055683363
101	0xbd352c52	-0.04423172
102	0x3d844bf0	0.064597964
103	0x3e08fc24	0.13377434
104	0x3dc746f9	0.09730334
105	0xbdb8a936	-0.090166494
106	0xbe3a03e9	-0.18165554
107	0x3d8dd8f4	0.06926146
108	0xbe0b334d	-0.13593788
109	0x3d90aed0	0.07064593
110	0xbd569f11	-0.05239779
111	0x3dbe9cc3	0.09307244
112	0x3b812572	0.0039412314
113	0xbdab90b7	-0.083772115
114	0xbdcbb8fb	-0.099473916
115	0xbe1062fd	-0.14100261
116	0xbd86225a	-0.06549521
117	0x3cac0d97	0.021002574
118	0x3e2bb542	0.16768363
119	0xbc2f2791	-0.010690586
120	0x3c9c388a	0.019069929
121	0x3d36b694	0.044607714
122	0xbdb6b453	-0.08921113
123	0x3e234dcd	0.15947647
124	0xbd19b9b0	-0.0375306
125	0x3d14f3eb	0.03636543
126	0x3e227747	0.15865813
127	0x3d642079	0.05569503
128	0x3d56a2f4	0.052401498
129	0xbdf5c5a1	-0.12000585
130	0xbe1d30c6	-0.15350637
131	0xbd80c785	-0.06288055
132	0xbda62eee	-0.0811442
133	0x3d6a7fb9	0.057250712
134	0xbda68c83	-0.08132269
135	0xbe0e5502	-0.13899615
136	0x3d87aab6	0.066243574
137	0xbd890de1	-0.066921
138	0xbdd06f17	-0.10177439
139	0xbe18a998	-0.14908445
140	0xbbc6bdbb	-0.006065098
141	0x3d3cf586	0.046132587
142	0x3e0e7966	0.13913497
143	0x3c333cb2	0.010939764
144	0xbe16b76c	-0.14718407
145	0x3db1d68e	0.08683501
146	0xbe3424b1	-0.17592122
147	0xbd738e33	-0.059461784
148	0x3d5a1e3e	0.053251497
149	0x3d1531d1	0.03642446
150	0xbe7d8e3f	-0.24761294
151	0x3d418aa5	0.047251362
152	0xbe022dd7	-0.12712799
153	0xbdf92623	-0.12165477
154	0x3db397be	0.08769177
155	0xbcc14532	-0.023592565
156	0x3b42b68b	0.0029710855
157	0xbc495c21	-0.012290032
158	0x3e5454d4	0.20735484
159	0x3cad67e1	0.021167697
160	0x3c81b1a0	0.015831769
161	0xbd7ee825	-0.06223311
162	0xbda7012e	-0.08154522
163	0x3da9d271	0.08292092
164	0x3da1829b	0.07886239
165	0xbd2c0451	-0.041996304
166	0xbd0a73c2	-0.0338018
167	0x3c17403c	0.009231623
168	0xbd1b9e4b	-0.037992757
169	0x3d79306e	0.0608372
170	0xbca7dac4	-0.020490058
171	0x3d76e0c8	0.06027296
172	0xbde9cd06	-0.11416058
173	0xbdccafb5	-0.09994451
174	0xbd96dcc0	-0.073663235
175	0x3e3d9039	0.18512048
176	0x3e09becc	0.1345169
177	0xbdb17bd2	-0.08666195
178	0xbcff3abb	-0.031155935
179	0xbcf47c14	-0.029844321
180	0x3db7a21e	0.08966468
181	0xbc20891f	-0.009798317
182	0x3e1ec83e	0.15506074
183	0xbe07c008	-0.13256848
184	0x3e324c2a	0.17411867
185	0xbe11087c	-0.14163393
186	0xbde1c082	-0.11023046
187	0x3ce03fb4	0.027374126
188	0xbdfeb6b9	-0.12437195
189	0x3d7a53ae	0.06111496
190	0xbcf83e99	-0.030303286
191	0xbdcb8fed	-0.09939561
192	0xbe0615f1	-0.13094307
193	0x3de24f51	0.11050285
194	0x3daa9b0e	0.083303556
195	0xbdfae583	-0.12250807
196	0xbc71bfa2	-0.0147551615
197	0x3e42d4b0	0.19026446
198	0xb9c043ee	-0.00036671705
199	0x3c9467e3	0.018115943
200	0xbd69cc16	-0.057079397
201	0xbdc2f620	-0.09519601
202	0x3bf8e136	0.0075952066
203	0xbe028fb6	-0.12750134
204	0xbd369cda	-0.04458318
205	0xbb47e67e	-0.0030502374
206	0xbe3cc196	-0.18433222
207	0xbe26f245	-0.16303356
208	0x3dc9f5d8	0.09861344
209	0x3e30a4e6	0.17250404
210	0x3d11f900	0.035637856
211	0xbbff737a	-0.0077957483
212	0xbdffd834	-0.12492409
213	0x3dc9ca07	0.09852987
214	0xbe2bf015	-0.16790803
215	0x3cac5be8	0.021039918
216	0x3cdba09f	0.026809989
217	0xbdd36400	-0.10321808
218	0x3dd53c89	0.10411937
219	0x3de47aca	0.11156233
220	0x3c999979	0.01874994
221	0xbd5b7c82	-0.053585537
222	0x3dbb83a3	0.09155967
223	0xbda60475	-0.08106319
224	0x3ce3ce6c	0.02780839
225	0xbcc76e82	-0.024344686
226	0xbdafc7ab	-0.085830055
227	0xbe187eac	-0.14892071
228	0xbdb687b7	-0.08912604
229	0xbe13a5f7	-0.1441878
230	0x3e62de76	0.22155175
231	0x3e02db2a	0.12778917
232	0x3dd5d8d1	0.10441745
233	0x3d4a1620	0.049337506
234	0xbd758ea6	-0.059950493
235	0xbd4bb217	-0.049730387
236	0xbcd9fa63	-0.026608652
237	0x3dd94128	0.10608131
238	0x3b5afd4e	0.0033415142
239	0x3d810efb	0.063016854
240	0xbc4df9ce	-0.012571765
241	0x3d0f0f56	0.034926735
242	0xbd4c023f	-0.04980683
243	0xbdd474a9	-0.10373814
244	0x3d0b4f48	0.034011155
245	0xbd1330f3	-0.035935353
246	0xbdf64d3f	-0.12026452
247	0x3b517cc8	0.0031965245
248	0xbd9c5a1a	-0.07634373
249	0x3e4919cf	0.19638751
250	0xbde91300	-0.11380577
251	0xbd9fc851	-0.07801879
252	0x3d397e8d	0.045286704
253	0xbe17ed60	-0.14836645
254	0xbe2f6759	-0.17129268
255	0xbd517bd3	-0.05114348

arith.constant12 f4 [64, 1, 3, 64]
0	0xbdaef05f	-0.08541941
1	0xbd81d6e8	-0.06339818
2	0xbe0cf3a0	-0.1376481
3	0xbcaa843c	-0.020815007
4	0xbe64051c	-0.22267574
5	0x3dacf0a6	0.084443375
6	0x3d2b5239	0.04182646
7	0x3d9dd305	0.077062644
8	0xbde6aec6	-0.11263804
9	0x3b15d7e1	0.002286427
10	0xbd48bf32	-0.049010463
11	0xbd11a0cb	-0.035553735
12	0xbe01c63b	-0.12673275
13	0xbdf716a8	-0.12064868
14	0x3c813ea6	0.015776943
15	0xbe1374fc	-0.14400095
16	0xbe5f2451	-0.21791197
17	0xbdb0ddcc	-0.086360544
18	0x3db979dd	0.09056447
19	0xbdd95946	-0.10612731
20	0xbe39ddbf	-0.18150996
21	0x3d4b8655	0.049688656
22	0xbcee1094	-0.02906064
23	0x3ca8c5b7	0.02060209
24	0xbddbf9a9	-0.10740978
25	0xbdf2bd2b	-0.11852487
26	0xbcbd6f6d	-0.023124421
27	0xbd14da61	-0.036341075
28	0xbe1ac83e	-0.15115449
29	0x3c8b78f4	0.017025448
30	0xbdc9519c	-0.09830019
31	0x3c8dfa9a	0.01733141
32	0xbc475b51	-0.012167768
33	0xbe1f2d48	-0.15544617
34	0xbc469a2e	-0.01212172
35	0x3dea5c68	0.11443406
36	0x3db35cd1	0.08757938
37	0xbe199f0b	-0.15002076
38	0x3cca029e	0.024659451
39	0xbe2fdda9	-0.171744
40	0x3c05fc05	0.008177762
41	0xbe1797a8	-0.14803946
42	0x3d2dfa0d	0.042474795
43	0xbca5d4d5	-0.020243088
44	0x3ddff803	0.10935976
45	0xbe155497	-0.1458305
46	0x3dc1e0a6	0.094666764
47	0xbe3fa196	-0.18713984
48	0xbe0f89a1	-0.14017345
49	0xbbcb9710	-0.0062130764
50	0xbd658d62	-0.056043036
51	0xbd616da5	-0.055036206
52	0x3e0fe875	0.14053519
53	0x3d533399	0.05156288
54	0x3c52648e	0.012841357
55	0x3c5ee9cb	0.013605545
56	0xbdd33e27	-0.10314589
57	0x3cce7379	0.025201546
58	0x3d2ec357	0.04266676
59	0xbe033cba	-0.12816134
60	0x3d97ea25	0.074177064
61	0x3d23d221	0.039995316
62	0xbcb3d198	-0.021950528
63	0x3bdc9a07	0.0067322287
64	0x3d747f10	0.05969149
65	0x3ca9104b	0.020637652
66	0xbb8d62a9	-0.0043147397
67	0x3d9124f4	0.070871264
68	0x3d422c04	0.047405258
69	0xbce6839d	-0.02813893
70	0x3cbf5e1c	0.023360305
71	0xbdb42f15	-0.08798043
72	0x3e161869	0.14657749
73	0x3d2718ea	0.040795244
74	0xbd2f24c6	-0.04275968
75	0x3d14b506	0.03630545
76	0xbda81d06	-0.08208661
77	0xbe3d80ca	-0.1850616
78	0xbd9a1076	-0.07522671
79	0x3d111ebd	0.035429705
80	0x3c366cf7	0.011134378
81	0xbcb8afef	-0.02254483
82	0x3de3b194	0.11117855
83	0xbded6df2	-0.11593236
84	0xbdca1d5e	-0.098688826
85	0x3d9b0dde	0.07571004
86	0xbc5c3353	-0.013439971
87	0x3dc8ba4a	0.09801157
88	0xbe0a4c13	-0.13505583
89	0x3db8982c	0.090133995
90	0x3d712304	0.058871284
91	0xbe51af91	-0.2047713
92	0xbd9d2694	-0.07673374
93	0xbc64247e	-0.013924716
94	0x3de8cf94	0.113677174
95	0x3b1b4cf8	0.0023697
96	0xbd9ef82f	-0.07762181
97	0x3e017ec1	0.12646009
98	0x3deb9785	0.115035094
99	0x3ccdb18e	0.025109079
100	0xbdba785a	-0.091049865
101	0xbe409282	-0.18805888
102	0xbb180c04	-0.0023200521
103	0x3d522f69	0.051314745
104	0x3e16b9f9	0.1471938
105	0xbd0353fa	-0.03206251
106	0xbc13971c	-0.009008195
107	0xbbc76be3	-0.006085859
108	0x3d9f602d	0.07782016
109	0xbd6e9234	-0.0582449
110	0xbd1a5a21	-0.03768361
111	0xbdf35ef2	-0.11883344
112	0xbe04101e	-0.12896773
113	0xbd831564	-0.06400564
114	0x3d8e2447	0.06940513
115	0x3dd9c459	0.106331535
116	0xbb069362	-0.0020534624
117	0xbccfd1fe	-0.025368687
118	0xbd9ac89e	-0.07557796
119	0x3e217187	0.15765963
120	0x3d06eb48	0.032939225
121	0x3d4503da	0.048099376
122	0xbe40002e	-0.18750069
123	0x3c94c198	0.018158719
124	0x3d728415	0.059207994
125	0xbd59c8a4	-0.05316986
126	0x3d336f2d	0.043807197
127	0x3bb21896	0.00543506
128	0x3db56f96	0.08859174
129	0x3d5b51c3	0.05354477
130	0xbdc1595f	-0.09440874
131	0x3e5770b0	0.2103908
132	0x3d2df55b	0.042470317
133	0xbd636f42	-0.055526026
134	0xbd2c2096	-0.042023264
135	0x3d6a9289	0.057268653
136	0xbdbdb457	-0.09262913
137	0xbe49c364	-0.19703442
138	0xbd64da53	-0.055872273
139	0xbe30953a	-0.17244425
140	0x3dcf53a5	0.10123376
141	0xbdd73f0d	-0.10510073
142	0xbc43a97b	-0.011942263
143	0xbdc8c93a	-0.09804006
144	0x3da38169	0.079836674
145	0x3e016d5e	0.12639377
146	0xbce1eb4c	-0.027578019
147	0xbdd2b84c	-0.10289058
148	0xbc962f6c	-0.01833316
149	0x3d78ea99	0.060770605
150	0xbdf142c8	-0.11780316
151	0xbd8a39ac	-0.06749281
152	0x3db6b740	0.08921671
153	0xbdf341a4	-0.11877754
154	0xbe471aef	-0.19443868
155	0x3c5db5a9	0.013532081
156	0xbdedf7eb	-0.11619552
157	0xbd82bcd9	-0.06383676
158	0xbcd9cf33	-0.026588058
159	0x3dd29db6	0.10283987
160	0xbe179b56	-0.1480535
161	0x3d18986e	0.037254743
162	0x3e177ac3	0.14792924
163	0x3e4ace44	0.19805247
164	0x3db35003	0.087554954
165	0x3e2fd712	0.17171887
166	0xbd84e22f	-0.064884536
167	0xbe0880bf	-0.13330363
168	0x3d2579af	0.04039925
169	0xbd788243	-0.060671102
170	0xbe5b7a03	-0.21433263
171	0xbdca81bb	-0.098880254
172	0xbd723665	-0.059133906
173	0x3dde54b9	0.10856003
174	0x3e0f3a00	0.13986969
175	0xbe564fec	-0.20928925
176	0xba151898	-0.00056875637
177	0x3cf91bb0	0.03040871
178	0x3dbe3b04	0.092886
179	0xbd9e2877	-0.07722562
180	0x3d8bed67	0.0683239
181	0x3d0fbe17	0.035093393
182	0xbd2f3872	-0.04277844
183	0xbdb6a59c	-0.08918306
184	0x3b1ddb4c	0.002408701
185	0xbe385eca	-0.18004909
186	0xbdb0df3a	-0.08636327
187	0x3da91667	0.08256226
188	0xbde6f252	-0.11276688
189	0xbda339b6	-0.07969992
190	0xbe1e8631	-0.15480877
191	0x3db471ee	0.08810793
192	0xbd4e4fa3	-0.050368916
193	0xbe46b6e9	-0.19405712
194	0xbd457b45	-0.048213262
195	0xbe0520a8	-0.13000739
196	0x3d421baa	0.047389664
197	0x3db17c62	0.08666302
198	0x3b432ef2	0.002978262
199	0x3caa2383	0.020768886
200	0xbe66e70c	-0.22549075
201	0x395c0af1	0.00020984911
202	0xbd9319d7	-0.07182663
203	0x3d4dd377	0.050250497
204	0xbe289546	-0.16463193
205	0x3cf67a97	0.030087752
206	0x3ddc6b8a	0.10762699
207	0x3dbca353	0.09210839
208	0xbdafbcdc	-0.08580944
209	0x3af87bed	0.0018957831
210	0xbb0a390b	-0.002109113
211	0xbda7f004	-0.08200076
212	0xbe1e7260	-0.15473318
213	0xbd188334	-0.0372345
214	0x3dad4ae2	0.084615484
215	0xbe374cb7	-0.17900358
216	0xbe1a9235	-0.15094836
217	0xbcf96d43	-0.030447608
218	0xbb47d128	-0.0030489657
219	0xbd9534e0	-0.07285476
220	0xbc7e774a	-0.01553137
221	0xbd897ad4	-0.06712881
222	0x3d22a73c	0.03971027
223	0xbe04b75e	-0.12960574
224	0xbda5c554	-0.08094278
225	0x3e14218c	0.14465922
226	0x3db4c681	0.08826924
227	0x3c762009	0.015022286
228	0x3df7803a	0.12085004
229	0xbc850478	-0.016237482
230	0xbdb29bb7	-0.087211065
231	0x3e57ecbb	0.210864
232	0x3d840d10	0.06447804
233	0xbe4a8a0d	-0.19779225
234	0x3e1ea6df	0.15493344
235	0x3cd3d837	0.025859935
236	0xbd8f0e49	-0.069851466
237	0xbcbe0c11	-0.023199113
238	0x3caf7032	0.021415804
239	0x3e5f4a33	0.21805649
240	0x3c34829a	0.011017466
241	0x3e532d1a	0.20622674
242	0x3e37e63d	0.17958923
243	0x3d00a34f	0.031405743
244	0xbdaf4c80	-0.08559513
245	0x3ba6e5a4	0.0050932933
246	0xbca677d5	-0.020320812
247	0x3db12149	0.08648927
248	0xbd8c7c78	-0.06859678
249	0x3d1a5e99	0.03768787
250	0x3da71c7e	0.08159731
251	0xbe09b765	-0.13448866
252	0xbe1738bb	-0.14767735
253	0x3be9cdaf	0.007135115
254	0x3d33f3d9	0.043933723
255	0xbc932837	-0.017963512

arith.constant13 f4 [64, 1, 3, 64]
0	0x3e17370e	0.14767095
1	0x3e448526	0.19191417
2	0xbde5ae2c	-0.11214861
3	0xbdae7dc7	-0.08520084
4	0xbd45f337	-0.04832765
5	0xbe217ecd	-0.15771027
6	0xbc02abd2	-0.0079755355
7	0x3d2ba1f2	0.04190249
8	0x3c832f13	0.016013658
9	0x3e0dd628	0.13851225
10	0x3d5517aa	0.05202452
11	0xbd1e7cca	-0.038693227
12	0x3e014dba	0.12627307
13	0x3d82b4d2	0.06382145
14	0xbd91ce35	-0.07119409
15	0xbd0535b5	-0.032521922
16	0x3c58d927	0.013235367
17	0x3ce57e3d	0.028014297
18	0x3da375f8	0.07981485
19	0xbe04e0fc	-0.1297645
20	0x3e1111b4	0.1416691
21	0xbd1aa972	-0.037759252
22	0xbd699143	-0.057023298
23	0x3dfbd587	0.122965865
24	0x3dbc65dc	0.09199116
25	0xbe125474	-0.14290029
26	0xb9b4ab70	-0.00034460006
27	0xbe025154	-0.12726337
28	0x3d85e7a7	0.06538325
29	0xbe41b9c2	-0.18918517
30	0xbcec83b2	-0.028871391
31	0x3e3ac37f	0.18238638
32	0x3c27c1d3	0.010239082
33	0x3cdeba4d	0.027188445
34	0x3cc3aaae	0.023885097
35	0x3d62d587	0.055379417
36	0xbd9d083c	-0.07667586
37	0xbc73cc40	-0.01488024
38	0x3e26dae8	0.16294444
39	0xbdb7f019	-0.08981342
40	0xbe140515	-0.14455064
41	0x3e17ecca	0.14836422
42	0x3c0fad23	0.008769306
43	0x3d72db7e	0.059291355
44	0x3cb4c3c5	0.022066006
45	0x3dbef55e	0.09324144
46	0xbe1575c6	-0.14595708
47	0xbd643f0f	-0.0557242
48	0xbc515aa7	-0.012777961
49	0x3dd4d400	0.10391998
50	0xbcc6198c	-0.024182104
51	0x3d1fcb78	0.039012402
52	0x3da6b8b1	0.08140696
53	0xbe4d147b	-0.20027344
54	0x389b661c	7.409995e-05
55	0x3d21afee	0.03947442
56	0xbd1c517d	-0.03816365
57	0x3d2cb078	0.04216048
58	0xbe2778d0	-0.1635468
59	0xbd74f25e	-0.05980145
60	0xbe314343	-0.17310815
61	0x3dc39b3e	0.095510945
62	0x3e0c0d8b	0.13677041
63	0x3db0a3d4	0.08624998
64	0x3deae1cb	0.11468848
65	0xbe117729	-0.14205612
66	0xbcc90253	-0.024537241
67	0xbca474a5	-0.020075152
68	0xbe1444a3	-0.14479308
69	0xbdf5eac4	-0.120076686
70	0x3d242647	0.040075567
71	0x3e01b0a8	0.12665045
72	0xbdc6f58b	-0.09714802
73	0x3c47ab14	0.012186784
74	0x3bbbd242	0.005731852
75	0xbdbb6782	-0.09150602
76	0xbe548168	-0.2075249
77	0x3bda11c2	0.006654949
78	0xbd33077f	-0.04370832
79	0x39bd872d	0.00036149603
80	0xbdc05aad	-0.09392295
81	0xbd06f45f	-0.032947894
82	0x3c430e12	0.01190521
83	0x3d8bb432	0.06821479
84	0xbe061c76	-0.13096794
85	0x3daf64dd	0.0856416
86	0xbcf2f1ae	-0.029656257
87	0x3d0912ea	0.033465303
88	0x3e0a0117	0.13476978
89	0xbdeac20f	-0.11462795
90	0x3e3104dc	0.1728701
91	0xbd930e23	-0.07180431
92	0x3e2f4812	0.17117336
93	0x3be85d18	0.0070911758
94	0xbe00be95	-0.12572701
95	0xbe06e02c	-0.13171452
96	0xbda00a88	-0.07814509
97	0xbdbc928e	-0.092076406
98	0xbc240c04	-0.01001263
99	0x3e30f7e3	0.17282061
100	0x3e474791	0.19460894
101	0xbcc3a12a	-0.02388056
102	0x3da2e3c7	0.07953601
103	0xb9aef8a4	-0.00033373118
104	0xbd50b7f6	-0.05095669
105	0xbce032ab	-0.02736791
106	0x3c8f33f6	0.017480832
107	0xbe143847	-0.14474593
108	0x3d8ed84a	0.069748476
109	0x3d1a498c	0.037667796
110	0x3d2e445a	0.042545654
111	0x3e25fdbb	0.16210072
112	0xbdd63994	-0.10460201
113	0xbcfcca2c	-0.030858122
114	0xbb95dfc1	-0.0045737927
115	0xbd9d1a95	-0.07671086
116	0xbdbf39d4	-0.09337202
117	0x3cda8ea2	0.02667934
118	0xbdedae8a	-0.11605556
119	0x3e075afe	0.13218305
120	0x3cb661e5	0.022263477
121	0x3c96c410	0.018404037
122	0x3d84327b	0.06454941
123	0x3e619b79	0.22031964
124	0x3e3bf222	0.18354085
125	0x3d4f5386	0.050616764
126	0x3e74542f	0.23860238
127	0x3da9c6ee	0.08289896
128	0x3d3b541d	0.045734514
129	0x3df22bd5	0.118247665
130	0xbcc96c31	-0.024587722
131	0xbdb185d9	-0.086681075
132	0x3e2edaeb	0.17075698
133	0x3d1f3ce1	0.038876418
134	0x3d60e102	0.054902084
135	0xbcf154c5	-0.029459367
136	0xbdc24811	-0.09486402
137	0xbe6b26eb	-0.22964065
138	0xbddd27bd	-0.10798595
139	0x3d909da9	0.07061321
140	0x3d0eac0b	0.03483204
141	0x3ceca066	0.028885078
142	0xbc56b99b	-0.013105775
143	0x3e63ea44	0.22257334
144	0xbd11fe84	-0.035643116
145	0xbd9b4c23	-0.07582881
146	0xbe2f8680	-0.17141151
147	0xbe3fb0ac	-0.18719739
148	0xbe0cf6b9	-0.13765992
149	0x3d248f98	0.040176004
150	0x3cc3411c	0.023834758
151	0x3c642494	0.0139247365
152	0x3d184996	0.037179552
153	0xbd04e10f	-0.032441195
154	0x3e200358	0.15626276
155	0xbd99313b	-0.07480093
156	0x3e1d7aee	0.15378925
157	0xbd8070d0	-0.06271517
158	0xbd8426c8	-0.064527094
159	0x3db51808	0.08842474
160	0xbda316ac	-0.07963309
161	0x3e4db463	0.20088343
162	0xbe487688	-0.19576466
163	0xbe433115	-0.19061692
164	0x3dd1877a	0.10230918
165	0xbcfb4e14	-0.030676879
166	0x3d471484	0.04860355
167	0xbde4162d	-0.11137042
168	0xbdba2f45	-0.09091047
169	0x3c96bb15	0.018399755
170	0x3d811583	0.06302931
171	0x3d47aa9e	0.048746698
172	0xbcdf7356	-0.027276676
173	0x3cfe8714	0.03107027
174	0x3e20bcdb	0.15697043
175	0xbe2abf08	-0.16674435
176	0xbd242214	-0.040071562
177	0xbd90f7e5	-0.07078532
178	0x3d80c3c9	0.06287343
179	0x3e282b0f	0.16422676
180	0x3de3c900	0.11122322
181	0x3d044cc2	0.032299764
182	0x3d5fdadb	0.054652076
183	0x3d853ee6	0.065061375
184	0x3ccafd65	0.024779031
185	0xbd9337af	-0.07188355
186	0x3d7cd8e2	0.061730273
187	0xbdbb4220	-0.09143472
188	0x3de2e2dd	0.11078427
189	0x3e2ab0e7	0.16669045
190	0x3e6ce69d	0.23134847
191	0x3d059cf2	0.032620378
192	0xbd03a64b	-0.03214101
193	0x3d0cd9bf	0.034387346
194	0x3d84c1ee	0.06482302
195	0x3e117a2d	0.14206763
196	0xbd844759	-0.06458921
197	0xbe400bd3	-0.1875451
198	0xbce683e8	-0.02813907
199	0x3dd06361	0.10175205
200	0x3dbb6dee	0.09151827
201	0x3dbf83f5	0.09351341
202	0xbde845b2	-0.11341418
203	0x3d435d6d	0.04769652
204	0xbdfbe7f4	-0.12300101
205	0x3e3c4b4f	0.18388103
206	0xbc28b8a1	-0.010297925
207	0xbdf3ea01	-0.11909867
208	0xbd696856	-0.056984268
209	0xbe631320	-0.22175264
210	0x3e028592	0.12746266
211	0xbe5a993d	-0.21347518
212	0x3db93e47	0.090450816
213	0xbd689608	-0.056783706
214	0xbe164465	-0.14674528
215	0xbd4d9b6c	-0.05019705
216	0xbdc6927d	-0.09695909
217	0x3ce972b2	0.028497074
218	0x3e0eb860	0.13937521
219	0x3d2970e7	0.041367438
220	0xbc6469c6	-0.013941234
221	0xbd1a1482	-0.037617214
222	0x3dd3c1ec	0.10339722
223	0x3e44110d	0.1914713
224	0x3d911b7e	0.07085322
225	0xbd65e7e4	-0.05612935
226	0x3e0425bf	0.12905024
227	0xbd78e8a5	-0.060768742
228	0xbd1f7de5	-0.03893842
229	0x3d8d21ca	0.068912104
230	0x3e18c4f2	0.14918879
231	0x3e281691	0.16414858
232	0xbdebf6f8	-0.11521715
233	0x3d99f1b1	0.07516802
234	0xbdcf92c3	-0.101354145
235	0xbd420804	-0.047370926
236	0xbdbc1f8e	-0.09185706
237	0xbd5ce18e	-0.053926043
238	0x3caead0e	0.021322753
239	0xbd8f11ef	-0.069858424
240	0xbd6a47e8	-0.05719748
241	0xbc81f4f2	-0.01586387
242	0x3d91d244	0.07120183
243	0xbd1efed0	-0.038817227
244	0x3ddbeb88	0.107382834
245	0x3d030df0	0.031995714
246	0xbccc5d78	-0.024946913
247	0x3d0a14d5	0.033711273
248	0x3e5a4541	0.21315481
249	0x3d5af8de	0.053459994
250	0x3e30a47d	0.17250247
251	0xbe2fdb91	-0.17173602
252	0x3dfa5316	0.12222879
253	0xbd3b3813	-0.045707773
254	0x3d48d0a3	0.049027096
255	0x3cde4a94	0.027135171

arith.constant14 f4 [64, 1, 3, 64]
0	0x3e455db0	0.1927402
1	0x3deb30f0	0.114839435
2	0xbc90172c	-0.017589174
3	0xbb2b440d	-0.002613309
4	0x3d4a159b	0.04933701
5	0x3d120361	0.035647754
6	0x3dbc44ef	0.091928355
7	0x3d82e02d	0.063904144
8	0x3d94554e	0.07242833
9	0xbe16cfc6	-0.14727697
10	0xbd0eb083	-0.034836303
11	0x3c941a3f	0.018078921
12	0x3e0e34a7	0.13887273
13	0xbdd225d5	-0.10261122
14	0xbd0afc76	-0.03393217
15	0x3df83d34	0.121210486
16	0xbcd523e2	-0.026018087
17	0x3e02388e	0.12716886
18	0xbdc56a9e	-0.09639476
19	0xbe45e59f	-0.19325875
20	0x3e261133	0.16217498
21	0xbc064785	-0.0081957625
22	0xbaae9326	-0.0013319
23	0xbd8eadfc	-0.06966779
24	0x3dc7724c	0.09738597
25	0x3e11da4a	0.14243427
26	0xbc3f96c3	-0.011693659
27	0xbca1b7da	-0.019740988
28	0xbdfd505a	-0.123688415
29	0x3d704461	0.05865896
30	0x3e239b9a	0.15977326
31	0xbd79c2fe	-0.060976975
32	0xbe423823	-0.18966727
33	0xbbb8235d	-0.00561945
34	0x3d46d03d	0.048538435
35	0x3e146d20	0.14494753
36	0xbdf30130	-0.11865461
37	0xbc816132	-0.015793417
38	0xbdf40e36	-0.11916773
39	0x3d4805ac	0.048833534
40	0xbd739460	-0.059467673
41	0x3e054768	0.1301552
42	0xbe203c0a	-0.15647903
43	0xbda17518	-0.07883662
44	0x3ccb3119	0.024803685
45	0xbe0a4b02	-0.13505176
46	0x3e14677e	0.14492604
47	0xbdad1e52	-0.08453049
48	0xbe31ca89	-0.17362417
49	0x3cd05e4e	0.025435593
50	0xbe5f9f17	-0.21838032
51	0x3cf195a8	0.029490307
52	0x3dff5079	0.12466521
53	0x3dad7529	0.08469612
54	0xbd6bc95b	-0.057565074
55	0xbb8997d6	-0.0041990085
56	0x3e52e47f	0.20594977
57	0xbd986e06	-0.0744286
58	0xbcb93d20	-0.022612154
59	0xbdc7b0cf	-0.097505204
60	0x3e06aa0c	0.13150805
61	0xbdca72be	-0.098851666
62	0xbe031439	-0.12800683
63	0xbe78a13e	-0.24280259
64	0xbd257124	-0.040391102
65	0xbdb3afd5	-0.08773772
66	0x3ce01402	0.02735329
67	0x3e22658a	0.15859047
68	0x3e4ec51f	0.20192383
69	0x3d9bf742	0.0761552
70	0xbd4b54a7	-0.049641278
71	0x3ddcb4f3	0.10776701
72	0x3d2968c2	0.04135967
73	0x3d4dfd69	0.0502905
74	0x3e058bc8	0.13041604
75	0xbc793017	-0.015209219
76	0x3e03cfe9	0.1287228
77	0xbd8482dc	-0.06470272
78	0x3db10e4e	0.086453065
79	0x3ce9c8a0	0.028538048
80	0x3e02e424	0.12782341
81	0x3c6f7f30	0.014617726
82	0x3db31a12	0.08745207
83	0xbe28fc5e	-0.1650252
84	0x3e532cc5	0.20622547
85	0x3d37f4aa	0.044911064
86	0xbd9f4048	-0.077759326
87	0xbdd4143d	-0.10355423
88	0xbd75aa28	-0.059976727
89	0xbe3f6b97	-0.18693386
90	0x3d7d56ab	0.06185023
91	0xbd1480a2	-0.036255486
92	0xbd62205a	-0.055206634
93	0xb978d70d	-0.00023731236
94	0x3e1822db	0.14857046
95	0x3cdc41c5	0.02688683
96	0x3e2229ba	0.1583623
97	0xba16ee6e	-0.00057575747
98	0xbdfc2465	-0.12311629
99	0xbcb7f8ec	-0.022457562
100	0xbd93b7c2	-0.072127834
101	0x3e59440b	0.21217363
102	0xbd691421	-0.056903962
103	0xbd84bdc5	-0.06481508
104	0x3e02dd53	0.12779741
105	0xbdc205a8	-0.09473735
106	0x3e1ca186	0.15295991
107	0x3a88c089	0.0010433357
108	0x3d735e9b	0.059416395
109	0x3cc22f94	0.023704328
110	0xbdabe390	-0.083930135
111	0x3ce678ee	0.028133836
112	0xbe28c499	-0.16481246
113	0x3cabbf85	0.020965347
114	0x3e1f1945	0.15536983
115	0xbc159387	-0.009129412
116	0xbe0fa06f	-0.14026044
117	0x3b63cd44	0.00347598
118	0xbe063065	-0.13104399
119	0x3e564f7b	0.20928757
120	0x3d78bae9	0.060725126
121	0xbe403b72	-0.18772677
122	0x3d40cef2	0.04707236
123	0x3e3a0a24	0.18167931
124	0x3db82c0f	0.089927785
125	0x3de130e2	0.10995652
126	0x3cf15f30	0.029464334
127	0xbe327ae3	-0.1742969
128	0xbdf21569	-0.1182049
129	0xbe03e464	-0.12880093
130	0x3e3847b9	0.1799611
131	0xbe0954c3	-0.1341124
132	0xbdc19b9e	-0.0945351
133	0xbd3c38e1	-0.04595268
134	0x3a0b12a7	0.00053052086
135	0x3ca3a0ad	0.019974077
136	0x3e0f08ca	0.13968197
137	0xbdd29b58	-0.10283536
138	0xbd8bcb15	-0.06825844
139	0xbdca69a0	-0.098834276
140	0x3d04ba8d	0.03240447
141	0xbe1dc258	-0.15406168
142	0x3e2e6391	0.17030169
143	0xbdaeb9cc	-0.08531532
144	0x3d201dcb	0.039090913
145	0xbd269ebd	-0.04067873
146	0x3dbc71dd	0.09201405
147	0x3e1c8a03	0.15287022
148	0xbd924b71	-0.071432956
149	0xbe00bf87	-0.12573062
150	0xbe08696a	-0.13321462
151	0x3d9efe4e	0.077633485
152	0x3e0ea1b0	0.13928866
153	0x3e51212c	0.2042281
154	0xbda9c0a3	-0.08288696
155	0xbcd5a724	-0.026080675
156	0x3c8f9e6e	0.0175316
157	0xbddf1db5	-0.10894338
158	0xbd459892	-0.048241206
159	0xbe0660be	-0.13122842
160	0x38fe06a0	0.00012112898
161	0xbb393216	-0.0028258613
162	0xbd89cc05	-0.06728367
163	0xbe19332f	-0.14960931
164	0xbe09e95f	-0.1346793
165	0xbdfd1c7a	-0.12358947
166	0xbdcd5c20	-0.10027337
167	0x3d961374	0.07327929
168	0x3de12509	0.10993392
169	0xbe4dd40e	-0.20100424
170	0xbe78d22f	-0.24298929
171	0xbc6c2288	-0.01441253
172	0xbe2a8279	-0.16651334
173	0xbc7f1ceb	-0.015570859
174	0xbc79f238	-0.015255503
175	0x3d4cebe8	0.050029665
176	0xbda135b4	-0.07871571
177	0x3e65f7f0	0.22457862
178	0xbdae4bd0	-0.08510554
179	0xbcb0fd9a	-0.021605302
180	0xbdb9ecc1	-0.0907836
181	0xbda3dd15	-0.080011524
182	0x3ddec08e	0.10876571
183	0xbe2ce8dd	-0.16885705
184	0xbdac725d	-0.084202506
185	0xbda934cd	-0.08262024
186	0xbdd6a2c3	-0.10480263
187	0xbe512fa0	-0.20428324
188	0x3e076335	0.13221438
189	0xbde93cc7	-0.113885455
190	0xbdeec72e	-0.11659084
191	0x3d9ca03c	0.0764775
192	0x3e3fe463	0.18739466
193	0x3d391c1c	0.045192823
194	0x3dd46587	0.10370927
195	0xbc212fb8	-0.009838037
196	0x3df69a0a	0.12041099
197	0x3cf877d7	0.030330582
198	0xbe1d697a	-0.15372267
199	0xbdb857cc	-0.09001121
200	0x3d639e75	0.05557104
201	0xbd3fe3f0	-0.046848238
202	0xbd13f494	-0.03612192
203	0x3e3325d9	0.17494906
204	0x3ce364d6	0.027758043
205	0xbdab0700	-0.083509445
206	0x3d3000ce	0.042969517
207	0x3d05fe25	0.032713074
208	0xbc91d73f	-0.017802833
209	0x3e399033	0.18121414
210	0xbdadf5db	-0.08494159
211	0xbe5d93aa	-0.2163836
212	0x3e23fc98	0.16014326
213	0x3d58fe8c	0.05297713
214	0x3da165de	0.07880758
215	0xbdf5e6e2	-0.12006928
216	0xbe15c183	-0.146246
217	0x3d546e8f	0.05186325
218	0xbc2ed43b	-0.010670717
219	0x3d91b57e	0.07114695
220	0xbe419494	-0.18904334
221	0x3e399323	0.18122534
222	0xbdd2bc45	-0.10289816
223	0x3e36e6e7	0.1786152
224	0x3e2da105	0.16955955
225	0x3dcb610a	0.09930618
226	0xbdf84d04	-0.121240646
227	0x3d746992	0.059670992
228	0xbdbdd2dc	-0.09268734
229	0x3e12162c	0.1426627
230	0xbd6a32a1	-0.05717719
231	0x3d246f7d	0.040145386
232	0x3d9d7b2c	0.07689509
233	0x3d221d3f	0.039578672
234	0x3d3ff3ed	0.046863485
235	0xbc541a2b	-0.012945692
236	0x3d189b1a	0.03725729
237	0x3e278496	0.16359171
238	0x3d4372c9	0.04771689
239	0x3e06cdb2	0.13164404
240	0xbcd113cc	-0.025522135
241	0xbdf706ae	-0.12061821
242	0x3c95b668	0.018275455
243	0xbe621243	-0.22077279
244	0x3d5a150f	0.05324274
245	0xbe66187f	-0.22470282
246	0x3e393df8	0.18090045
247	0xbcdbedfe	-0.026846882
248	0x3d1f9819	0.03896341
249	0xbe4757ca	-0.19467083
250	0x3dc29617	0.095012836
251	0x3e11307d	0.14178653
252	0x3dea6d88	0.11446673
253	0xbe133d8d	-0.14378949
254	0xbd26d3e7	-0.04072943
255	0x3ddc65c0	0.10761595
