final/model.tflite (tflite, 37220 bytes, 31 tensors)

arith.constant f4 [8]
0	0xbd240be9	-0.04005042
1	0x3dad5321	0.08463121
2	0xbdc410a4	-0.095734864
3	0xbd5a8337	-0.053347792
4	0xbcd04b1e	-0.025426444
5	0xbd7b5b0c	-0.061366126
6	0xbd35a0f4	-0.04434295
7	0xbd747ca9	-0.059689198

arith.constant1 f4 [8]
0	0xbd5c89a2	-0.053842194
1	0xbcbabf3a	-0.022796262
2	0xbd524c3e	-0.05134224
3	0x3b680004	0.00354004
4	0xbc7df4ae	-0.015500231
5	0xbc497421	-0.012295754
6	0xbd2b62b8	-0.041842192
7	0xbdacbef9	-0.08434863

arith.constant2 f4 [8]
0	0xbd307f63	-0.043090235
1	0xbda0ecd4	-0.078576714
2	0xbcbda51b	-0.023150017
3	0xbcb6dadd	-0.022321159
4	0xbcf3ccac	-0.029760681
5	0xbd1ad6ba	-0.037802435
6	0xbc12cf1c	-0.008960512
7	0x3d175915	0.03695019

arith.constant9 f4 [8, 1, 3, 8]
0	0x3f16f9aa	0.5897471
1	0x3d0f886c	0.03504221
2	0xbed66b4c	-0.41878736
3	0x3e6b8169	0.22998585
4	0xbee8e7d1	-0.45489362
5	0xbd1be2d1	-0.038058106
6	0x3f13434c	0.5752456
7	0xbdbedd04	-0.09319499
8	0x3ecd6248	0.40114045
9	0x3f105b96	0.5638975
10	0x3d65e238	0.056123942
11	0xbe8c08ed	-0.2735056
12	0x3ea95fc9	0.3308089
13	0xbf1c9d83	-0.61177844
14	0x3d58c082	0.052917965
15	0x3e754577	0.2395228
16	0xbdb138f5	-0.08653442
17	0xbe094562	-0.13405374
18	0x3ed7ff18	0.4218681
19	0x3e1ee1ef	0.15515874
20	0xbdcf70ba	-0.10128923
21	0x3d10a46e	0.035313062
22	0x3e263e80	0.1623478
23	0x3f38d373	0.72197646
24	0x3e5e697e	0.2171993
25	0x3e085c4f	0.13316463
26	0x3da1b9b7	0.078967504
27	0x3ccc2ea6	0.024924587
28	0x3ebe54e9	0.37174156
29	0x3ebc7faa	0.3681615
30	0x3e089401	0.13337709
31	0x3f068bb2	0.5255691
32	0xbd2d74d6	-0.04234775
33	0xbdfce7be	-0.12348889
34	0xbd3cd252	-0.046099015
35	0xbe7cbf3b	-0.24682324
36	0x3e59ca6c	0.21268624
37	0xbea56be6	-0.32308882
38	0xbdb4e415	-0.08832566
39	0x3e07d4cc	0.1326477
40	0x3e59a809	0.21255507
41	0xbce8c0fa	-0.02841233
42	0xbf0965d4	-0.53671
43	0xbecc46a3	-0.39897642
44	0x3f020c28	0.507998
45	0xbcf170d9	-0.029472755
46	0xbdd5143b	-0.10404249
47	0x3eaf35da	0.34220773
48	0x3d2454d3	0.040119957
49	0xbe2a9f0e	-0.16662237
50	0x3e7e2c41	0.24821569
51	0x3da1aae1	0.07893921
52	0x3e4852f1	0.1956289
53	0x3e452c02	0.19255069
54	0x3f1d4f86	0.6144947
55	0xbee7f9c8	-0.45307755
56	0x3c4aec5c	0.012385454
57	0x3ebf90e2	0.37415224
58	0xbe9864e3	-0.2976447
59	0xbe1bad4d	-0.15202828
60	0xbd7ca027	-0.06167617
61	0x3ee407ac	0.44537103
62	0x3e8d90d8	0.2764957
63	0xbe6b54ad	-0.2298152
64	0xbeb1f337	-0.3475587
65	0xbe378926	-0.17923412
66	0xbe5da08e	-0.21643278
67	0xbe67da2c	-0.2264182
68	0x3e7c4ecf	0.24639438
69	0xbd66073c	-0.056159243
70	0x3e4e5bcf	0.2015221
71	0xbe01f1cd	-0.12689896
72	0xbd8be0b3	-0.06829967
73	0x3e8b67b0	0.27227545
74	0x3db6270d	0.08894167
75	0x3e26dfd9	0.16296329
76	0x3ca674ac	0.020319305
77	0x3e1fea85	0.15616806
78	0x3e913bf1	0.28366044
79	0xbe8cabe4	-0.27474892
80	0x3e2a5e31	0.16637494
81	0x3e84a666	0.25908202
82	0x3e57960d	0.21053334
83	0x3e3b4ae2	0.18290284
84	0xbf19a565	-0.60018
85	0xbecb3797	-0.3969085
86	0x3f072717	0.5279402
87	0x3cb5f857	0.022213144
88	0x3eec561f	0.46159455
89	0xbf07ba3c	-0.53018546
90	0x3d213cb6	0.03936454
91	0xbe33f0fb	-0.17572396
92	0x3dbbc725	0.09168843
93	0xbef3c0bc	-0.47607982
94	0xbe052241	-0.13001348
95	0xbdf241bf	-0.11828946
96	0xbeb1a5c0	-0.3469677
97	0xbe706e32	-0.23479536
98	0x3db3b4ab	0.08774694
99	0x3e5ac874	0.2136553
100	0x3e57cd9b	0.21074526
101	0x3e8808cf	0.2656922
102	0x3e0349ea	0.12821165
103	0x3e374809	0.17898573
104	0xbe16dbef	-0.14732336
105	0x3e8fd5af	0.28092715
106	0x3e1a9453	0.15095644
107	0xbc6fd39f	-0.014637857
108	0x3c2711c4	0.010197107
109	0x3e835336	0.25649422
110	0xbde747e5	-0.1129301
111	0x3e95d7fb	0.29266343
112	0xbda3f01a	-0.0800478
113	0xbec2c3da	-0.38040048
114	0x3d5be537	0.053685393
115	0x3e84b04c	0.25915754
116	0x3e3856b0	0.18001819
117	0x3d2bd6bb	0.04195283
118	0xbdc614d5	-0.09671942
119	0x3e4a4d5e	0.19756076
120	0xbed23959	-0.41059378
121	0xbda7f647	-0.082012706
122	0xbe5f778f	-0.21822952
123	0xbdc78b02	-0.097433105
124	0xbe9a5502	-0.3014298
125	0x3e805dbd	0.25071517
126	0xbf0ad968	-0.54237986
127	0xbe7de677	-0.24794947
128	0xbe773211	-0.24140193
129	0xbeadf2b6	-0.33974236
130	0xbefa4e17	-0.48887703
131	0x3ec09985	0.37617126
132	0x3ec2a9d5	0.38020197
133	0xbefc014e	-0.49219745
134	0x3cf4d0b3	0.029884672
135	0xbe2113e1	-0.1573024
136	0x3c43ea8c	0.011957776
137	0xbe816286	-0.2527048
138	0xbe1d5ce8	-0.15367472
139	0xbc522b25	-0.012827669
140	0x3e90ec45	0.2830526
141	0x3ead50c5	0.33850685
142	0xbeeb6344	-0.4597417
143	0x3ef83241	0.4847584
144	0xbe284a99	-0.16434707
145	0xbc681c43	-0.014166894
146	0x3e12ea92	0.14347294
147	0x3d53e8a2	0.051735528
148	0x3e3e3f61	0.18578865
149	0x3d4a1185	0.049333114
150	0x3ed0e630	0.4080062
151	0xbd86880c	-0.06568918
152	0xbe8aec39	-0.2713335
153	0x3eb741a5	0.3579227
154	0x3dd710dd	0.10501263
155	0xbe3166b9	-0.17324342
156	0xbe0d3132	-0.13788298
157	0x3e8d61ab	0.27613577
158	0xbe1dafae	-0.15399048
159	0xbe70c5f9	-0.2351302
160	0xbefe50b5	-0.4967095
161	0xbe23f090	-0.16009736
162	0x3e38bb1d	0.18040128
163	0xbe8e046a	-0.27737743
164	0x3ee53b59	0.4477184
165	0xbe154c9a	-0.14580002
166	0x3e9c8512	0.30570275
167	0x3e7e39c8	0.2482673
168	0x3ddc739d	0.10764239
169	0xbe92251a	-0.2854393
170	0x3eb342d4	0.35011923
171	0xbe3f4dac	-0.18681973
172	0xbe6b67db	-0.22988836
173	0x3e82b77d	0.25530615
174	0xbe305088	-0.1721822
175	0xbf120c5d	-0.57050115
176	0x3ca9b0eb	0.020714244
177	0xbe3ce417	-0.18446384
178	0x3e34bff5	0.17651351
179	0xbe4c2f14	-0.19939834
180	0xbe85d3e2	-0.26138216
181	0xbe5a33e8	-0.21308863
182	0xbeca2fee	-0.39489692
183	0x3e978a13	0.2959753
184	0x3dc5984b	0.09648188
185	0xbeb41ac2	-0.35176665
186	0x3ddd8385	0.10816101
187	0xbdeadb03	-0.114675544
188	0xbea26c2d	-0.31723157
189	0x3e3affd3	0.18261652
190	0x3daa7178	0.08322424
191	0xbe604a0c	-0.21903247

arith.constant10 f4 [8, 1, 3, 8]
0	0xbe1cb9f9	-0.15305318
1	0x3e5a9178	0.21344554
2	0x3ec025f3	0.37528953
3	0x3ea61a0f	0.32441756
4	0x3e8060a8	0.25073743
5	0x3d54b0b7	0.05192634
6	0xbe658e1b	-0.2241749
7	0x3ece6d7f	0.40317914
8	0x3e01de7b	0.12682526
9	0x3eed17f6	0.46307343
10	0x3e08760e	0.13326284
11	0xbe8035ff	-0.25041196
12	0x3dd1523c	0.10220763
13	0x3db768e9	0.08955557
14	0x3ef7c42f	0.48391864
15	0x3e3b8f9d	0.18316503
16	0x3dad74e9	0.084695645
17	0x3e28649a	0.16444626
18	0x3eb2d118	0.3492515
19	0xbe1693c4	-0.14704806
20	0xbed069d0	-0.4070573
21	0x3d2e2f4e	0.042525582
22	0x3ec48095	0.3837935
23	0x3ed2bfae	0.41161865
24	0xbe9cb580	-0.30607224
25	0xbd82b326	-0.06381826
26	0xbe286d2f	-0.164479
27	0x3da4622f	0.080265395
28	0x3ec5304a	0.38513404
29	0x3da836a0	0.08213544
30	0xbdaae24a	-0.083439425
31	0xbeae0d53	-0.3399454
32	0x3ecd810f	0.40137526
33	0x3df11ee5	0.11773471
34	0xbf01f5b8	-0.5076556
35	0x3db307c8	0.087417185
36	0xbe34824f	-0.17627834
37	0x3db7c6bd	0.08973453
38	0xbe8c0d10	-0.27353716
39	0x3ca1dfce	0.019760039
40	0xbc8bfb62	-0.017087642
41	0xbe85d3e0	-0.2613821
42	0x3e0ebb3f	0.13938616
43	0xbda213a1	-0.079139
44	0x3e2d9136	0.16949925
45	0xbe064838	-0.13113487
46	0x3e912c82	0.2835427
47	0x3ebd72e3	0.37001714
48	0x3e8735c6	0.26408213
49	0xbe86f313	-0.26357326
50	0x3e8bab33	0.27279052
51	0x3e18fe1d	0.14940687
52	0x3e5c0dd5	0.21489652
53	0x3d96bbbe	0.07360028
54	0x3d9add84	0.07561782
55	0x3e8263b9	0.25466707
56	0x3f071ed9	0.52781445
57	0xbc721776	-0.014776101
58	0x3eed1f85	0.4631311
59	0xbecebc7d	-0.4037818
60	0xbee7ba4c	-0.4525932
61	0x3d1e0e1f	0.038587686
62	0xbd86f0bb	-0.065888844
63	0xbf0b1473	-0.5432808
64	0x3d7585b4	0.059941962
65	0x3ebe2f19	0.37145308
66	0x3dec1886	0.11528115
67	0x3cc78c82	0.024358992
68	0x3f00a957	0.5025839
69	0xbe9a6717	-0.30156776
70	0x3e94bfe0	0.2905264
71	0xbc92ce05	-0.017920503
72	0xbe762326	-0.24036846
73	0xbe8d1f78	-0.2756307
74	0x3e0be881	0.13662912
75	0x3e15840c	0.14601153
76	0x3d433310	0.04765612
77	0xbe8a1bd4	-0.26974356
78	0xbe0b962b	-0.13631503
79	0x3e8c1c4b	0.27365336
80	0x3e972a9c	0.29524696
81	0x3e54bf72	0.20776156
82	0x3ebb621c	0.3659829
83	0x3f11bcfe	0.56929004
84	0x3e9fb860	0.31195354
85	0xbe62ee4f	-0.2216122
86	0x3dae208d	0.08502302
87	0x3ea8ec07	0.32992575
88	0xbe3a5000	-0.1819458
89	0x3dda224d	0.106510736
90	0x3dc965c5	0.09833864
91	0x3cc1bc00	0.023649216
92	0x3d4bedb9	0.049787257
93	0xbe662927	-0.22476636
94	0x3db1dc2d	0.08684573
95	0xbcbde9b1	-0.023182722
96	0x3e191974	0.14951116
97	0x3f155d19	0.5834518
98	0x3e7d356b	0.24727409
99	0xbefb93aa	-0.49136096
100	0x3e4da210	0.20081353
101	0xbd4119e2	-0.047143824
102	0x3ec500dd	0.3847722
103	0x3ed7e354	0.42165625
104	0xbe68cea6	-0.2273508
105	0xbf2d8ce9	-0.67793137
106	0x3e8e0c6c	0.27743852
107	0x3c4b2aa7	0.012400306
108	0xbe65e834	-0.2245186
109	0x3e817d96	0.25291127
110	0xbead5454	-0.338534
111	0xbe9cf21d	-0.30653468
112	0x3f058f5d	0.5217188
113	0xbe899ae6	-0.2687599
114	0x3d8b8de0	0.0681417
115	0x3df4d3fb	0.119544946
116	0xbeb13531	-0.34610894
117	0xbf051103	-0.5197908
118	0xbecc4c1d	-0.3990182
119	0x3ef84017	0.48486397
120	0x3ec251f9	0.37953165
121	0xbf3052cb	-0.6887633
122	0x3e523b4c	0.20530432
123	0x3e95ff6e	0.2929644
124	0x3e4a96d4	0.19784099
125	0xbefe6e90	-0.49693727
126	0x3f098a94	0.5372708
127	0xbdecb1d7	-0.11557358
128	0xbe986bfe	-0.29769892
129	0xbed6558f	-0.4186215
130	0x3b730c62	0.0037086238
131	0xbd81a2b6	-0.06329863
132	0x3e3e15a7	0.18562947
133	0x3e48ee67	0.19622193
134	0xbe388ae6	-0.18021736
135	0x3d3b8a00	0.045785904
136	0xbef68cf1	-0.48154405
137	0x3d5ea286	0.054354213
138	0x3e63fa05	0.22263344
139	0x3f0fde84	0.56198907
140	0xbcf07c3d	-0.029356116
141	0xbcf1d58b	-0.02952077
142	0xbe911c2e	-0.28341812
143	0x3ebf36fe	0.37346643
144	0xbdac1a5a	-0.08403464
145	0x3e72c2a2	0.23707059
146	0x3be725f6	0.007054086
147	0x3e8480db	0.2587956
148	0x3d6b2714	0.057410315
149	0xbe53486a	-0.20633093
150	0x3d5d98bd	0.05410074
151	0xbdde77ea	-0.108627155
152	0x3ec65247	0.38734648
153	0xbf021a09	-0.50820976
154	0xbe8600a3	-0.2617236
155	0x3ddbff57	0.107420616
156	0x3e86593b	0.26239952
157	0xbf062050	-0.52393055
158	0xbe387f94	-0.18017417
159	0xbedb11a7	-0.42786905
160	0xbe20faab	-0.15720622
161	0x3af1a198	0.0018435
162	0x3df00b8e	0.11720954
163	0xbedcb6a4	-0.43108094
164	0xbefa8788	-0.48931527
165	0xbec18d3e	-0.37803072
166	0xbe8c1061	-0.27356246
167	0xbd18a1c5	-0.03726365
168	0x3e0e7365	0.13911207
169	0xbc7a4dd3	-0.015277344
170	0xbe838f26	-0.2569515
171	0xbe866cb0	-0.26254797
172	0xbd0f676c	-0.03501074
173	0xbe41785b	-0.18893568
174	0xbcc14c3a	-0.023595918
175	0xbeb9d3d0	-0.36294413
176	0x3eb7546c	0.35806596
177	0xbe52206e	-0.20520183
178	0x3e812343	0.25222215
179	0xbda67250	-0.08127272
180	0xbed3234d	-0.4123787
181	0x3dd8ffad	0.10595641
182	0xbe5f1ab9	-0.21787538
183	0x3e66eee7	0.22552072
184	0x3ed983af	0.4248328
185	0x3e5082da	0.20362416
186	0xbe6d03cd	-0.23145981
187	0x3ee040d6	0.43799466
188	0x3c94315a	0.018089939
189	0xbe7f13c2	-0.24909881
190	0x3ecf454d	0.4048256
191	0x3de4ab53	0.1116549

arith.constant11 f4 [8, 1, 3, 8]
0	0xbca82274	-0.020524241
1	0x3dd33b07	0.10313993
2	0x3ef8dd11	0.4860616
3	0xbd710886	-0.05884602
4	0xbe357e07	-0.17723857
5	0xbaebc04c	-0.0017986386
6	0x3ee1d76f	0.44109675
7	0x3da550a4	0.080720216
8	0xbf133b41	-0.5751229
9	0x3e92f12d	0.28699628
10	0xbee1e582	-0.44120413
11	0x3b1762c7	0.0023099647
12	0x3ea691e1	0.32533172
13	0xbd154397	-0.03644141
14	0xbd66d776	-0.056357823
15	0x3e85bbf0	0.26119947
16	0x3e614d21	0.22002079
17	0xbc7a2740	-0.015268147
18	0xbe8b21ec	-0.27174318
19	0x3bfb25ab	0.0076644025
20	0xbe1fd25a	-0.15607587
21	0x3ea01203	0.31263742
22	0x3ee518cf	0.4474549
23	0xbef69bef	-0.48165843
24	0x3ea4477b	0.32085785
25	0xbeb3d4c3	-0.35123262
26	0x3da555d7	0.08073013
27	0xbf04be84	-0.51853204
28	0xbeb21693	-0.34782848
29	0xbefd63e4	-0.49490273
30	0xbdd76a31	-0.10518301
31	0x3e380f0a	0.17974487
32	0x3e1d16c7	0.1534072
33	0xbe1e7bad	-0.15476866
34	0x3e20d203	0.15705113
35	0xbdbb547b	-0.09146973
36	0xbc787cc5	-0.015166466
37	0x3ddd697e	0.10811137
38	0x3e56a9a3	0.20963149
39	0xbee2b3d0	-0.4427781
40	0x3ec9bb6f	0.39400813
41	0xbde3025d	-0.11084435
42	0xbd8d1f91	-0.068907864
43	0xbed3f38f	-0.41396758
44	0x3eb6f567	0.35734102
45	0x3e1c8b67	0.15287553
46	0x3e0b1afd	0.13584514
47	0x3ee6d099	0.45081022
48	0xbeaf9b1b	-0.34298024
49	0xbddb34d9	-0.10703439
50	0x3ea87836	0.32904214
51	0x3deb397f	0.11485576
52	0xbe8e9b3d	-0.27852812
53	0xbeec85ad	-0.46195737
54	0x3d7effeb	0.06225578
55	0x3e3c2eae	0.18377182
56	0xbe1d68ee	-0.15372059
57	0x3e752e57	0.23943458
58	0x3e234e69	0.1594788
59	0x3e94368a	0.2894786
60	0xbecf7210	-0.4051671
61	0xbe300441	-0.17189123
62	0xbe10a73b	-0.14126293
63	0x3e04159d	0.1289887
64	0x3ea6f040	0.3260517
65	0x3e52bfa9	0.20580925
66	0xbee84166	-0.45362395
67	0xbdad39b3	-0.08458271
68	0xbd11e110	-0.035615027
69	0x3d87b1ca	0.066257074
70	0x3eba6065	0.36401668
71	0x3e2a7f5c	0.16650146
72	0xbe24eed4	-0.1610673
73	0x3e89af1a	0.26891404
74	0xbde45dcc	-0.11150703
75	0xbe08e272	-0.13367632
76	0x3f12a789	0.5728689
77	0xbe48b7a9	-0.19601311
78	0xbd9cbc96	-0.076531574
79	0xbda9d436	-0.08292429
80	0xbe89f0c2	-0.26941496
81	0x3e565ed1	0.20934607
82	0x3f05e84d	0.5230759
83	0x3e62eff2	0.22161844
84	0xbd582322	-0.05276788
85	0x3e65c151	0.22437026
86	0xbe8911fc	-0.26771533
87	0x3ec6215c	0.38697326
88	0x3e209392	0.15681294
89	0x3e593dab	0.2121493
90	0xbf0f6526	-0.56013715
91	0xbe02f7cb	-0.12789838
92	0x3e125eb9	0.14293946
93	0xbc057a7b	-0.008146877
94	0x3e2f9db7	0.17150007
95	0xbf057c65	-0.52142936
96	0xbe477ff9	-0.19482411
97	0x3e143abd	0.14475532
98	0xbd9f0388	-0.077643454
99	0x3d9f7a7e	0.077870354
100	0x3e1d3ca0	0.15355158
101	0xbde05f1d	-0.109556414
102	0x3e233e6b	0.1594178
103	0x3ecb8238	0.39747787
104	0x3d87acb1	0.06624735
105	0x3e1f762c	0.15572423
106	0xbf060e19	-0.5236526
107	0x3ea26108	0.31714654
108	0x3e3ca440	0.18422031
109	0xbe85a070	-0.26098967
110	0x3ce3c95a	0.027805973
111	0xbf01ecf5	-0.5075219
112	0x3e9cb48c	0.30606496
113	0x3ddb8c12	0.10720076
114	0x3ec9b1c5	0.3939344
115	0x3dbd9679	0.09257216
116	0x3ec8bb1f	0.39205262
117	0x3f23bde6	0.6396164
118	0xbebbe0ef	-0.36695048
119	0x3d861d6b	0.0654858
120	0x3e05e379	0.13075055
121	0x3e3f0e71	0.18657853
122	0x3cc86472	0.024461959
123	0x3ed4a39d	0.41531077
124	0xbddf4197	-0.10901182
125	0xbf0e9c83	-0.5570757
126	0x3db004bc	0.08594653
127	0x3d971217	0.07376497
128	0xbf182365	-0.5942901
129	0xbe537f44	-0.20654017
130	0x3ec83c33	0.39108428
131	0xbeb9bf9a	-0.36278993
132	0x3e2473bd	0.16059776
133	0x3e645ef8	0.22301853
134	0xbf0e4d8c	-0.5558708
135	0x3ea7306e	0.32654136
136	0xbf1220b1	-0.57081133
137	0x3e7e4440	0.24830723
138	0xbe0a1200	-0.13483429
139	0x3da89ebe	0.08233403
140	0x3d9d6a8f	0.0768634
141	0x3db3dd4b	0.08782443
142	0x3e4fb038	0.20282066
143	0x3eab7595	0.33488145
144	0xbe8627d8	-0.26202273
145	0x3e8e76db	0.27825055
146	0x3ec13e6e	0.37742943
147	0xbd3cb11a	-0.046067335
148	0xbe55d213	-0.20880918
149	0x3d31c225	0.04339804
150	0xbea1ee0c	-0.31626928
151	0x3d931e7d	0.071835496
152	0xbcd7a232	-0.026322458
153	0xbcbdb895	-0.023159305
154	0x3e433539	0.19063272
155	0x3e075322	0.13215306
156	0xbe36f492	-0.17866734
157	0xbe91d575	-0.28483167
158	0xbecc0d02	-0.39853674
159	0x3dd3c060	0.10339427
160	0xbe59f3dd	-0.21284433
161	0x3e7523e7	0.23939477
162	0xbe219447	-0.1577922
163	0x3e89d89d	0.26923075
164	0x3c9aba24	0.018887587
165	0x3e05b0d0	0.1305573
166	0x3f0e5755	0.5560201
167	0xbcff8b02	-0.031194214
168	0x3e598d78	0.21245372
169	0x3c7e4fe0	0.015521973
170	0x3d7e797d	0.06212758
171	0x3ec42918	0.38312602
172	0x3e1d24e8	0.1534611
173	0x3eedb001	0.46423343
174	0x3e30f4ed	0.17280932
175	0xbeda95da	-0.42692453
176	0x3ea3c6d5	0.31987634
177	0xbe99287f	-0.2991371
178	0x3e45b50b	0.19307344
179	0xbe0c74bd	-0.13716407
180	0x3e980eb2	0.29698712
181	0x3ee3d26d	0.4449648
182	0xbdbf1e2b	-0.09331926
183	0x3ecddb5f	0.4020643
184	0x3e0722f9	0.13196935
185	0xbec33038	-0.38122725
186	0xbe0d13d5	-0.13777097
187	0x3e14c06b	0.14526527
188	0xbd860bdb	-0.0654523
189	0xbe03bd60	-0.1286521
190	0xbd2819ba	-0.04104016
191	0xbe01523b	-0.12629025

arith.constant12 f4 [8, 1, 3, 8]
0	0x3d96d1e1	0.0736425
1	0xbed9f009	-0.42565945
2	0xbe4e1053	-0.20123415
3	0x3e7bb36a	0.2458016
4	0x3df8208c	0.12115583
5	0xbe176180	-0.14783287
6	0xbeb4c6e9	-0.35308006
7	0xbebc7df4	-0.36814845
8	0x3e28fd0c	0.1650278
9	0x3e8c887e	0.27447885
10	0x3d57e7c3	0.05271126
11	0x3ebffe59	0.3749874
12	0xbed4231f	-0.41433045
13	0x3ec1a9f9	0.3782499
14	0xbe00b2b9	-0.12568177
15	0x3ec2e514	0.38065398
16	0x3e2aa0e9	0.16662945
17	0x3c9a4e40	0.01883614
18	0x3dc26d13	0.094934605
19	0x3d8c3574	0.06846133
20	0xbe56b9c6	-0.20969304
21	0x3e12fae2	0.14353517
22	0x3ebe95c1	0.37223628
23	0xbe822f4c	-0.2542671
24	0xbe2a0947	-0.16605102
25	0x3d1ca996	0.038247667
26	0x3f02f17e	0.5114974
27	0x3f0b4f6a	0.5441805
28	0xbe7402ec	-0.2382924
29	0x3e96ce56	0.29454297
30	0x3eacb60a	0.33732635
31	0x3ac74bb1	0.0015205053
32	0x3d958273	0.07300272
33	0xbc2845ae	-0.010270519
34	0xbe9ca3d1	-0.30593732
35	0x3f1309ad	0.5743664
36	0xbe19bf80	-0.15014458
37	0xbe0617f5	-0.13095076
38	0x3eb65d0f	0.35617873
39	0xbed38c8d	-0.4131817
40	0x3d55e5dd	0.052221168
41	0x3e962e22	0.29332072
42	0xbf041b16	-0.5160383
43	0xbea072b2	-0.31337506
44	0x3ec08a13	0.37605342
45	0xbea61a98	-0.32442164
46	0xbd30be44	-0.0431502
47	0x3e90e7e3	0.28301916
48	0x3b8f7abf	0.004378646
49	0xbe58837c	-0.21143907
50	0xbdb5e156	-0.0888087
51	0x3dcda2bb	0.10040804
52	0xbe4343a6	-0.19068775
53	0x3e4b5e36	0.19860157
54	0x3c1149c8	0.0088676885
55	0xbd769117	-0.060196962
56	0x3e195697	0.14974438
57	0x3e13a3a7	0.14417897
58	0xbc07e6f0	-0.008294806
59	0x3e94524c	0.28969038
60	0x3cec0afd	0.028813833
61	0x3d760b92	0.060069628
62	0x3eefd4f6	0.46842164
63	0xbe387a8c	-0.18015498
64	0xbd978d5d	-0.0740001
65	0x3efb2360	0.49050426
66	0xbe993d57	-0.2992961
67	0xbefd5d00	-0.49485016
68	0xbe39f22b	-0.18158786
69	0x3de398d4	0.11113134
70	0x3e8e9073	0.2784458
71	0xbd2171ca	-0.03941516
72	0xbe4f2f7f	-0.20232962
73	0xbe80ea52	-0.25178772
74	0x3b82237a	0.0039715143
75	0x3eb4cb0d	0.35311165
76	0xbe751c36	-0.23936543
77	0x3df508ce	0.1196457
78	0xbed39a69	-0.41328743
79	0xbe123bf0	-0.14280677
80	0xbf04c4d0	-0.5186281
81	0x3e4048b3	0.18777733
82	0x3dd9ac6c	0.1062859
83	0xbeb29f8c	-0.3488735
84	0x3e1f7ae1	0.15574218
85	0xbf125f27	-0.5717644
86	0xbe9e74e1	-0.30948547
87	0xbec77394	-0.38955367
88	0x3e81e324	0.25368607
89	0xbec50e24	-0.3848735
90	0x3eea5939	0.45771196
91	0x3e9cec27	0.3064892
92	0xbf1226fe	-0.5709075
93	0xbef75863	-0.4830962
94	0xbd93fd92	-0.07226099
95	0x3eddb5df	0.4330282
96	0x3d375f4a	0.04476861
97	0x3e42442e	0.18971321
98	0xbd858504	-0.06519511
99	0xbe1d46bd	-0.15359016
100	0xbd6d7888	-0.057976276
101	0xbf1ea7a7	-0.6197457
102	0xbe33a1a0	-0.17542124
103	0xbe880ca6	-0.2657215
104	0xbdbaba45	-0.09117559
105	0x3df54ff5	0.11978141
106	0xbe9fe460	-0.31228924
107	0xbf0860cd	-0.53272706
108	0xbc1d2b91	-0.009592907
109	0x3ea8214a	0.32837898
110	0x3e9ee257	0.3103206
111	0xbe2b4f22	-0.16729406
112	0x3e8a0498	0.2695663
113	0xbda8d418	-0.08243579
114	0x3ea230b6	0.31677788
115	0x3f27bba8	0.65520716
116	0x3e6c6e85	0.23089035
117	0xbdd90f4e	-0.10598622
118	0x3e9c58d4	0.3053652
119	0xbe8433a3	-0.25820646
120	0xbcb4c649	-0.022067206
121	0x3e9d04ed	0.3066782
122	0x3ed7d31b	0.42153248
123	0xbe2ebd72	-0.17064455
124	0x3c3d7943	0.011564556
125	0x3ec773d1	0.38955548
126	0xbea77865	-0.3270904
127	0xbc830b78	-0.01599668
128	0x3e825388	0.25454354
129	0x3de3dffc	0.11126706
130	0x3c2037e3	0.009778949
131	0x3efd8f1f	0.49523255
132	0xbee2566e	-0.44206566
133	0x3e6ac423	0.22926383
134	0xbec92fec	-0.39294374
135	0x3d4dcd87	0.050244834
136	0x3efb7e9d	0.49120036
137	0x3e001201	0.12506868
138	0x3e508a1b	0.20365183
139	0xbe9caf47	-0.30602476
140	0xbe0dc2d8	-0.13843858
141	0x3dbd9f80	0.09258938
142	0xbdb6cbfe	-0.08925627
143	0x3e94b86f	0.29046962
144	0x3ed1ab37	0.4095094
145	0xbe867b8c	-0.26266134
146	0xbd8ef293	-0.06979861
147	0xbe18a3cb	-0.14906232
148	0xbd914cce	-0.070947275
149	0xbe1eeb77	-0.1551951
150	0x3e060e2b	0.13091342
151	0xbf20037c	-0.62505317
152	0x3bb4f08e	0.0055218404
153	0x3ea4eca9	0.32211807
154	0xbe87912c	-0.26477945
155	0x3e1420b9	0.14465608
156	0xbed2e828	-0.41192746
157	0xbea9bfbf	-0.33154103
158	0x3ca88c80	0.020574808
159	0xbdcbaa76	-0.09944622
160	0x3e9aae86	0.30211276
161	0xbc57e084	-0.013176087
162	0xbd7e2138	-0.0620434
163	0x3e2cdff5	0.16882308
164	0xbd215075	-0.03938337
165	0xbd20def7	-0.039275136
166	0x3e4965d2	0.19667748
167	0xbe64bfc0	-0.22338772
168	0x3da3e1f3	0.08002081
169	0xbdc7e55d	-0.097605444
170	0x3deb37c0	0.11485243
171	0xbe8e62ae	-0.27809662
172	0xbd782953	-0.060586285
173	0x3e0b61ea	0.1361157
174	0xbf1c678c	-0.610955
175	0x3e4aaa40	0.19791508
176	0xbebf05e8	-0.37309194
177	0x3e36c14d	0.17847176
178	0xbe52027c	-0.2050876
179	0x3e98a3aa	0.29812366
180	0xbdc839fa	-0.09776683
181	0xbe373b82	-0.17893794
182	0xbe51ed95	-0.20500787
183	0xbec70e14	-0.38877928
184	0xbebfec2b	-0.3748487
185	0xbd263d99	-0.040586088
186	0xbe1543cd	-0.14576645
187	0xbe8058ad	-0.25067654
188	0xbddfa4be	-0.10920094
189	0x3ebbee0f	0.36705062
190	0x3cb24b76	0.021764498
191	0xbeb08f91	-0.34484532

arith.constant13 f4 [8, 1, 3, 8]
0	0x3eaa0f40	0.3321476
1	0x3e1988fd	0.14993663
2	0xbeacf511	-0.3378072
3	0x3d809421	0.06278253
4	0x3dd36d9c	0.10323641
5	0xbeb14b30	-0.34627676
6	0xbe0befd8	-0.13665712
7	0xbd658255	-0.056032497
8	0x3e05c773	0.13064365
9	0xbd70cb00	-0.058787346
10	0xbe816c37	-0.25277874
11	0xbcc05507	-0.023478044
12	0xbdfdd428	-0.12393981
13	0xbf1dbcf8	-0.6161647
14	0x3e916196	0.28394765
15	0xbe5bb85e	-0.21457049
16	0xbe63c35f	-0.22242497
17	0xbeb9e55a	-0.36307794
18	0x3ed1533d	0.40883818
19	0xbe4b8f4a	-0.19878879
20	0xbf188148	-0.5957227
21	0xbea4bf6c	-0.32177293
22	0x3d2927aa	0.041297592
23	0xbe158752	-0.14602402
24	0x3c2876a4	0.010282192
25	0xbcca6643	-0.024706965
26	0x3e2bf18b	0.1679136
27	0xbe690ce0	-0.22758818
28	0xbf0a7b3a	-0.5409428
29	0xbebd0ccf	-0.36923835
30	0x3d9bc949	0.076067515
31	0xbe63b0e2	-0.22235444
32	0xbe5f0f86	-0.21783265
33	0x3d4ea242	0.05044771
34	0x3ef0ac81	0.4700661
35	0x3e8a9db1	0.27073434
36	0x3ce3bc87	0.027799858
37	0x3ee1880e	0.44049114
38	0xbdebdaf0	-0.115163684
39	0x3e1f03cb	0.1552879
40	0xbc78084b	-0.015138696
41	0x3d3d61f3	0.04623599
42	0x3f0d5f91	0.5522395
43	0x3b36c26a	0.0027886876
44	0xbdd176aa	-0.102277115
45	0xbe28fdf3	-0.16503124
46	0xbc5dfafb	-0.013548608
47	0x3df49324	0.11942127
48	0xbd0a4969	-0.033761416
49	0x3c776398	0.015099429
50	0x3d286704	0.04111387
51	0x3c85b784	0.016322859
52	0x3dd1db87	0.1024695
53	0xbe903ad6	-0.28169888
54	0xbc522601	-0.012826444
55	0xbe51ce41	-0.20488836
56	0x3c02d779	0.007985943
57	0x3ea2c455	0.31790414
58	0xbeb35ad8	-0.35030246
59	0xbe40cc48	-0.18827927
60	0xbf072c59	-0.52802044
61	0x3e72741e	0.23677108
62	0xbe68bbeb	-0.22727935
63	0xbebf6b1c	-0.37386405
64	0xbd9c84f7	-0.076425485
65	0xbbd6f05e	-0.0065594157
66	0xbe276e39	-0.1635064
67	0x3db81ea0	0.08990216
68	0x3f0a98ee	0.541396
69	0xbc8ddc7d	-0.017317051
70	0xbe920383	-0.28518304
71	0x3e2d7122	0.16937688
72	0xbce389e5	-0.027775714
73	0xbeb05a3b	-0.3444384
74	0x3dc17864	0.09446791
75	0x3f1592d6	0.5842718
76	0xbedb2245	-0.42799583
77	0xbf029415	-0.51007205
78	0xbb0e8736	-0.0021748072
79	0xbe175f26	-0.1478239
80	0x3d75798a	0.05993036
81	0x3e17bd8b	0.14818399
82	0xbef1ad1a	-0.4720238
83	0xbe87ef42	-0.26549727
84	0x3e87013e	0.26368135
85	0xbe15313c	-0.14569563
86	0xbe1ca6ec	-0.1529805
87	0x3ed39aed	0.41329136
88	0xbe173587	-0.14766513
89	0xbefe513a	-0.49671346
90	0xbe4c3273	-0.1994112
91	0xbec7ffa1	-0.39062217
92	0xbe1c416a	-0.15259328
93	0xbe039fc5	-0.12853916
94	0xbe3086c0	-0.17238903
95	0xbe7bce33	-0.24590378
96	0xbd3f0ff7	-0.046646085
97	0x3f1beead	0.60911065
98	0xbe52b2a4	-0.20575958
99	0xbe9fe721	-0.31231025
100	0xbe8ac72b	-0.27105078
101	0xbcb33188	-0.021874204
102	0x3ea49756	0.3214671
103	0xbe9a0737	-0.3008363
104	0x3f01b06c	0.50659823
105	0xbe2b20f0	-0.16711783
106	0x3ddfb8e3	0.10923936
107	0x3eac8611	0.33696035
108	0xbed223d8	-0.41042972
109	0xbe94f729	-0.29094818
110	0x3ebfd9f0	0.3747096
111	0xbe62e2a8	-0.22156775
112	0x3f11bd45	0.5692943
113	0x3ebd1635	0.36931005
114	0xbec5692d	-0.38556805
115	0x3f14285b	0.5787408
116	0x3eb65d87	0.3561823
117	0x3db94c76	0.09047787
118	0xbd4c68f7	-0.04990479
119	0x3e070972	0.13187197
120	0x3f0292d9	0.5100532
121	0xbeb77c4e	-0.35837024
122	0xbc98a78d	-0.018634582
123	0xbeede91f	-0.4646692
124	0x3eed6d3b	0.463724
125	0x3e844289	0.25832012
126	0x3df7fcc3	0.12108757
127	0xbcd03922	-0.025417868
128	0xbd13b83c	-0.03606437
129	0x3eb5f8c1	0.35541347
130	0x3d4ca47c	0.049961552
131	0xbdb63073	-0.0889596
132	0xbe9e3dac	-0.30906427
133	0x3ed0b054	0.40759528
134	0xbc89661d	-0.016772324
135	0x3de938c8	0.11387783
136	0xbed34d59	-0.4126995
137	0x3ce18245	0.027527938
138	0x3e022c1c	0.12712139
139	0xbebeaf96	-0.37243336
140	0xbec81073	-0.3907505
141	0x3e2a3879	0.16623105
142	0xbe71a701	-0.23598863
143	0xbdc301d4	-0.09521833
144	0xbc49ea80	-0.012323976
145	0x3e8a7d51	0.27048734
146	0x3cae493c	0.021275155
147	0xbeaea6cd	-0.34111634
148	0x3ec8d044	0.39221394
149	0x3e2abc4e	0.16673395
150	0x3d9ed616	0.077556774
151	0x3edd7802	0.4325562
152	0x3e4a1f0e	0.19738409
153	0xbda1a30f	-0.07892429
154	0x3e4d4572	0.20046023
155	0x3e179285	0.14801987
156	0x3dcad493	0.099038266
157	0x3de5b2ea	0.11215766
158	0x3c59027d	0.013245222
159	0x3e95b7fd	0.29241934
160	0xbee46a88	-0.44612527
161	0x3e8aab79	0.27083948
162	0xbeefccb0	-0.46835852
163	0x3e0d16f3	0.13778286
164	0xbeaea008	-0.3410647
165	0xbddc16ff	-0.10746574
166	0x3e9c7e1a	0.30564958
167	0xbea4bd62	-0.32175738
168	0xbe0a477f	-0.13503836
169	0x3e193f34	0.14965516
170	0xbc447f9d	-0.011993316
171	0xbd5c127f	-0.053728577
172	0xbd187f02	-0.0372305
173	0xbcfa0c16	-0.030523341
174	0xbecb91ba	-0.39759618
175	0xbec0fa60	-0.3769102
176	0xbec3f8ad	-0.38275662
177	0xbebf56df	-0.37370965
178	0x3dbe75bc	0.092998
179	0xbec49513	-0.38394985
180	0x3e30b1d2	0.17255333
181	0x3dbb8944	0.09157041
182	0xbcf7cdf2	-0.03024957
183	0xbef2798b	-0.47358355
184	0x3f041aaf	0.51603216
185	0x3dfb4232	0.12268485
186	0x3e941ea0	0.28929615
187	0x3e9ae86c	0.3025545
188	0xbe86dfa9	-0.26342514
189	0x3d0624f2	0.032750078
190	0x3e7f28cb	0.24917905
191	0x3e58198e	0.21103498

arith.constant14 f4 [8, 1, 3, 8]
0	0xbf1c22e0	-0.60990715
1	0xbeff5559	-0.49869803
2	0xbf1293a9	-0.5725656
3	0x3f1d55ce	0.6145905
4	0xbec89d2a	-0.39182407
5	0xbf160dea	-0.5861498
6	0x3bdf405d	0.0068130926
7	0xbf0545f7	-0.5205988
8	0x3e8ddd9d	0.2770814
9	0x3ecd344e	0.40078968
10	0xbe36ce12	-0.17852047
11	0xbe900164	-0.2812606
12	0x3ea17099	0.31531218
13	0xbeb45e50	-0.35228205
14	0xbea90bc9	-0.33016804
15	0xbecff810	-0.40618944
16	0xbdcae8e4	-0.099077016
17	0xbf214802	-0.630005
18	0x3ed9b240	0.42518806
19	0xbdccdbf1	-0.10002888
20	0xbf05e31e	-0.5229968
21	0x3e54858c	0.20754069
22	0x3e3ed8ea	0.18637434
23	0x3ecf2e66	0.40465087
24	0xbecae7b7	-0.3962991
25	0xbe1bbd78	-0.15208995
26	0x3e142eee	0.14471027
27	0x3d419559	0.04726157
28	0xbed89bfa	-0.423065
29	0x3e74619b	0.23865359
30	0x3efe6938	0.4968965
31	0xbde718f8	-0.11284059
32	0xbe28c804	-0.1648255
33	0x3f157f4e	0.58397377
34	0x3ee15bea	0.44015437
35	0xbe29780f	-0.16549705
36	0xbeeb348b	-0.45938525
37	0x3e43139d	0.1905045
38	0xbeab4ee7	-0.33458635
39	0xbe546b9a	-0.20744172
40	0xbeb5ff5f	-0.35546395
41	0x3b27e86e	0.0025620717
42	0xbd632e15	-0.05546387
43	0x3dd9fd88	0.106440604
44	0xbebd6347	-0.36989805
45	0xbe23fc12	-0.16014126
46	0xbe2ee2a0	-0.17078638
47	0x3c3e9c3d	0.01163393
48	0x3dddfa40	0.10838747
49	0xbeefab1b	-0.4681023
50	0xbd85a1c6	-0.065249965
51	0x3e1e7421	0.15473987
52	0x3e227b38	0.15867317
53	0xbf06220b	-0.52395695
54	0x3e940824	0.2891246
55	0xbe95fb1a	-0.29293138
56	0xbeb806c3	-0.3594266
57	0x3d2d4672	0.04230351
58	0xbe99434d	-0.2993416
59	0xbdf86fd3	-0.12130704
60	0xbc87560e	-0.016520526
61	0xbed06154	-0.40699255
62	0x3ebc3f3c	0.36766994
63	0x3d9c0500	0.07618141
64	0x3e7b2a3a	0.24527827
65	0x3de4e4c4	0.11176446
66	0xbdb4f01d	-0.088348605
67	0x3ea86cd8	0.3289554
68	0xbe62ea9e	-0.22159812
69	0x3e38abf2	0.18034342
70	0x3e943f0b	0.28954348
71	0x3d282035	0.04104634
72	0x3f06e01e	0.52685726
73	0x3d24db05	0.040247936
74	0xbf06e499	-0.5269256
75	0x3ed9ee38	0.4256456
76	0x3e422464	0.18959194
77	0x3ee14669	0.4399903
78	0xbe9a16e2	-0.30095583
79	0x3d2f716a	0.04283277
80	0xbf17c13a	-0.59279215
81	0x3d28788e	0.041130595
82	0xbf04c470	-0.5186224
83	0x3eb818c2	0.3595639
84	0x3e0ec645	0.13942821
85	0xbe13ba73	-0.14426593
86	0x3ec7d616	0.39030522
87	0xbf02e7ef	-0.5113515
88	0xbeafb445	-0.34317222
89	0xbcf07f7b	-0.029357662
90	0xbe5c0d73	-0.21489505
91	0x3e8fc85a	0.28082544
92	0x3ea75c8e	0.326878
93	0x3d4bdb16	0.049769484
94	0x3e0492d3	0.12946634
95	0x3e413bd4	0.18870479
96	0x3ebae391	0.36501744
97	0xbebc5a98	-0.36787868
98	0x3ed8fb63	0.42379293
99	0x3ed416f7	0.4142377
100	0xbefb5837	-0.4909074
101	0xbeb10e8e	-0.34581417
102	0x3f09a1fe	0.53762805
103	0x3e74c8df	0.23904751
104	0xbeb829d3	-0.3596941
105	0x3e30def9	0.17272557
106	0xbe140e26	-0.14458522
107	0xbd97059a	-0.07374115
108	0x3e7de67d	0.24794956
109	0x3ec893f2	0.39175373
110	0x3eec5cb6	0.46164483
111	0x3e458d3d	0.1929216
112	0xbc97e885	-0.018543491
113	0xbca245b2	-0.019808624
114	0xbd0c2ed7	-0.034224357
115	0x3f1c97cd	0.6116913
116	0xbd9ade54	-0.07561937
117	0xbbf2ca61	-0.0074093794
118	0xbeb3eeb0	-0.35143042
119	0x3ef338de	0.47504324
120	0x3ee8c0c6	0.45459574
121	0x3ef836c9	0.48479298
122	0xbef4610e	-0.47730297
123	0x3eaf43ee	0.34231514
124	0x3ec6e773	0.38848457
125	0x3ea1b809	0.3158572
126	0xbe23a39e	-0.15980384
127	0x3ee77d41	0.4521275
128	0xbeff32f4	-0.49843562
129	0xbdb7810f	-0.08960163
130	0xbc8ad2ab	-0.016946157
131	0x3c3e3063	0.011608216
132	0xbe385bd2	-0.18003777
133	0xbdb8c366	-0.09021644
134	0x3e9ab3cd	0.30215302
135	0xbe719cbc	-0.23594946
136	0x3e059867	0.13046418
137	0x3ea342b3	0.31886825
138	0x3b082c9f	0.002077855
139	0x3e951542	0.2911778
140	0x3d04e1fd	0.03244208
141	0xbefa2254	-0.48854315
142	0xbde6bb43	-0.11266186
143	0xbeba6907	-0.36408255
144	0xbe3dcb30	-0.18534541
145	0xbdafc46c	-0.085823864
146	0x3de1667e	0.11005877
147	0xbdcacec2	-0.09902717
148	0xbe940a91	-0.28914312
149	0x3dcd0e01	0.10012437
150	0x3d308db0	0.043103874
151	0x3e5fe1cb	0.21863477
152	0x3e8c6ec4	0.27428257
153	0x3ead1d83	0.33811578
154	0xbdb52d0c	-0.08846483
155	0xbd8230b9	-0.06356949
156	0xbe276cb5	-0.16350062
157	0x3e9b06cb	0.3027862
158	0xbd8ad9ae	-0.067798
159	0x3ecbe182	0.39820486
160	0xbe3de72e	-0.1854522
161	0xbe21e3c9	-0.1580955
162	0x3d857637	0.06516688
163	0x3e97aa91	0.2962232
164	0x3dea3101	0.11435128
165	0x3ecef617	0.40422127
166	0x3e805b53	0.25069675
167	0x3df77a18	0.120838344
168	0x3e98120c	0.2970127
169	0xbcf0a4e9	-0.02937551
170	0x3d7244d7	0.059147682
171	0x3e42604c	0.18982047
172	0x3d08bd85	0.033383865
173	0x3ef40736	0.47661752
174	0x3e60de9c	0.21959919
175	0xbdca744b	-0.098854624
176	0x3ef7e8f6	0.48419923
177	0xbd99466c	-0.07484135
178	0x3e85e85c	0.2615384
179	0x3dd6cae8	0.1048792
180	0x3e7f71d8	0.24945772
181	0xbdfec897	-0.12440603
182	0xbe0e9df8	-0.13927448
183	0xbe3d6b04	-0.18497854
184	0xbdde7fbf	-0.108642094
185	0xbe14976f	-0.14510892
186	0x3e986117	0.29761574
187	0x3de02c88	0.10945994
188	0xbee12dbf	-0.43980214
189	0xbe3e05d2	-0.18556908
190	0x3d85989f	0.06523251
191	0xbd4e3526	-0.050343655

arith.constant15 f4 [8, 1, 3, 8]
0	0x3ee27490	0.44229555
1	0x3dba7f1b	0.09106275
2	0x3daa1b2a	0.083059624
3	0xbe985705	-0.2975389
4	0x3e1756fa	0.14779273
5	0xbbd49dd1	-0.0064885397
6	0xbe86f52e	-0.26358932
7	0x3e13f138	0.14447486
8	0xbf157f10	-0.58397007
9	0x3ed6a074	0.4191929
10	0x3eb39430	0.35073996
11	0x3dddf186	0.108370826
12	0x3f1d7019	0.6149917
13	0xbd6e4516	-0.058171354
14	0xbe436221	-0.19080402
15	0x3f0bf1b1	0.54665667
16	0xbe98354e	-0.29728168
17	0xbe939e95	-0.28831926
18	0x3e984023	0.29736432
19	0x3eb34660	0.3501463
20	0x3e52e6b1	0.20595814
21	0xbebaf446	-0.3651449
22	0x3e6ba629	0.23012604
23	0xbe7767b5	-0.24160655
24	0xbda5fe8c	-0.081051916
25	0xbeaa60b3	-0.332769
26	0xbe2a017a	-0.16602126
27	0x3debec66	0.11519699
28	0x3e454f4c	0.1926853
29	0xbdeba041	-0.115051754
30	0xbefa677d	-0.4890708
31	0xbe9c1490	-0.30484438
32	0x3eea3de4	0.45750344
33	0xbe72dee8	-0.23717844
34	0xbecf7f1f	-0.40526673
35	0xbdcc62bd	-0.0997977
36	0xbbd5acb7	-0.0065208334
37	0x3f124877	0.5714182
38	0xbf233b9c	-0.6376283
39	0x3e902a42	0.2815724
40	0x3e6389e6	0.22220573
41	0xbe64f2bb	-0.2235822
42	0xbe826b57	-0.2547252
43	0x3ed4d458	0.41568255
44	0x3d07db75	0.033168275
45	0x3e3d935b	0.18513243
46	0xbe9d50f2	-0.3072582
47	0xbe4f3ab1	-0.20237233
48	0xbee661ee	-0.4499659
49	0x3c96ec11	0.018423112
50	0xbedb2062	-0.42798144
51	0xbf1759ef	-0.591216
52	0xbe4422a1	-0.19153835
53	0x3e226f91	0.15862872
54	0xbebd5d72	-0.36985356
55	0xbefde5c8	-0.49589372
56	0xbe51d05e	-0.20489642
57	0xbe3d9ae0	-0.18516111
58	0xbe6d4ba8	-0.23173392
59	0xbe7941b0	-0.24341464
60	0x3e3ef718	0.18648946
61	0x3d91b9a5	0.07115487
62	0xbedfd8a6	-0.43719977
63	0xbe6410b3	-0.22271995
64	0xbbfd0797	-0.007721852
65	0xbe96d4fe	-0.29459375
66	0x3e6175f4	0.22017652
67	0xbdc0a09b	-0.09405633
68	0x3d9e72d3	0.07736745
69	0xbe433295	-0.19062264
70	0x3e96e9c8	0.29475236
71	0x3eb32de8	0.3499596
72	0x3e90ef1e	0.28307432
73	0x3dbb4f29	0.09145958
74	0xbefff67e	-0.49992746
75	0x3dc334fa	0.09531589
76	0xbec41e1d	-0.38304225
77	0xbd816dd1	-0.06319774
78	0xbeed5e0d	-0.46360818
79	0x3e0899ff	0.13339995
80	0xbeeb3606	-0.45939654
81	0xbec27716	-0.3798148
82	0x3f0f8c64	0.56073594
83	0xbd617ffe	-0.055053703
84	0xbbcffe8a	-0.006347482
85	0xbe693b3b	-0.22776501
86	0x3de49c6b	0.11162647
87	0x3e694543	0.22780327
88	0xbe1e34a2	-0.15449765
89	0xbde114a7	-0.10990267
90	0x3e002d73	0.12517338
91	0xbe42398b	-0.18967263
92	0x3f2406ee	0.64073074
93	0x3e4c48e7	0.19949685
94	0x3ec5bbb6	0.38619775
95	0x3e9e0427	0.30862543
96	0x3e1abcee	0.15111133
97	0xbde93a4d	-0.11388073
98	0x3e13e0e1	0.14441253
99	0x3dac3e31	0.084102996
100	0xbe095556	-0.1341146
101	0xbe75be1f	-0.23998307
102	0x3e0e75ef	0.13912176
103	0x3f097465	0.5369323
104	0x3f191121	0.5979176
105	0x3d7ac969	0.061227236
106	0xbe9df148	-0.30848145
107	0x3e904daa	0.28184253
108	0x3d3afa7d	0.04564904
109	0x3e0cd634	0.13753587
110	0x3e1accfa	0.15117255
111	0x3ec5b0dc	0.38611495
112	0x3f1cbeed	0.6122883
113	0xbcdbf9a0	-0.026852429
114	0xbd84eb19	-0.06490154
115	0x3ea26588	0.31718087
116	0x3db587b8	0.08863777
117	0xbb720e97	-0.0036934966
118	0x3c553ad4	0.013014514
119	0xbefea592	-0.49735695
120	0xbe6a4edf	-0.2288165
121	0xbd84d1d9	-0.06485338
122	0xbd317937	-0.04332849
123	0x3e56dec8	0.20983422
124	0x3e0c67ee	0.13711521
125	0x3e6aa463	0.22914271
126	0xbe3085da	-0.1723856
127	0xbf2683f7	-0.6504511
128	0x3eb14ad3	0.346274
129	0x3ef70ca9	0.48251846
130	0x3e9fcdae	0.3121161
131	0x3f1fc7b0	0.62414074
132	0x3e6d82dc	0.2319445
133	0x3eda3d91	0.42625096
134	0x3ea5214f	0.32251975
135	0x3e73bf94	0.2380355
136	0xbeddcfdd	-0.4332265
137	0xbf0edbac	-0.5580394
138	0x3df5ec45	0.120079555
139	0x3e412e1d	0.18865247
140	0x3e04dcfe	0.12974927
141	0x3e8053fc	0.25064075
142	0x3ecf3f1b	0.40477833
143	0xbe5a778f	-0.2133467
144	0xbc79cf36	-0.015247157
145	0x3ef48b8a	0.4776271
146	0xbe2f9c88	-0.17149556
147	0x3ea5be6e	0.3237185
148	0x3f059654	0.5218251
149	0x3e816978	0.2527578
150	0xbea62090	-0.32446718
151	0xbef8f652	-0.48625427
152	0x3cdfa2fd	0.027299399
153	0xbd9a3769	-0.075301
154	0x3d8e78cd	0.06956635
155	0x3e6404d6	0.2226747
156	0x3d8cf5b3	0.06882801
157	0xbebad5bb	-0.36491188
158	0xbe2e42a1	-0.17017604
159	0x3e3cb41f	0.18428086
160	0xbd8bd1c1	-0.06827117
161	0x3e165594	0.14681083
162	0x3f19c73e	0.60069644
163	0x3dcbc69d	0.09949992
164	0xbe1addce	-0.15123674
165	0x3d9f4f87	0.077788405
166	0xbee49c2d	-0.44650403
167	0xbe6b7cc9	-0.2299682
168	0x3e7f6dc5	0.24944218
169	0x3e8b7e55	0.2724482
170	0x3eacaeff	0.3372726
171	0xbe2020d4	-0.15637523
172	0x3d548731	0.05188674
173	0xbecfc28c	-0.40578115
174	0x3a92885d	0.0011179555
175	0xbdc12ceb	-0.094323955
176	0xbf060cfd	-0.5236357
177	0xbedb9ccd	-0.42893067
178	0x3dc4eb29	0.09615166
179	0x3d4f3ab0	0.050593078
180	0x3e65d6d3	0.2244523
181	0xbe39c1d1	-0.18140341
182	0xbe02e066	-0.12780914
183	0xbe1a8beb	-0.15092437
184	0xbdd9296a	-0.10603602
185	0xbec4b9ee	-0.38423103
186	0xbe74586a	-0.23861852
187	0x3ccec0fd	0.025238508
188	0xbeb6d46b	-0.35708937
189	0x3f0eb7c0	0.5574913
190	0x3e92b2e3	0.28652105
191	0xbd7d57d2	-0.06185133

arith.constant16 f4 [8, 1, 3, 8]
0	0xbd522426	-0.051304005
1	0xbe1897ff	-0.14901732
2	0x3ee3b931	0.44477227
3	0x3f06e4e6	0.5269302
4	0x3e484be7	0.19560204
5	0xbc727bbc	-0.014800008
6	0xbe915bc3	-0.2839032
7	0x3e56e8db	0.20987265
8	0xbdd192c2	-0.1023307
9	0xbd7e40ee	-0.06207364
10	0x3c912ea0	0.017722428
11	0x3ef5745c	0.47940338
12	0xbf0e648c	-0.5562217
13	0x3ebf9651	0.3741937
14	0xbe25d1f8	-0.16193378
15	0x3e540388	0.20704472
16	0x3e03772a	0.12838426
17	0x3d3b1fe9	0.04568473
18	0x3d21554a	0.03938798
19	0x3b0c507a	0.0021410272
20	0x3c6843d6	0.01417633
21	0x3ee5442e	0.4477858
22	0xbda010ba	-0.0781569
23	0xbefd212e	-0.49439377
24	0x3f0c1431	0.5471831
25	0x3e9e2642	0.30888563
26	0x3db69466	0.089150235
27	0xbe1b7ea2	-0.15185025
28	0x3d390cf5	0.045178372
29	0x3d76fbf1	0.060298864
30	0xbe0dbb73	-0.13841037
31	0x3e3c0c0e	0.18363973
32	0x3f02abd1	0.5104342
33	0x3cf65bca	0.030073065
34	0xbeae8912	-0.3408895
35	0xbe32c551	-0.17458083
36	0x3e2fb540	0.17158985
37	0x3d18bc80	0.037289143
38	0xbe50c07a	-0.20385924
39	0xbd041f14	-0.0322562
40	0xbf1c77a2	-0.61120045
41	0x3e5c3440	0.21504307
42	0x3d9a2d6b	0.07528194
43	0x3ef27508	0.47354913
44	0xbed63e39	-0.41844347
45	0xbe256915	-0.16153367
46	0x3e6cfecd	0.23144074
47	0xbe085ae4	-0.13315922
48	0x3e1263cb	0.1429588
49	0xbde60ec4	-0.11233285
50	0x3e4fb649	0.2028438
51	0xbe439224	-0.19098717
52	0xbe671c7a	-0.22569457
53	0xbe511437	-0.20417868
54	0xbdcf1d75	-0.1011304
55	0x3ee4ace7	0.44663164
56	0xbeb0e0c5	-0.34546486
57	0xbc33db0f	-0.010977521
58	0xbd989c44	-0.0745168
59	0x3c4f3ce3	0.012648794
60	0xbeb87724	-0.36028397
61	0x3e83b0a9	0.25720719
62	0xbd801135	-0.06253282
63	0x3ebdb9c1	0.3705578
64	0xbe3d7ced	-0.18504687
65	0x3f0df24d	0.55447847
66	0xbed9b126	-0.42517966
67	0xbf089a49	-0.5336042
68	0xbe5b674a	-0.2142612
69	0xbe49450b	-0.19655244
70	0x3e047454	0.12935
71	0x3eb08b17	0.34481117
72	0xbe9bfd91	-0.30466893
73	0x3e7c45a2	0.24635938
74	0xbe993aeb	-0.29927763
75	0xbee3bdcf	-0.4448075
76	0xbefb206d	-0.49048176
77	0x3ce4d4af	0.027933447
78	0x3ee8e46b	0.4548677
79	0xbe43b956	-0.19113669
80	0xbd047f05	-0.032347698
81	0xbda52ce6	-0.08065204
82	0x3d8af724	0.067854196
83	0xbe15469d	-0.14577718
84	0x3cbfd798	0.023418233
85	0x3bba403c	0.005683927
86	0xbdb80617	-0.089855365
87	0xbecd929e	-0.40150923
88	0x3d81f5c4	0.06345704
89	0x3ec57f72	0.38573796
90	0x3de37d44	0.11107877
91	0x3dc0fd1d	0.094232775
92	0x3eade196	0.3396117
93	0xbf0603e0	-0.5234966
94	0xbddfad5a	-0.10921736
95	0x3e8c25b4	0.27372515
96	0xbe9808ad	-0.2969412
97	0xbdfce0e6	-0.123475835
98	0x3ecfc7f9	0.40582255
99	0xbd379d51	-0.044827763
100	0x3d6472b1	0.05577344
101	0xbd0d5af7	-0.03451058
102	0xbf2f57e0	-0.6849346
103	0x3f1892cf	0.5959901
104	0x3a520457	0.0008011511
105	0x3e473ff1	0.19457985
106	0x3d068679	0.032843087
107	0x3edeeb73	0.43539008
108	0x3ea61118	0.32434916
109	0xbe1427fa	-0.14468375
110	0x3ed3c4b4	0.4136101
111	0xbe64a519	-0.22328605
112	0x3ef4cde7	0.4781334
113	0xbef03c02	-0.46920782
114	0x3ed537e1	0.41644195
115	0x3f0500be	0.5195426
116	0x3b4ae6a2	0.0030960222
117	0x3e7c905a	0.24664441
118	0xbf0cb9ac	-0.5497081
119	0x3de003f6	0.109382555
120	0x3de6b415	0.11264817
121	0xbef529da	-0.47883493
122	0x3f031360	0.5120144
123	0x3e67084b	0.22561757
124	0x3e2c5aeb	0.16831557
125	0x3c3d5547	0.011555976
126	0x3df63a2d	0.12022815
127	0x3c67b74b	0.014142822
128	0xbe0fe086	-0.14050493
129	0x3f092964	0.5357878
130	0x3e699dc5	0.2281409
131	0x3ed0543b	0.40689263
132	0x3d7605f8	0.060064286
133	0xbe021bc3	-0.12705903
134	0x3cb31ca6	0.021864247
135	0x3f0ab05e	0.54175365
136	0x3e127329	0.14301743
137	0xbc4e21a5	-0.012581264
138	0xbcc8ac38	-0.024496183
139	0x3e7e8fb3	0.24859504
140	0xbe1f871b	-0.15578882
141	0x3e3f2fda	0.18670598
142	0x3e84b21d	0.2591714
143	0xbf1aec42	-0.6051675
144	0xbe3e4563	-0.18581156
145	0x3e3c3034	0.18377763
146	0xbdf6aa92	-0.120442525
147	0xbda48d5f	-0.08034777
148	0x3ea9e42d	0.33181897
149	0x3c8d1108	0.017220035
150	0x3e87e2b5	0.2654015
151	0x3f13eac9	0.5778013
152	0x3f080212	0.5312816
153	0xbf15b45c	-0.5847833
154	0xbef014b7	-0.46890804
155	0x3e75a757	0.23989616
156	0x3f08625b	0.5327508
157	0xba59e612	-0.0008312176
158	0xbd12a042	-0.035797365
159	0xbe24192c	-0.16025227
160	0xbef33794	-0.4750334
161	0xbd440372	-0.04785485
162	0xbe87b1ab	-0.26502737
163	0xbe7006db	-0.23440115
164	0xbf0f6dd3	-0.56026953
165	0x3e9bdca8	0.30441785
166	0xbe600d7b	-0.21880142
167	0x3e73e14c	0.23816413
168	0xbd279872	-0.040916868
169	0x3e51cce7	0.2048832
170	0x3e84ba04	0.2592317
171	0x3e72b904	0.2370339
172	0x3ea71b43	0.32637987
173	0x3dab7d84	0.083735496
174	0x3d07872a	0.033087887
175	0xbf2092cb	-0.6272399
176	0x3f1c3850	0.61023426
177	0xbe1b2ca5	-0.1515375
178	0x3de68bbf	0.11257123
179	0x3f07ebde	0.5309428
180	0x3ead2ece	0.33824772
181	0xbc1df1cc	-0.009640168
182	0xbeb08196	-0.34473866
183	0xbe853392	-0.26015908
184	0x3ea5fef2	0.3242107
185	0xbd8c4981	-0.06849957
186	0xbdbf0b94	-0.0932838
187	0xbe4c1ed1	-0.1993363
188	0x3e75fecf	0.24022983
189	0x3e9088cd	0.2822937
190	0x3c0d62ea	0.00862954
191	0xbf0e2f52	-0.55540955

arith.constant17 f4 [8, 1, 3, 8]
0	0xbec2107c	-0.37903202
1	0x3b892d76	0.0041863276
2	0xbe182a2a	-0.14859834
3	0x3de9a08b	0.11407574
4	0x3ec81742	0.39080244
5	0x3dc16d40	0.09444666
6	0xbe9c80ed	-0.30567113
7	0xbcc64278	-0.024201617
8	0x3d467320	0.048449636
9	0x3e1f5350	0.15559125
10	0x3eb99192	0.36243874
11	0x3f26b0ce	0.6511353
12	0xbcb6e3cc	-0.022325419
13	0x3e17dd87	0.148306
14	0xbe5eac13	-0.21745329
15	0x3cc7fefc	0.024413578
16	0xbe14258c	-0.14467448
17	0xbdad0d9f	-0.08449864
18	0xbb352dee	-0.0027645784
19	0x3d8ffbf8	0.07030481
20	0x3f0be943	0.54652804
21	0x3ea6c1b6	0.32569665
22	0x3d5000a2	0.050781853
23	0xbea1bab2	-0.3158775
24	0x3db16ae1	0.08662964
25	0x3f1ee83a	0.620731
26	0x3eacf91a	0.337838
27	0xbd2309bb	-0.0398042
28	0x3e890110	0.26758623
29	0xbe13cac6	-0.1443282
30	0x3daaa763	0.08332708
31	0xbdb775f9	-0.089580484
32	0xbc8fe135	-0.017563442
33	0xbe4e7ddc	-0.20165199
34	0xbc1df8fe	-0.009641884
35	0xbe037af2	-0.12839869
36	0x3e589ab0	0.21152759
37	0xbd8fb6f4	-0.070173174
38	0xbe4ae8f5	-0.19815429
39	0x3e173786	0.14767274
40	0xbe1e9e42	-0.15490058
41	0xbe369adb	-0.1783251
42	0x3f1bfa36	0.60928667
43	0x3dea1a8d	0.114308454
44	0xbef0b95c	-0.47016418
45	0x3d3dc2ec	0.04632847
46	0xbee28146	-0.44239253
47	0xbead64d1	-0.3386598
48	0xbdb3008f	-0.08740341
49	0x3e8c33cb	0.27383265
50	0x3e0824ad	0.1329524
51	0x3e8b1ced	0.27170506
52	0x3efc53b7	0.4928262
53	0xbf0dfc4c	-0.554631
54	0xbea478e8	-0.32123494
55	0xbf037b89	-0.51360375
56	0x3eed497c	0.46345127
57	0x3e97b1d5	0.29627863
58	0xbdd1a8fd	-0.1023731
59	0x3e25d801	0.1619568
60	0xbc2d8636	-0.01059108
61	0xbd870509	-0.06592757
62	0xbe3373c1	-0.17524625
63	0x3e81528f	0.252583
64	0x3d07ffe3	0.033203017
65	0x3e133c6f	0.14378522
66	0x3ca531dd	0.020165378
67	0xbf0aea96	-0.542642
68	0x3dc5a354	0.09650293
69	0xbd2ce28e	-0.042208247
70	0xbe85321d	-0.26014796
71	0x3e2138ad	0.15744276
72	0xbefc5ee1	-0.49291137
73	0xbdce0ce0	-0.100610495
74	0xbc299ac9	-0.010351845
75	0xbeccce67	-0.40001222
76	0x3e70cb4d	0.23515053
77	0xbe0cd509	-0.13753141
78	0xbe0a4e86	-0.13506517
79	0xbe518716	-0.20461687
80	0x3edfbc79	0.4369848
81	0xbf086db1	-0.53292376
82	0xbe5b3f53	-0.21410875
83	0x3ebbd68a	0.36687118
84	0xbe9bd433	-0.30435333
85	0xbbf0b530	-0.007345818
86	0x3ecfff9c	0.40624702
87	0xbdad881c	-0.084732264
88	0x3f0e5522	0.5559865
89	0x3eaa0820	0.33209324
90	0xbd0770a8	-0.03306642
91	0x3d8b8adc	0.06813595
92	0xbe6476ad	-0.22310896
93	0xbf0d3482	-0.55158246
94	0xbe361cc0	-0.17784405
95	0x3e7001e0	0.23438215
96	0xbe85cc13	-0.2613226
97	0x3e2cc9ec	0.16873902
98	0xbdcc49ec	-0.09975037
99	0xbe9088d7	-0.282294
100	0x3d2a171f	0.041525956
101	0xbdebb028	-0.115082085
102	0x3ea2f9d2	0.31831223
103	0x3d843864	0.06456068
104	0x3d571974	0.05251451
105	0x3e2db29b	0.16962664
106	0xbe33f5c6	-0.17574224
107	0x3e53fa10	0.2070086
108	0x3ec78c28	0.38974118
109	0xbf050bc3	-0.5197107
110	0xbeab12f3	-0.33412895
111	0x3ed9132c	0.4239744
112	0x3eb61203	0.35560617
113	0xbef0316b	-0.46912703
114	0x3da6069a	0.08106728
115	0xbdd4cce4	-0.10390642
116	0xbbb9901e	-0.005662932
117	0x3ea0e48e	0.31424373
118	0xbe3387d1	-0.17532279
119	0xbec6cac3	-0.3882657
120	0xbedaefc7	-0.4276106
121	0xbe8569d6	-0.2605731
122	0x3e7bc1dc	0.2458567
123	0x3e0870c2	0.13324264
124	0xbec631b9	-0.3870981
125	0x3ea8e344	0.3298589
126	0x3eafc134	0.3432709
127	0xbd33fc35	-0.043941695
128	0xbebd1a38	-0.36934066
129	0xbd531497	-0.051533308
130	0x3ee8f3c5	0.4549848
131	0xbe7a2820	-0.24429369
132	0xbea3ba29	-0.31977966
133	0xbcbaecb9	-0.022817956
134	0xbe964bab	-0.29354605
135	0xbef1fca9	-0.47263077
136	0x3d97042b	0.07373842
137	0x3cfb62f5	0.030686835
138	0xbec2332f	-0.37929675
139	0xbeaf4b58	-0.3423717
140	0x3ea5e5f3	0.32402
141	0xbd9eb44d	-0.077492334
142	0xbdab3ac7	-0.0836082
143	0x3e863e9f	0.2621965
144	0xbe0e771c	-0.13912624
145	0x3cc612e2	0.024178926
146	0xbd8bb1a0	-0.06820989
147	0xbe29ff42	-0.1660128
148	0xbe8f5e4c	-0.2800163
149	0x3f2cb2c8	0.674603
150	0x3d91c6f9	0.07118029
151	0x3de6e237	0.11273616
152	0xbf07168c	-0.5276878
153	0xbde08bd8	-0.10964173
154	0x3deafde9	0.11474211
155	0x3e5dc613	0.2165759
156	0xbe1f6da2	-0.15569165
157	0x3f04e2f4	0.51908803
158	0x3eb5b943	0.35492906
159	0x3e85e0aa	0.26147968
160	0x3efc2b7b	0.49251923
161	0x3eb7638a	0.3581813
162	0xbdbbe38f	-0.09174263
163	0xbe20bce7	-0.1569706
164	0xbe60e925	-0.21963938
165	0x3ee3d712	0.44500023
166	0xbe8602a5	-0.26173893
167	0xbd475513	-0.048665117
168	0x3c9eea01	0.019398691
169	0xbddcf989	-0.107897826
170	0x3e18d17c	0.14923662
171	0xbcfe726e	-0.031060424
172	0x3ebb3308	0.3656237
173	0xbcd1b392	-0.025598321
174	0x3e82d860	0.25555706
175	0xbe28db6e	-0.16489956
176	0xbee9f322	-0.45693308
177	0x3eba104c	0.3634056
178	0xbcb224f0	-0.021746129
179	0x3ea7e217	0.3278968
180	0xbdc845f5	-0.09778968
181	0x3ed8dc1d	0.42355433
182	0xbe61f480	-0.22065926
183	0xbd79522b	-0.060869377
184	0x3ea55644	0.32292378
185	0x3f038367	0.5137238
186	0x3ed8aed3	0.4232088
187	0x3bf3a851	0.0074358364
188	0x3ee9f18c	0.45692098
189	0x3ed84edd	0.42247668
190	0xbebf2481	-0.37332538
191	0xbe4969d4	-0.19669276
