final/model.tflite (tflite, 31700 bytes, 29 tensors)

arith.constant f4 [6]
00000000: ea2a 9e3c 596f 0f3c 4d1e 0cbd b401 e2bc
00000010: 178c 58bd 7773 64bd
0.019307572 0.008754575 -0.034208585 -0.027588703 -0.052867975 -0.05577418

arith.constant1 f4 [6]
00000000: 77ba 0a3e cf44 943d b187 a6bc 4467 73bd
00000010: b5c7 c43d 37ba c73c
0.13547693 0.07239687 -0.020328375 -0.059424654 0.096084036 0.024380786

arith.constant8 f4 [6, 1, 3, 6]
00000000: 46d1 2e3f c1a6 bbbe c1c1 cc3e 4908 d63e
00000010: e808 913d 463c 77be 7080 bfba 6248 18bf
00000020: 3fff 3fbe 09cd f73c a40b fc3e 2ab2 203d
00000030: 55a8 1b3f 7dd2 5d3e 3b72 d8bd a096 373f
00000040: 7b05 133d c922 e13c 7abd a0be 45ce bc3b
00000050: 6c62 903e 2d26 7dbe 1518 e1bd 40d3 f13e
00000060: 425a 2fbe f981 6bbe 6334 163f 8e1a bb3d
00000070: d9f4 d43c 3975 8bbd 4da1 1ebe c6f8 f13e
00000080: 6775 a33e 7076 8fbe c8b9 173f 80a4 50bd
00000090: 5c05 18be 3e82 b8be 5165 2c3e 6d3c 37bf
000000a0: bcdc bd3d 34d7 2dbf 79aa ebbe 0201 adbd
000000b0: e48a e0be 6936 643d 8c90 efbe 1211 1b3f
000000c0: 8e62 03be 4e20 02be 1a50 1dbf 5019 43bd
000000d0: e7b6 8bbe 9491 773e daa4 393f 303b 463e
000000e0: 8bb0 bd3e e010 92be 34df 0d3e 6e55 35be
000000f0: bce5 09bf 3a12 bb3e 2ed2 b93e 137d 063f
00000100: c620 e9bc 2d9b f23e a516 20be 766f b23e
00000110: f12c a7be 175f 473c 1032 4ebe fa1e e0be
00000120: d979 14be 4b34 56be cd83 033f 9f6f d03e
00000130: f813 a8bd 1c48 1dbd 533c 8b3e 6f4a f93e
00000140: c44c 10bc b48a c43e e272 8e3e d0ed e1bd
00000150: d239 0d3e 3329 bd3b d317 843e 63e4 b73e
00000160: ebe4 8abe 36d2 aabe ac88 aa3e 0aac 24be
00000170: 7b96 453e 7b58 a2be 00b0 003f c6ba 2e3f
00000180: d3b4 79be 3008 c2be 77ef ecbe 0139 80bd
00000190: f7a6 17bd 7219 48be 8813 493f c160 31bf
000001a0: 40b9 87be fb3b c33d 4991 cdbe 7140 76be
0.68288076 -0.3665066 0.39991572 0.41803196 0.07081777 -0.24144086 -0.0014610421 -0.5948545
-0.18749712 0.030249136 0.4922763 0.03923241 0.6080373 0.21662326 -0.10568663 0.7171421
0.0358939 0.027482407 -0.3139456 0.005761894 0.2820009 -0.24721594 -0.109909214 0.47231483
-0.17124274 -0.229988 0.58673686 0.09135924 0.025995659 -0.06809468 -0.15491219 0.47260112
0.31925508 -0.28020048 0.59267855 -0.05093813 -0.14845794 -0.36036867 0.16835524 -0.7157658
0.09270617 -0.679065 -0.46028498 -0.08447458 -0.43855965 0.055715952 -0.46789968 0.6057292
-0.12830564 -0.12707636 -0.6145035 -0.04763156 -0.2728798 0.24176627 0.7251717 0.19358516
0.37048754 -0.285285 0.13854676 -0.1770837 -0.5386617 0.36537343 0.36293167 0.525346
-0.02845801 0.47384015 -0.15633638 0.34850663 -0.32651475 0.012168667 -0.20136285 -0.43773633
-0.14499606 -0.20918386 0.5137299 0.4071016 -0.08206934 -0.038398847 0.2719446 0.486896
-0.008807365 0.38387072 0.27822024 -0.11031687 0.13791588 0.0057727336 0.25799426 0.35916433
-0.27127776 -0.33363503 0.33307397 -0.16081253 0.19295685 -0.3170813 0.50268555 0.68253744
-0.24385385 -0.37896872 -0.46276447 -0.06260873 -0.037024464 -0.19540957 0.7854543 -0.6928826
-0.26508522 0.09532925 -0.40149906 -0.2404802

arith.constant9 f4 [6, 1, 3, 6]
00000000: 814a f13c 2cba 5b3e e1c9 09be e3f6 7cbe
00000010: 3738 03bf 86b2 003e 9abb 903e 81e7 a3bd
00000020: 3fea 0b3f fc71 de3e ea7d 913e 87e7 63be
00000030: f4cc c1bc 00c0 d03e bfe5 d0be a9cb fdbe
00000040: 246e 0bbf 6b82 c63e 3aa1 963d e192 333e
00000050: 2b09 293f 54d0 ed3e cd6d 80be ac65 e43e
00000060: b429 d2bd 64ec dcbd 5c00 a6be aa86 853e
00000070: e0c0 8abe ce35 c4be ad10 d1be 2dc4 4b3e
00000080: 27fe 92be c1de 8e3d eb97 23be 9576 c03e
00000090: 9ed3 213e c344 ef3d 4e66 823d 6e69 2bbf
000000a0: 4312 0dbf af57 35be 8e15 963e 3c66 d2be
000000b0: 2d9d 49be 8a3a b23e 34ec 25be 770c bebd
000000c0: 373a 15be bd3d 02bf fcac f9be 541c f0be
000000d0: fa82 c73e ffba cd3e 79f5 30bf ffc2 4dbe
000000e0: 6c93 04bf 6a5d cd3d 3a76 fdbd 0e7f 92be
000000f0: 7b80 943e 3975 0c3e 5842 adbe a784 ef3e
00000100: cda0 39bd d767 01bd 7d1e f4bc c0f7 ec3e
00000110: 36e0 203e 4de9 1a3f 9690 77be 482b c53e
00000120: 1fe8 173c 465a 18bf 2125 bdbe 1ebd 5d3e
00000130: 40c4 253e 6293 61be 493f a7bc 2953 913e
00000140: d558 91be 8914 f53e 8e54 fb3e 2f21 65be
00000150: 6da2 943e da2f 05be daeb 14be 7a92 023d
00000160: c12e f03e 6a2b 1a3e 5cb4 f83d 9d08 60be
00000170: f5b1 6bbd 1044 dabd a4b5 c1bd 7c1f 01bf
00000180: 5830 b2bd 46e5 223f 6a41 913e 6052 58bd
00000190: 0648 c23e 3f97 123e a1cd 3cbe 289d 013f
000001a0: ac48 c7be 5a42 ac3d 063f 0d3e 66ee 9e3b
0.029454472 0.21457738 -0.13455917 -0.24703555 -0.5125765 0.12568101 0.2826813 -0.0800314
0.54654306 0.43446338 0.28416377 -0.2225629 -0.0236573 0.40771484 -0.40800282 -0.49569443
-0.54464936 0.38771376 0.0735497 0.17536499 0.66029614 0.46448004 -0.2508377 0.4460882
-0.102618605 -0.107872754 -0.3242215 0.26079303 -0.27100277 -0.383223 -0.40833035 0.19899054
-0.28709528 0.06976081 -0.15975921 0.3759047 0.15803382 0.11683037 0.06367169 -0.6695775
-0.5510599 -0.1770923 0.2931332 -0.41093624 -0.19688864 0.34810287 -0.16203386 -0.09279721
-0.14572988 -0.50875455 -0.4876479 -0.46896613 0.38967115 0.4018173 -0.6912456 -0.20093916
-0.5178745 0.10027583 -0.123760656 -0.2861256 0.29004273 0.13716592 -0.3383968 0.46780893
-0.045319367 -0.03159317 -0.029799694 0.46282768 0.1571053 0.6051224 -0.24176249 0.38509583
0.009271651 -0.59512746 -0.3694239 0.21654174 0.16188145 -0.22028878 -0.020415919 0.2838376
-0.28388086 0.4786723 0.49087948 -0.2237594 0.2903017 -0.13006535 -0.14543095 0.031877972
0.4691067 0.15055624 0.12143776 -0.21878286 -0.05754276 -0.10657513 -0.09458473 -0.50438666
-0.08700627 0.63631094 0.2837022 -0.052812934 0.37945575 0.14315508 -0.18437816 0.50630426
-0.38922632 0.08411093 0.13793573 0.0048501967

arith.constant10 f4 [6, 1, 3, 6]
00000000: 3318 ffbd 06b0 e23e b4f6 63bd 3b72 f2bd
00000010: 7717 c5bc 3493 71be ba9c 04bd 7ff6 6fbe
00000020: 18d2 a8be 8e7c 333e a492 2f3f cd65 b6be
00000030: 20d1 f3bd 2adc d03e d30e 173f 011a 44bc
00000040: bb1b 1c3e b6cf 933e a053 0cbf 9666 53be
00000050: a716 8cbe f658 75bc 8c32 d3be bb00 90bc
00000060: 7f3d 173e 643f 8bbe 2b90 1d3e 86a7 913c
00000070: 59bb e63d be60 88be 432e e33c ecb4 ae3c
00000080: 42de e13e 3226 d0bd 53b6 313e 535a edbe
00000090: f9e6 21bd 31cc 143f 6034 2f3f f749 0dbe
000000a0: b4d7 433e ab20 bc3e dea1 a73e 778f 9b3e
000000b0: fc93 a8be 00a7 abbd 41b3 a6be 1d0c e7be
000000c0: 53fa 48bd e25b f6bd 2208 f5be cffa f33e
000000d0: 0b1c 25be 5308 b2bd ac81 02be 87ca e7be
000000e0: 9513 01bf 6826 e8be 43ee 343e f051 d0be
000000f0: e016 ed3e b13e 7ebe 6005 4fbd 2d2f 913e
00000100: 3ac1 de3d cf23 e9bd 8437 06bf 9dad 943e
00000110: 2881 ed3d 43af 25bc ddf0 af3d 75de d63e
00000120: 9bf9 98bd 7b64 be3d 2733 d83d 5bd7 b8be
00000130: 5b32 7fbd 539a 17be 524c a4bd e578 453c
00000140: d56f f8be acd5 9cbe f985 0dbf 6091 ab3e
00000150: d476 8d3e 45ef 9fbd 98dd 873e bcfc 013f
00000160: 5c3a 2ebe 2668 acbe ba05 6fbe 0598 2ebf
00000170: 8e13 23be 923d 103f 3943 41be 2cbb 43be
00000180: 3888 f7bd 1a0a b9be 2877 eb3e 67bc d53e
00000190: 57a2 8fbe 12ae 6a3e b92a f3bd b4fd 02bd
000001a0: cbd6 d6be d2b2 9ebe 16ba 4ebe dba5 e83e
-0.124557875 0.4427492 -0.055655196 -0.11838194 -0.02405904 -0.2359131 -0.03237603 -0.23433875
-0.3297279 0.17527983 0.6858313 -0.35624543 -0.11905122 0.40792972 0.59006995 -0.01196909
0.15244953 0.28869408 -0.548151 -0.20644602 -0.27361032 -0.014974823 -0.41249502 -0.017578473
0.14769553 -0.271968 0.15387027 0.017780077 0.112662025 -0.26636308 0.02773202 0.021326505
0.44114882 -0.10163535 0.17354707 -0.46357974 -0.039526913 0.5812407 0.6843929 -0.13797747
0.19125253 0.36743674 0.32740682 0.30382892 -0.32925403 -0.08381462 -0.32558635 -0.4512643
-0.049066853 -0.12029244 -0.47857767 0.4765229 -0.16123979 -0.08692994 -0.12744778 -0.45271704
-0.50420505 -0.45341802 0.17669015 -0.40687513 0.46306515 -0.24828602 -0.050542235 0.28356305
0.10876699 -0.11383783 -0.5242846 0.29038706 0.115969 -0.010112586 0.08590863 0.41966596
-0.074694835 0.09296509 0.105566315 -0.36101803 -0.062303882 -0.14804964 -0.080223694 0.012052749
-0.4852282 -0.3063177 -0.5528255 0.3350935 0.2762972 -0.07809309 0.2653625 0.5077627
-0.1701445 -0.3367321 -0.23342028 -0.68200713 -0.15925428 0.5634395 -0.188733 -0.19114369
-0.120865285 -0.3614052 0.45989347 0.41745302 -0.28053543 0.22917965 -0.11873383 -0.03198023
-0.4196075 -0.30995804 -0.20188174 0.45439038

arith.constant11 f4 [6, 1, 3, 6]
00000000: 671a f2be 20e9 c8bc e268 8d3d 69e8 33be
00000010: ade4 9ebe 7a95 b93e 798f 133f 14e5 2cbe
00000020: 0da0 a9bc bd03 6c3d ec56 00bf 8d06 febe
00000030: eb24 2cbe d83b 45be 3119 a13c 4b7e 003e
00000040: 9f23 b43e f8ce c2be 024c 99bd 2d24 e4bd
00000050: 8871 1b3f 65a5 ba3e b730 0c3d c426 443e
00000060: 1c47 3ebe b0ae 033e 598f 0dbf 76e7 0fbf
00000070: 0b6e 32be 18d8 b33e 1494 5fbe 7605 79be
00000080: 9289 273e 1756 983e a813 b63e 19b1 1b3f
00000090: 5d8b e6bc ba1d 573e db49 a03e b340 193f
000000a0: 3447 cf3e ff35 d73e da91 b13e 2002 1c3f
000000b0: f602 a13e 9b3d 01bb 3904 d93e a044 b43c
000000c0: 6f4d e83e b650 b83e f763 3e3c 32b6 c1be
000000d0: 9194 4c3d 1113 6e3c 819f b1bc 1bcc e8bd
000000e0: a067 7c3e 37f1 a93e 0680 19be 1c4a 24bd
000000f0: 4748 c1be 5cb9 6abe 2428 ae3e 6a3d 31be
00000100: c873 78bc 9a10 3e3e 178f b33e 93d8 ae3e
00000110: d147 2d3e b09b 923e df21 33bd dd13 f9be
00000120: 5dfb e0be 57d3 7f3e 35bc fb3d ee85 f33e
00000130: 2fe0 d03d 3dc5 25bf 7c3e afbe 5df9 0f3e
00000140: af8f e1be 400d d93e 16a0 e13d b9dd 06bf
00000150: 46ee fabe 9795 883e a45a 513e 3f0f 2bbc
00000160: dee4 23bf a864 c0bd ea31 b2bd 7a84 00bf
00000170: f7d8 013f 7724 473e 0333 1dbe c9f4 f53d
00000180: 208e 7cbe b7aa 09bf 9212 61bc 041a a73e
00000190: 15f5 073f 3b79 c73d 74d3 b33d debf f13e
000001a0: 36c5 f83e e8e1 bb3e 89e7 7fbe e06c 51be
-0.47285768 -0.024525225 0.069047704 -0.17569126 -0.3103384 0.36246854 0.57640797 -0.16884261
-0.020706201 0.057620753 -0.5013263 -0.49614373 -0.16810958 -0.1926111 0.019665333 0.12548177
0.35183427 -0.3804853 -0.074852005 -0.111397125 0.6072011 0.3645431 0.034226146 0.19155413
-0.18581814 0.12859607 -0.55296856 -0.56212556 -0.1742479 0.35125804 -0.21833831 -0.2431849
0.16361073 0.2975318 0.35561872 0.60817105 -0.028142625 0.21007434 0.31306347 0.5986435
0.4048401 0.42033383 0.34681588 0.6094074 0.31447572 -0.0019720558 0.42386034 0.02200538
0.45371577 0.35999078 0.011620513 -0.37834316 0.04994637 0.014530913 -0.021682503 -0.11367055
0.24648905 0.33191845 -0.14990243 -0.04010974 -0.37750456 -0.22922271 0.34015 -0.17308584
-0.015164323 0.1856102 0.35070106 0.34149608 0.16921927 0.28634405 -0.043733474 -0.48647967
-0.43941775 0.24982964 0.12291757 0.47563118 0.101990096 -0.64754087 -0.3422736 0.14059968
-0.44054934 0.4239292 0.11016862 -0.5268207 -0.49009913 0.26676628 0.20444733 -0.010440647
-0.640211 -0.09394199 -0.087009266 -0.50202143 0.5072169 0.19447504 -0.1535149 0.1200958
-0.24663591 -0.53776115 -0.013737338 0.32637036 0.5310834 0.0973992 0.08780566 0.47216696
0.4858796 0.3669579 -0.24990667 -0.20451689

arith.constant12 f4 [6, 1, 3, 6]
00000000: d6aa 16bf 9db3 273e ca34 d5bd baa3 b7be
00000010: 0473 71bc f3eb 733e ae57 e6be 2f3a 1ebe
00000020: 0a08 25bf 6c70 57be 4e34 163e c53c 0dbe
00000030: d759 bfbe 4d11 8b3e 9a9d bebe c589 92bd
00000040: 83fe bd3a 5eb5 a2bd 9d53 08bf a5a9 f13c
00000050: 3023 c7be 0493 223f 9e92 c43d a647 3ebd
00000060: 655e b5bd dcab 2f3d 2ba9 833e f5fe 2d3e
00000070: d60a 093f a376 d13d 4165 fdbe ad30 a1be
00000080: 167e a6be 3929 eb3e 49fe 94be ba1d eabc
00000090: d080 0abd a9cc d7be bed8 49be 4f17 55be
000000a0: 2980 38bf 6835 973d e8b7 37be d0af b5be
000000b0: d980 b93d 81ca 1f3d 76f6 2dbf 3467 c43d
000000c0: 01e8 533e 6184 5f3e 0ec9 cbbe ccbb fcbd
000000d0: 7863 05bf 1afd 4a3e 4f11 a7be 3f80 c93e
000000e0: ea58 e73e 23f5 95bd cf6b f8be 3fcc c2bc
000000f0: 3d99 df3c 4c78 293d 2cef 9d3e 7181 f1be
00000100: 5969 0abf d35e e83e 76f9 1d3e c282 41bf
00000110: b675 d3be 35e6 a5bd b117 01bf 38a6 533e
00000120: 495e b83e 955a 89bd 2658 9b3e 2a48 82be
00000130: 502a 6abd 0228 47be ff47 ecbc 4da9 a1be
00000140: f48d 143f 144a a6bd 248f 86bd f695 27bf
00000150: e9df e03e e899 92bd 6ad0 61be dd17 013f
00000160: 0052 df3c 224c dabe 5d53 193e 1f15 473e
00000170: f6ee 603e 7e6e 0fbe 54c6 71be 5201 ebbe
00000180: ac64 01bf 4408 16be 27b9 febe 7381 c33d
00000190: 3a36 03bf 57dd 8f3e 01d2 f63e 9497 cdbe
000001a0: 30de b1be 55e9 a2bd 1f73 8f3c 1cd3 8c3d
-0.58854425 0.16377111 -0.10410459 -0.358671 -0.0147368945 0.23820476 -0.4498877 -0.15451883
-0.6446539 -0.2103898 0.1466839 -0.13792713 -0.3737323 0.27161637 -0.37229615 -0.07155184
0.0014495406 -0.07944749 -0.53252584 0.029499838 -0.38894033 0.6350558 0.095982775 -0.046455048
-0.08855895 0.042888507 0.25715002 0.1699179 0.5353216 0.10227706 -0.49491313 -0.3148245
-0.3251807 0.45929888 -0.29100254 -0.028578628 -0.03381425 -0.4214833 -0.19711587 -0.20809673
-0.72070557 0.07383233 -0.17941248 -0.35485697 0.09057779 0.039011482 -0.67954195 0.09589997
0.20693971 0.21827842 -0.3980183 -0.12340507 -0.521049 0.19823113 -0.32630393 0.39355657
0.45185024 -0.07322147 -0.4851975 -0.023779033 0.02729475 0.04137449 0.30846536 -0.47169068
-0.54067 0.45384845 0.15427193 -0.75590146 -0.41300744 -0.08100549 -0.50426775 0.20668876
0.36009434 -0.0670673 0.3034069 -0.25445682 -0.05716926 -0.19448856 -0.028842924 -0.3157448
0.58029103 -0.08119598 -0.06570271 -0.654632 0.4392083 -0.071582615 -0.2205216 0.5042704
0.02726078 -0.4263621 0.14973207 0.19441651 0.21966156 -0.14006993 -0.23610812 -0.45899445
-0.5054424 -0.1465159 -0.49750635 0.09546175 -0.5125462 0.28098556 0.48207095 -0.40154707
-0.34739828 -0.07954661 0.017510949 0.068762034

arith.constant13 f4 [6, 1, 3, 6]
00000000: dcc0 113f 3ec4 5f3e ee75 efbd cd55 503e
00000010: 8ad7 aa3e d175 7dbd 0e5a 053f 0b40 a0bd
00000020: 5003 e83e bcf3 45be e4bb 823e b0e0 44be
00000030: 3447 b83e 2579 5a3d ae54 82bd 4af0 353e
00000040: e0b2 36bf a516 8f3e 5232 26be cace 8c3d
00000050: 0b3a 803d d056 733e 43ae b63c 2f1b debd
00000060: 5ef4 f2be 8475 44be fbbe 0d3d 6796 85be
00000070: 3f91 823e 49b9 0abe f5c4 2dbf 6aaf bd3e
00000080: 5bdb c9be 6929 dcbd 838b b4be f647 f6be
00000090: 2492 86bd 1012 80be 622d e73e c36e 07bf
000000a0: 1040 a43e f5c8 ffbe d230 04be a912 e73d
000000b0: bad8 d83e 3e4d 90bd eb08 a23e 2851 a03e
000000c0: e727 c8be dd36 cd3e 4dbe a6be 186f 593e
000000d0: ef3b d63d 22df 14bf d137 1dbf eec2 24be
000000e0: 6325 323f 4ddd 633c 52e9 c33e 8964 65bd
000000f0: 831e e5be b8ee 09bf 881f 253c df4b c13e
00000100: 6153 0a3e 935b 19be 6fb1 c33e 8fb4 103f
00000110: 2502 02bf 72f1 963e 6f66 0abd 62e3 a7be
00000120: 5eff 8dbe 8cce 613e 0d46 afbe c168 5b3d
00000130: 1f61 2e3f d537 963e e9b0 f1be 56bb 06bf
00000140: 6430 19bf 7ee2 c23d ef16 8fbe 8102 9abd
00000150: eff1 283e 7383 9dbd a775 003f 85ab e73e
00000160: ddf9 533e b240 743e 3437 e9bd 9d24 b9be
00000170: d75a 3dbd d6a4 59be a9cc c6be 666e 7cbd
00000180: ad10 44bf 5390 d43e f0f9 953e 572e b1bd
00000190: f5c4 f3bc c20d ca3d 9606 d13e f2cb 3a3e
000001a0: 6c60 5abe 9d9f 443e f2b7 9f3e 1fec 973e
0.56934905 0.21852204 -0.11692415 0.2034523 0.33367568 -0.061879937 0.5209054 -0.07824715
0.45315027 -0.19331259 0.25533974 -0.19226336 0.35991824 0.05333819 -0.063638076 0.17767444
-0.7136669 0.27946964 -0.16230133 0.068753794 0.06261071 0.23763585 0.022299891 -0.108450286
-0.47452062 -0.19185454 0.03460596 -0.2609131 0.2550144 -0.13547243 -0.6787866 0.37047893
-0.39425167 -0.10750086 -0.3526269 -0.48101777 -0.06570843 -0.2501378 0.45151812 -0.52903384
0.32080126 -0.49958006 -0.12909248 0.11282856 0.4235285 -0.07045983 0.3164743 0.31311917
-0.39092943 0.4008092 -0.32567063 0.21233785 0.1046065 -0.58152974 -0.61413294 -0.16089985
0.695883 0.013907743 0.38263947 -0.05600408 -0.4474984 -0.5387988 0.010078318 0.37753198
0.13508369 -0.14976339 0.3822131 0.5652551 -0.5078452 0.29481083 -0.033789095 -0.32790667
-0.27733892 0.22051448 -0.34233132 0.053566698 0.68116945 0.2933947 -0.47205284 -0.526296
-0.59839463 0.09515856 -0.27947184 -0.07520009 0.1649854 -0.076910876 0.50179523 0.45248047
0.20700784 0.23852804 -0.11387482 -0.36160746 -0.04622921 -0.21254286 -0.38828018 -0.06162872
-0.76587945 0.4151636 0.2929225 -0.08651417 -0.029757002 0.09865905 0.40825337 0.18241861
-0.21325845 0.19201513 0.31195027 0.29672334

arith.constant14 f4 [6, 1, 3, 6]
00000000: 3f21 8fbe 6226 a2bc 467a cabe fe7e 6f3d
00000010: 68f0 dabd af78 a63c a167 e03e 60c6 40bd
00000020: b744 e13e c92f 033d 299e 383d 855f ac3d
00000030: 4bb7 173f 0e22 4a3f 32f6 b83d d0ec 9cbb
00000040: f722 083e 756b 0f3e 8b37 bf3e 67a6 44be
00000050: 34d3 90bc e55d 163f 63ce fbbd d82d 173f
00000060: 734b b23c 7918 bcbe 676b 7e3e 4f8a a4be
00000070: b30f 3c3e f9b8 a73e ea77 14be 9b08 cabe
00000080: 7691 8dbc d3fb c1be e619 80be 9db5 06be
00000090: eab6 4abe 0aab dd3e bf5b f8be 7694 fabe
000000a0: c76c 733d e38c 453e 5189 fdbe 5954 48bd
000000b0: 146d bcbd 6fa2 13bd e250 fe3d e110 863e
000000c0: 43b5 9fbc b3d1 8a3d 7a4a 94bd dea0 fbbe
000000d0: f85a fdbb 495d 613d 8aff b13d 649a 4f3e
000000e0: e5cd b63e db4c a33e 23a6 37be 2823 8fbe
000000f0: 095c 65be f738 a2bd 4c2a e33e 87aa 81be
00000100: abcc 20be b836 e3be bae6 403e 5f14 1f3d
00000110: 4ed6 4cbe f06f d33d 7f33 503e f5b0 4a3d
00000120: 22f4 083e a05d 1f3f fcaa ed3e b8a9 7c3e
00000130: 47c7 c4be 8cdc 1a3f 3396 66be 31de 233f
00000140: 7150 443e ea77 f6be 9b72 c0bb a937 da3c
00000150: 263b 87be c95d d13e a925 36be f7cb d7be
00000160: e091 b6be c0a3 72bd 5bd7 d8bd 073c 07bd
00000170: 8907 1ebe 43f7 933e 6bbc 853d c931 8d3e
00000180: 57cb 5f3e 40ef d73e 29ad e33e 25f3 123e
00000190: bc13 03bf ac5f 263e 23fe e8be ce7a 303e
000001a0: 1582 a2be 6ae9 f4be ed73 f53e 504a e73e
-0.27955052 -0.019793693 -0.39546412 0.05847072 -0.10690385 0.020321218 0.43829063 -0.047064185
0.43997738 0.032027993 0.04507271 0.084166564 0.5926406 0.78958213 0.09031333 -0.0047889724
0.13294588 0.14005835 0.37347063 -0.19204102 -0.017678834 0.5873702 -0.122952245 0.59054327
0.021764493 -0.3673742 0.24845658 -0.3213677 0.18365364 0.3275831 -0.14498869 -0.3945969
-0.017281275 -0.3788744 -0.2501976 -0.13155217 -0.19796339 0.43294555 -0.48507497 -0.48941392
0.05942991 0.19292025 -0.49518827 -0.048908565 -0.092004925 -0.03604358 0.12417771 0.26184753
-0.019495612 0.06778278 -0.07240768 -0.4914617 -0.0077317916 0.055020604 0.08691318 0.20273739
0.3570396 0.31894574 -0.1793447 -0.2795651 -0.2239839 -0.079210214 0.44368207 -0.25325415
-0.15703075 -0.44377685 0.18838015 0.038837787 -0.20003626 0.10324085 0.20332144 0.049485166
0.1337438 0.62252235 0.46419513 0.24674118 -0.38433287 0.6049278 -0.22518234 0.6401091
0.19171311 -0.48138362 -0.005873037 0.026637869 -0.26412314 0.40891865 -0.17787804 -0.421478
-0.3565817 -0.059238195 -0.10587951 -0.03301623 -0.15432562 0.28899583 0.065300785 0.27577046
0.21854912 0.4217472 0.44468048 0.14350565 -0.5120199 0.16247433 -0.4550639 0.17234346
-0.3173987 -0.4783433 0.47940007 0.45173883

arith.constant15 f4 [6, 1, 3, 6]
00000000: 9c6d 9f3e 527e e73e 3dd9 c8be da28 f1bd
00000010: d5bc 04be 7dfb d03e 44cb c33e 4d15 983e
00000020: 0af7 38bf 739e 81bc fea0 023f 5554 ef3d
00000030: e2fb 503e c65f a5bd fb49 d8be 88c3 41bd
00000040: 369c eb3e 276a 183d d7c2 dbbd 0817 243e
00000050: ccad 303e af39 d2be c6eb 9d3e 08be 29bf
00000060: de54 33bf eb91 cdbd 2ec4 783e 7c43 f7bd
00000070: ec35 113f f922 b93d d714 31be 3ce0 c9bd
00000080: fc7e f63d 96ac b6be 8806 0bbd 8735 5abd
00000090: bf6f 91be 60db 2d3e fcdc 7abe 936d 6b3d
000000a0: 6072 e0bd 82b7 0b3c f431 c43c ccdf 5cbd
000000b0: e055 a73d 16ce 1c3e 0bf6 0dbf d41b 9cbe
000000c0: 35e6 b4bc 879e 0c3e 8b8b 0cbf d88b 743d
000000d0: bd60 b2bd 05bb d4be a8a4 27be 6c40 53bd
000000e0: d24f 1a3f 9413 0abe ad28 e8be 995a db3e
000000f0: af19 0fbe 6901 8fbe 9684 403d 8c63 8b3e
00000100: 23e5 943e a786 d93e db8c 78be 7dcd a9bd
00000110: 844d 923e f136 38be 8d0a c93e 20d6 d9be
00000120: da15 99be 408b 383e c7b7 a4bc c4fe d9bc
00000130: e3c0 b3be 3cf2 b5bd 059a d5bd 4073 c73e
00000140: 07db 1bbf ed46 72be c551 72be 0fdd 213e
00000150: 8f15 8fbd 224e 03be 1e6f c0be c000 c0bc
00000160: 9c48 453e 0ee7 32bf a1c5 803e 8b20 6d3e
00000170: 3ee3 34be f820 143e c188 033f 502b 9a3e
00000180: bf7f bf3e b5b1 983e a7d6 99be 3c14 023d
00000190: bc21 23bd f576 72be 832e 7abc 5925 d63d
000001a0: 164f b5be a26f ac3e 57be 283f 4990 e13e
0.31138313 0.45213562 -0.3922824 -0.1177537 -0.12962659 0.4081687 0.38241017 0.2970375
-0.7225195 -0.015822625 0.51026905 0.11686007 0.20408586 -0.08074908 -0.42243943 -0.047305614
0.46017617 0.03721061 -0.10730522 0.1602441 0.17253798 -0.41059634 0.30843943 -0.6630559
-0.7005137 -0.10037597 0.24293587 -0.120734185 0.56722903 0.09039874 -0.17293106 -0.098572224
0.12035939 -0.35678548 -0.033941776 -0.053273704 -0.28405568 0.16978216 -0.24498361 0.057477545
-0.10959315 0.008527638 0.0239496 -0.053924367 0.08170676 0.1531299 -0.55453557 -0.3048998
-0.022082428 0.13732348 -0.54900426 0.059703678 -0.087098576 -0.41548935 -0.16371405 -0.05157511
0.60278046 -0.13484031 -0.45343533 0.42842558 -0.13974641 -0.27930763 0.047001444 0.27224386
0.29081067 0.42485544 -0.24272482 -0.08291147 0.28574765 -0.17989708 0.39265862 -0.42546177
-0.29899484 0.1802187 -0.020107163 -0.02661074 -0.35108098 -0.08884093 -0.104297675 0.38955116
-0.60881084 -0.23659869 -0.23664005 0.15806983 -0.06986534 -0.12822774 -0.37584776 -0.023437858
0.1926598 -0.6988381 0.2515078 0.23156945 -0.17664811 0.14465702 0.51380545 0.3011117
0.3740215 0.2982308 -0.3004658 0.03175758 -0.039827093 -0.23678191 -0.015269878 0.10456342
-0.354119 0.3367892 0.65915436 0.44055393

arith.constant16 f4 [6, 1, 3, 6]
00000000: 9a1e 1e3f 9963 603d 7b30 963e 7092 7e3e
00000010: 7043 b0ba a450 2a3d f4ce d33e 1a79 7c3e
00000020: db8e b63e 5bd7 0a3f dd32 9dbe 3fd5 553c
00000030: 2d18 e03e a5b7 483e 5f89 2c3f 8c5f e53d
00000040: 6626 bfbe e473 9abe e3f0 24be 4481 76be
00000050: 9b41 993e ca16 94bc 6876 603e 57a4 16bf
00000060: e14f 953e 07df c43c aa3e 213a 3f98 dd3d
00000070: 54c2 933d 5fb9 ddbe 8b0c b4be 3c75 c4be
00000080: 3b7d b73e 112c 1abf 01e2 173f f82e bdbe
00000090: b3a7 c6bb 4b56 c2bd deb6 e5be 8749 12bf
000000a0: 1fe5 6abe d252 ce3e 0da1 b53e 0f64 10bf
000000b0: 7bd4 033f 58a5 35be 59c0 473e 7d05 ac3e
000000c0: 0da3 abbe 726c bbbe 3fa4 5f3d 3f4e f5bd
000000d0: 75fe a33e 8a3b 5fbb 54d7 44be 6f5c 873e
000000e0: d75c b83e f884 3abe ce85 fe3e fc6b d4bd
000000f0: a797 abbd 75f5 983e 64d8 a03e a87d e73e
00000100: a942 dd3d a0bf 5dbd ce07 5bbe 93b8 1d3b
00000110: 028d b1bd dade 5dbe 1d93 a1be 8666 ba3d
00000120: 9f58 a03e fd5d aa3d 3e55 f8be df59 e9be
00000130: 299e d33d 23be 0dbf 0a34 2fbf 9e02 04bf
00000140: 184b 2b3d 69f2 223e 3cdc 1a3e b49f 2b3d
00000150: 0ee0 b8bd 351d 52be 2365 71be b9a0 dc3d
00000160: f5d2 af3e 6d53 123c d1e4 3b3e 84bc 4f3d
00000170: 12a2 a7bd ce2b af3e fec7 e03e f207 b8be
00000180: 41cc 4ebe 1d3e cb3e 1b52 8b3e ab33 253e
00000190: b7bb 7bbc 1d07 48be ad52 23be 85f7 d8bd
000001a0: f2a7 323e 4782 823e 1775 883d 02ff 613d
0.61765444 0.054782484 0.29333863 0.24860549 -0.0013447832 0.04158081 0.4136883 0.24655572
0.35655865 0.54234856 -0.30702868 0.01305133 0.43768445 0.19601305 0.6739711 0.11199865
-0.37333983 -0.30166543 -0.16107516 -0.24072748 0.29932866 -0.018077273 0.21920168 -0.5884451
0.29162505 0.024032129 0.0006151 0.10820054 0.072147995 -0.4330549 -0.3516582 -0.38370693
0.3583773 -0.6022349 0.5932923 -0.36949897 -0.006062472 -0.09489115 -0.4486608 -0.57143444
-0.22938965 0.40297562 0.35474434 -0.5640268 0.51496094 -0.17738855 0.19506969 0.33597937
-0.33522835 -0.36606175 0.054599997 -0.11977815 0.32030073 -0.0034062588 -0.19222766 0.2643771
0.3600833 -0.18214786 0.4971146 -0.10372159 -0.08378535 0.2987477 0.31415093 0.45213056
0.1080373 -0.054137826 -0.21389696 0.0024066314 -0.08669473 -0.21667042 -0.3155755 0.09101586
0.31317613 0.08318708 -0.48502535 -0.4557638 0.10332901 -0.5536825 -0.6843878 -0.51566494
0.04181966 0.15912785 0.15123075 0.04190035 -0.0902711 -0.20518954 -0.23573737 0.10772843
0.34340635 0.008931023 0.18349005 0.050716892 -0.08185209 0.34213108 0.43902582 -0.35943562
-0.20195104 0.39695826 0.2721108 0.16132991 -0.015364579 -0.19533964 -0.15949507 -0.105940856
0.17446879 0.2549002 0.06662958 0.055174835

arith.constant17 f4 [6, 1, 3, 6]
00000000: ad73 15bf 62aa 2d3e 5e72 0abe befe 043f
00000010: 26a3 5a3e 6806 5bbe 25da 90be 6c46 91be
00000020: e0f3 8b3d e798 70bc 0e38 473e f4c1 e73e
00000030: 65f6 e6be e5c7 19bf dab3 05bf b990 953e
00000040: ce7a 1b3f bfa9 213f db98 99be 319b 103c
00000050: 8b73 0d3f 6708 7f3e 7a5d f6be ffce b2be
00000060: f450 90be 3c58 983d 1094 403e 8d6c ee3e
00000070: b827 82be 540b 13be d99b b9be dcea 05bf
00000080: 11ff 7bbd b721 dfbe 3c80 023f 4999 97be
00000090: 50f1 85be 0739 ba3e a8aa 3fbe 3096 153e
000000a0: 9fc9 0abf 132f b1be 6345 a4be 6479 403e
000000b0: ae74 103e bc86 42be f32d ccbe 10c3 19bf
000000c0: 7bec 313f 8537 23bf f849 0b3e 363e 4ebd
000000d0: aa47 eabd 0481 0abd b43b 56be 690f 213f
000000e0: 4111 66be 6469 b03e 53b3 2dbe 64e5 02be
000000f0: 78ab 11bf 6374 fb3d 664a 99be 0655 463e
00000100: e4aa 15bf 6f19 4e3b 03ce abbd c576 343e
00000110: ae9f d43e 169f dcbe d192 c3bd c5c5 b73d
00000120: 67de b53d 0a78 0e3f b8ef 423e ae8e 70be
00000130: f0f7 7abc a985 bb3e b82f ccbe 2a4a c43e
00000140: a5d9 043e 10fe 60bb 5fd3 3cbf 1eae 94be
00000150: d534 e3bd 36aa 983d 4c29 a5be 82d8 253f
00000160: 826f 203f e7fb 0ebd add3 3ebb 4770 483e
00000170: efc0 723d fcef 66be b820 04be adc6 8d3d
00000180: 39ae 90be 507e ba3d b7cf 133f 3c37 153f
00000190: 520c 8f3e 7e02 843d 9eb7 f23d ad22 d13d
000001a0: c465 9bbc f7bb d5bc 5514 f8bd 6127 b93e
-0.5837963 0.16959527 -0.1352019 0.51951206 0.21351299 -0.21389163 -0.2829143 -0.2837404
0.06833625 -0.014684892 0.19454977 0.45265162 -0.4510986 -0.6007064 -0.52227557 0.29211977
0.6073426 0.63149637 -0.29999432 0.008826063 0.5525443 0.24905549 -0.48118192 -0.3492355
-0.28186762 0.07438704 0.18806481 0.46567193 -0.25420928 -0.1435979 -0.36251715 -0.5231149
-0.061522547 -0.4358041 0.5097692 -0.29609135 -0.2616067 0.36371633 -0.18717444 0.14608073
-0.542139 -0.34606227 -0.32084188 0.18796307 0.1410701 -0.1899671 -0.39878806 -0.60063267
0.69501466 -0.6375659 0.13602436 -0.050352298 -0.1143945 -0.033814445 -0.20921212 0.6291414
-0.2246752 0.34455407 -0.16962938 -0.12782818 -0.56902266 0.122780584 -0.29939574 0.19368371
-0.58463883 0.0031448265 -0.08388903 0.17623432 0.41528076 -0.43090123 -0.095494874 0.089732684
0.088803105 0.55651915 0.19036758 -0.23491928 -0.015317902 0.36625412 -0.39880157 0.38337833
0.1297365 -0.003433112 -0.73760027 -0.2903909 -0.11094061 0.0745434 -0.3225807 0.6478349
0.6267015 -0.0349082 -0.0029117868 0.1957408 0.059266027 -0.22552484 -0.12903106 0.0692266
-0.2825792 0.091061234 0.5773882 0.58287406 0.27939087 0.06445788 0.118514284 0.10211692
-0.018969424 -0.026090605 -0.12113253 0.36162856

arith.constant18 f4 [6, 1, 3, 6]
00000000: 3fdd 013f 3478 c4bd 5d4d 9f3e 6537 24bb
00000010: 004a 34bf 25e4 303e 57ce 273e 6187 5cbe
00000020: 2068 c83c dd87 e23c dd50 0e3f 6eb2 db3e
00000030: f609 203e b990 503e bc6d c53d ff23 a1bc
00000040: 28a2 19bd b50b d73d 705a 71bd 25cf 653e
00000050: b532 a0be aff7 033f 89b7 1f3e 6d29 2dbc
00000060: 8d30 39bf f32d 83be 035f 983e fa66 29bf
00000070: 5fd9 22bf 45de 783e f8a1 153c dc24 b13e
00000080: 79fa 18bd e8a2 1b3f eeec 143e 61d7 41be
00000090: 4a55 adbd 7439 cb3e b048 8dbe e450 d2be
000000a0: 3672 e7bd 3137 4bbe 1a2b 1d3d ad1f 4e3e
000000b0: 1c26 963e a532 883e 2518 74bc e9c7 24bc
000000c0: a965 b73d 2f05 cbbe 1f1a fbbd 1781 2bbe
000000d0: de34 72be f007 193c db82 4f3e 37b3 e1be
000000e0: 073c 293f e9d5 083f 7e2f 11bd 8650 bdbd
000000f0: c6dc 04bf 0372 e7bd 7b11 c23d 7c68 04be
00000100: bc1c 6c3d 2fcd c4bd 1d7f 03bf 5100 23bf
00000110: 6fb6 aebb 38b6 ee3d 5826 2fbd 526c 223f
00000120: c149 b9be 76d1 c1be 1ce9 2e3f 8403 ec3d
00000130: 928b 54bc c139 14be 2609 a93d 1d20 623e
00000140: f876 6e3e 8ac7 503e 310a 84be e834 43be
00000150: 50d1 a23d 60cb 1cbf fab8 7e3e 9aa8 fe3c
00000160: cfa2 3ebd df6a 22be d9ba 51be 30a1 503e
00000170: 34d9 b3bd 6957 113e 6d26 8e3e afa7 6a3e
00000180: c125 a6be 50b0 b8bc 0ef1 d63d 3eef e7be
00000190: ae47 13bf 453a 02be cd64 383d 69aa a4be
000001a0: 0454 b83d 329f e03e 09ab 573e 1993 4e3e
0.5072822 -0.095932394 0.3111371 -0.0025057432 -0.70425415 0.1727453 0.16387306 -0.21536018
0.024463713 0.027652675 0.5559214 0.4290957 0.156288 0.20367707 0.09640071 -0.019670485
-0.03750816 0.1050028 -0.05892414 0.224423 -0.31288686 0.5154981 0.15597357 -0.010568959
-0.7233971 -0.25620994 0.29759988 -0.66172755 -0.6361293 0.24303539 0.009132855 0.34598434
-0.037348244 0.6079545 0.14543507 -0.18929817 -0.08463533 0.3969227 -0.2759452 -0.4107734
-0.11301081 -0.19845273 0.038371183 0.20129271 0.2932595 0.2660114 -0.014898335 -0.010057428
0.08954937 -0.39652392 -0.122608416 -0.16748463 -0.2365298 0.009340271 0.20264761 -0.44082043
0.6610722 0.534514 -0.035445683 -0.09243874 -0.51899374 -0.11301043 0.094759904 -0.12930483
0.05764459 -0.09609448 -0.51365834 -0.6367236 -0.0053318064 0.11655849 -0.042761177 0.63446534
-0.36189082 -0.3785512 0.68324447 0.11524108 -0.012972729 -0.14475156 0.08253698 0.22082563
0.2328757 0.20388618 -0.25789025 -0.19063151 0.079500794 -0.61247826 0.2487525 0.031086255
-0.046541985 -0.1586108 -0.20481433 0.20373988 -0.087816626 0.141935 0.27763692 0.22915529
-0.3245068 -0.02254501 0.10495196 -0.45299715 -0.5753125 -0.1271754 0.045018006 -0.32161263
0.090004 0.43871456 0.21061338 0.20173301

arith.constant19 f4 [6, 1, 3, 6]
00000000: 9aed 95be 13ca 3bbf 2bef 733c 6443 c53e
00000010: cf3e e33d 2de6 8abe a107 08bf 6b60 e9bb
00000020: 1a97 b3bd 6320 17bf 6646 3ebe 6060 e0bd
00000030: 25ac 9e3e 772d e7be c8a0 323d 9aa7 f03d
00000040: f8ed fabc b08c 1dbf dc0e 953e 6485 a43e
00000050: 8da1 08be 5dfb 363f ecf5 d33e 1be3 193d
00000060: 4881 d6be 8105 b63d 63f8 483f f13a edbd
00000070: 5a54 a0be 5e98 873c e6f5 183e c3b2 59bd
00000080: e646 653e eb68 b43e 5967 02be 9d57 8bbe
00000090: cf74 67be 89a1 73be 1c63 1c3f 3b3e c93d
000000a0: 474d 193e ee12 88be 35c4 13bf 22d7 773d
000000b0: e1dd 9f3e af7c a43e 73d1 d2be 944e 0b3e
000000c0: 8add e6bd 070d 35be c045 1bbd 8855 b73d
000000d0: 5501 583f 32aa 073f 3527 32bf afde 3bbe
000000e0: 2ede 2f3d e780 1b3f cabf febc d116 073f
000000f0: c927 703e ca5b 58be 9a37 383e 8e2e 843e
00000100: 26de cbbe 4f84 d03e 14fb d8bc 28ad 6bbc
00000110: 2e33 d73d 0227 f5be 568b b3bb adb9 8a3e
00000120: 1ad8 ae3e 9705 093f 9fd4 003f 0521 3a3f
00000130: 78d7 2c3d 367c 0f3e 5061 71be 7fb4 633e
00000140: 2bb9 033f dc56 e13e dce9 8a3e 46be e13d
00000150: 7cce ef3d 84a4 833e 0b77 153d 62fc c43d
00000160: 19b6 1fbf c213 52be 5fc0 86be e355 ecbd
00000170: c2b7 ce3e bd9a 2b3e ea53 7cbc e035 fdbe
00000180: fac7 f9bd 1b35 553d 8e17 453f 0a36 bd3e
00000190: 01a1 783d a3af 733e 3e1c 07be 658f 6e3d
000001a0: 0add afbe 90f2 3fbf 3419 a9bd a4fa c5be
-0.29282838 -0.73355216 0.014888565 0.38527977 0.11095964 -0.27128735 -0.5313664 -0.0071220896
-0.08769055 -0.59033793 -0.18581542 -0.10955882 0.3099071 -0.45151874 0.043610364 0.117507175
-0.03063105 -0.615428 0.291129 0.3213302 -0.13342877 0.714773 0.4139856 0.0375701
-0.4189551 0.088877685 0.7850401 -0.11583508 -0.31314355 0.016552147 0.14937553 -0.053148996
0.22390327 0.35236296 -0.12734737 -0.2721528 -0.22603153 -0.2379209 0.6108873 0.09826323
0.14970885 -0.26576942 -0.57721263 0.0605079 0.31223968 0.32126376 -0.41175422 0.13604194
-0.11272724 -0.17680751 -0.037908316 0.08951861 0.8437703 0.5299407 -0.69591075 -0.18346666
0.042936496 0.60743564 -0.031097312 0.5276919 0.23452677 -0.21128765 0.1798996 0.25816768
-0.39817923 0.40725943 -0.02648691 -0.014384545 0.105078086 -0.47881323 -0.0054792566 0.27094784
0.34149247 0.53524154 0.50324434 0.72706634 0.042197675 0.14012226 -0.23572278 0.22236823
0.5145442 0.4401158 0.27131546 0.1102262 0.11709306 0.25711453 0.03649048 0.09618451
-0.62387234 -0.2051535 -0.26318642 -0.11539819 0.4037457 0.16758247 -0.015400866 -0.49455166
-0.121963456 0.0520526 0.76989067 0.3695529 0.06070042 0.23797469 -0.13194367 0.05824222
-0.34348327 -0.74979496 -0.0825676 -0.38667786

arith.constant20 f4 [6]
00000000: 0000 0000 0000 0000 0000 0000 0000 0000
00000010: 0000 0000 0000 0000
0.0 0.0 0.0 0.0 0.0 0.0

arith.constant21 f4 [5, 12]
00000000: fd7e 0f3f 5807 50bc d4d8 fcbe c241 90be
00000010: 9024 b3be 5eea debe a75d c3be 161e 053f
00000020: 8f56 b1bc 091d 873e 0472 863d d88a 933d
00000030: 2d0a e1be e11d 8dbe 5488 80bd 050b a3be
00000040: 0c6d 7a3e 7903 cbbd c7e4 62be 81b2 083f
00000050: 155b f1be 96d4 013f 1505 19be 426e 73be
00000060: 255f e13e 8cef 03be bfca a8be 02b1 433c
00000070: ad89 a73e 19b7 ffbc 4835 afbe 1976 eebd
00000080: d77d dfbd 2b1f d0bd 5a1d 1cbf e6c6 c53e
00000090: e7f6 0c3e b733 dc3d 5ce6 d33e 9c37 363d
000000a0: 3882 033f fc29 b53e ba51 e63d cb6a 58be
000000b0: d8ee 87be 2c9f 45bc c662 673e 7528 1ebc
000000c0: 72d2 523e 474a 3cbf a391 1a3b e860 023f
000000d0: 0910 edbe 29ec d6be 2743 e33e c02d 42be
000000e0: deaa 04be f942 333f ad16 603e 607e cf3e
0.56053144 -0.012697063 -0.49384177 -0.2817517 -0.34988832 -0.43538183 -0.3815739 0.5199903
-0.02164772 0.2638934 0.065647155 0.07204217 -0.43953076 -0.27561858 -0.062760025 -0.31844345
0.2445566 -0.09912772 -0.22157584 0.53397375 -0.47139803 0.50715005 -0.14943345 -0.23772529
0.44017902 -0.12884349 -0.32967183 0.011944057 0.32722226 -0.031215237 -0.34220338 -0.11643619
-0.10912674 -0.10162195 -0.60982287 0.3862831 0.13766061 0.10752051 0.41386688 0.044486627
0.51370573 0.35383594 0.11246057 -0.21134488 -0.2654941 -0.012061875 0.22596273 -0.0096532
0.20588091 -0.7355084 0.0023585341 0.5092912 -0.46301296 -0.4197705 0.4438717 -0.18962765
-0.12955806 0.7002407 0.2188365 0.40526104

arith.constant22 f4 [12, 6]
00000000: cccb da3c 79c4 743e 8b1a 5d3d ae8d c3bd
00000010: f5de b2bd a489 f23e 8b49 9d3e ce6a 513e
00000020: 124b 8d3e 6711 17bd 0c4d b1be 02c7 7b3e
00000030: 5fd0 ac3e e562 003f 54fd 12bf aa91 c6be
00000040: aa81 173e 34e8 97bc 6fb9 8d3e 92c9 23be
00000050: 4f74 0a3d 7032 19bf e876 413e 7998 adbe
00000060: 3c8c 24be e8eb ca3e 99da ecbe c3ae 74be
00000070: b886 5f3e 6f69 32bc d9ec fbbe dfd9 80bd
00000080: 4d92 0abf 0981 c23e c585 b7be a686 96be
00000090: 5a25 04bf d575 1cbf c06e 2a3e 645d 523e
000000a0: 1d82 0f3f 0fe2 a8bc f3cb 9a3e 81d7 87be
000000b0: b8b5 103d 9427 713d 2b97 153e e3b5 2ebd
000000c0: 4dfc 803e c483 22be 5e04 4dbe 034d e43e
000000d0: 408a 5cbe e59c edbe bbc5 9cbe ff75 7ebe
000000e0: cb3a 48be 7435 c53e aab3 97be 00d9 70be
000000f0: 9e6d ca3d 3d4b c8be 2abd e8bd ff39 05bf
00000100: 929e c2be be7e 143a 1bd6 39be ba32 053f
00000110: d699 d43e b3d9 d93e 3f93 dfbe b877 7c3e
0.026708506 0.23903073 0.05398039 -0.09548508 -0.08733932 0.47370636 0.3072017 0.20450899
0.27596337 -0.03688183 -0.34629095 0.24587634 0.33752725 0.501509 -0.574178 -0.38783008
0.14795557 -0.01854334 0.27680537 -0.15994862 0.033802327 -0.59842587 0.18893015 -0.3390539
-0.1606912 0.39633107 -0.46260527 -0.23894791 0.21828735 -0.010889395 -0.49204138 -0.062915556
-0.5412949 0.3798907 -0.35844246 -0.29399604 -0.51619494 -0.611173 0.1664381 0.20543438
0.5605791 -0.020615606 0.30233726 -0.26531604 0.03532955 0.058875635 0.14608447 -0.04265393
0.2519249 -0.15870577 -0.20021197 0.44590005 -0.21537113 -0.46408764 -0.30619606 -0.248497
-0.19553678 0.38517344 -0.2962926 -0.23520279 0.09884189 -0.39119902 -0.11364205 -0.5204162
-0.38011605 0.0005664638 -0.18148081 0.5203053 0.41523618 0.42548904 -0.43667027 0.24655044

arith.constant23 f4 [6]
00000000: 79a8 303d 1ae2 9ebd ab4b abbd f13e 5cbd
00000010: 8b78 a6bd 8483 1d3d
0.043129418 -0.07757969 -0.08364042 -0.053770963 -0.081284605 0.0384555

arith.constant24 f4 [6]
00000000: dff0 173d dccf 85bd d57a 99bd 7ff4 85bd
00000010: 040b 813d 579a 47bc
0.037094947 -0.06533787 -0.074941315 -0.065407746 0.06300929 -0.012182794

arith.constant25 f4 [6]
00000000: 6a5d fc3b 0620 7cbd 1b97 51bc 15ae 6dbc
00000010: 260d 713c 4b91 8dbd
0.0077015655 -0.061553977 -0.012792374 -0.014506836 0.0147126075 -0.06912478

arith.constant26 f4 [6]
00000000: 485f 3ebd 8dbc 633d 1cd2 54bd 3f29 79bd
00000010: 9b7c 4abd abb1 453b
-0.046477586 0.055599738 -0.05195819 -0.06083035 -0.04943524 0.0030165713

arith.constant27 f4 [6]
00000000: 0000 0000 73ab 20bd ba1c 3dbc e4e9 2ebd
00000010: 50ef aabb c3c2 33bc
0.0 -0.039226007 -0.0115424935 -0.042703524 -0.0052165166 -0.010971728

arith.constant28 f4 [6]
00000000: 255d aeba 0000 0000 e824 1d3c fcdf 0cbd
00000010: 56ed 0d3d 9c7f 1c3d
-0.0013302906 0.0 0.009591319 -0.034393296 0.03465017 0.038207635

arith.constant29 f4 [6]
00000000: 86c7 03bd 1719 2bbd 8231 f63c efd1 a2bd
00000010: 4ce8 1d3d 4551 cbbb
-0.032172702 -0.041771974 0.030052904 -0.07950198 0.038551614 -0.0062047564

arith.constant30 f4 [6]
00000000: 0f13 92bc e1d2 27bc eda2 443d 8880 86bd
00000010: fe72 babc fa8b 4cbc
-0.017831353 -0.010243149 0.04800694 -0.06567484 -0.02275991 -0.012484545

arith.constant31 f4 [6]
00000000: 3681 d4bb ff81 f33d ded0 a5bc 46a1 7cbd
00000010: 924b febc c334 4abb
-0.0064851297 0.11890029 -0.020241197 -0.06167724 -0.031041894 -0.0030854202

arith.constant32 f4 [6]
00000000: 141f 3fbd d8da 18bd efad a33d ee51 053c
00000010: 84c0 29bd 28ff 9dba
-0.046660498 -0.03731808 0.079921596 0.008137209 -0.041443363 -0.0012054192

arith.constant33 f4 [12]
00000000: da3f 98bd 9cbf 58bd 083e d2bd 6e3c cabd
00000010: f73a 63bd 6162 07be b0ff c2bd ae14 513e
00000020: db25 39be b0e4 de3d 2df7 8d3c 238f b0bd
-0.07434054 -0.052917108 -0.10265738 -0.09874807 -0.055476155 -0.13221122 -0.09521425 0.20418045
-0.18080847 0.108834624 0.017329777 -0.08621051

arith.constant34 f4 [5]
00000000: 4f7e dabc e633 853e c254 953d 2866 71be
00000010: 3a9c 8cbd
-0.026671557 0.26016158 0.07291557 -0.23574126 -0.06865735
